motion_planning/NN_model/models/model_obj_01.pt (torch, 525914 bytes, 21 tensors)

l1.weight f4 [250, 15]
0	0xbdc17bd0	-0.094474435
1	0x3de54602	0.111949936
2	0x3d9a3dfc	0.07531354
3	0x3defa5f6	0.117015764
4	0x3e8918cf	0.2677674
5	0xbe0a8c2b	-0.13530032
6	0xbe4c8aa0	-0.19974756
7	0x3cbf361f	0.023341237
8	0x3ba90435	0.005157972
9	0x3e0aaeef	0.13543294
10	0x3dd10d61	0.1020763
11	0x3e48d38c	0.19611949
12	0xbe7837ed	-0.24240084
13	0xbe69ff41	-0.22851278
14	0xbe843ce2	-0.258277
15	0xbdbfa4a6	-0.09357576
16	0xbc20a3a7	-0.009804643
17	0x3e58cc91	0.21171786
18	0x3bfc4697	0.0076988447
19	0x3e21a14f	0.1578419
20	0xbe73ed7f	-0.23821066
21	0xbe830c6d	-0.25595418
22	0x3d6d2f34	0.057906345
23	0xbcd8bfee	-0.026458707
24	0x3e55d3f8	0.20881641
25	0x3d9ee767	0.0775898
26	0x3e245d6e	0.16051266
27	0x3ed3d9d7	0.41377136
28	0x3efc3cef	0.4926524
29	0x3e348fba	0.17632952
30	0x3d09982c	0.033592388
31	0xbe825e40	-0.25462532
32	0xbd4440b4	-0.04791327
33	0xbe073800	-0.13204956
34	0xbd137d03	-0.036007892
35	0xbf1637b9	-0.58678776
36	0x3dc4b213	0.096042775
37	0x3df3492a	0.11879189
38	0xbe9045ea	-0.2817834
39	0x3dfc8bad	0.123313285
40	0x3e5e8148	0.21729004
41	0xbe03f7b6	-0.12887463
42	0x3d73dfee	0.059539728
43	0xbd512583	-0.051061165
44	0xbfa7dd85	-1.3114477
45	0x3e515124	0.20441109
46	0x3bd6acb6	0.0065513505
47	0x3bda8ed6	0.0066698594
48	0xbdb0a1f2	-0.086246386
49	0x3cd0f4e0	0.02550739
50	0xbe051c21	-0.12999012
51	0xbe2f4c57	-0.17118965
52	0x3d4f8abe	0.050669424
53	0x3d21c338	0.039492816
54	0xbe1ade92	-0.15123966
55	0xbe2b8fa2	-0.1675401
56	0xbcf144e1	-0.02945179
57	0x3e56b440	0.20967197
58	0x3f3d4468	0.73932505
59	0xbf19a543	-0.60017794
60	0x3e0ea41e	0.13929793
61	0xbe783434	-0.24238664
62	0xbe15771b	-0.14596216
63	0x3e4f20ef	0.20227407
64	0xbe09c3b4	-0.13453561
65	0x3d84c371	0.0648259
66	0xbdbb9dee	-0.09160982
67	0x3e56a6f6	0.20962128
68	0x3debf1af	0.11520707
69	0x3e355477	0.17708002
70	0xbe048d23	-0.12944464
71	0xbe4afa66	-0.19822082
72	0x3efe781f	0.4970102
73	0xbe86af25	-0.263055
74	0xbe881af2	-0.26583058
75	0x3d96a685	0.0735598
76	0xbea66586	-0.3249933
77	0xbdcabc79	-0.098992296
78	0xbe123cdd	-0.1428103
79	0x3e50e060	0.20398092
80	0x3e347762	0.17623666
81	0xbd8d5a5b	-0.069019996
82	0x3e1c0690	0.15236878
83	0xbe076162	-0.13220742
84	0xbd2af2fd	-0.041735638
85	0xbd91d998	-0.07121581
86	0x3d63a65d	0.05557858
87	0x3dfd0fba	0.12356515
88	0xbe92b25e	-0.28651708
89	0x3ecf3172	0.4046741
90	0x3e2d19f7	0.16904436
91	0xbe33ec87	-0.17570697
92	0xbe5b9eef	-0.21447347
93	0x3d02d9d0	0.031946003
94	0xbdefd6e5	-0.1171091
95	0xbf082992	-0.5318843
96	0x3e6bec83	0.23039441
97	0x3dc45d35	0.0958809
98	0xbb9b2346	-0.0047344295
99	0xbd0aaf6f	-0.033858713
100	0xbe40f8fd	-0.18844981
101	0x3de164a9	0.110055275
102	0x3ee16483	0.44021997
103	0x3d7e0939	0.062020514
104	0x3f89020f	1.0703753
105	0x3da6c40f	0.08142864
106	0x3dbdbb81	0.09264279
107	0x3d03f5a5	0.032216687
108	0x3db77f34	0.08959809
109	0xbe0a3fc9	-0.13500895
110	0xbd05e8cc	-0.032692716
111	0x3e1a1989	0.15048803
112	0xbd5c82e0	-0.05383575
113	0xbde40acb	-0.11134871
114	0x3cbd9050	0.023140103
115	0x3e15faf9	0.1464652
116	0x3d716a60	0.058939338
117	0x3e0cb572	0.13741091
118	0xbd2fbeae	-0.042906456
119	0x3e9bb095	0.3040816
120	0x3e398790	0.18118119
121	0xbdd917a2	-0.10600211
122	0x3d466ed9	0.048445556
123	0xbd4ed086	-0.050491832
124	0x3e57c900	0.21072769
125	0x3d29911d	0.041398156
126	0x3d9a4104	0.07531932
127	0x3afc6a3b	0.0019257733
128	0x3e1b6527	0.15175305
129	0x3db41fec	0.08795151
130	0x3dcfc9b7	0.10145896
131	0x3c3b1aa4	0.011419926
132	0x3f1f558b	0.62239903
133	0xbe91b718	-0.28460002
134	0xbde849b9	-0.113421865
135	0x3e2e3aa8	0.17014563
136	0x3d9d9b31	0.07695616
137	0x3e07a71f	0.13247345
138	0xbca996b0	-0.020701736
139	0xbc84b220	-0.016198218
140	0x3d28e5e9	0.041234884
141	0x3cd40dfa	0.02588557
142	0x3c85a93f	0.016316054
143	0x3e337429	0.1752478
144	0xbda20f4e	-0.079130754
145	0x3dec1daf	0.11529099
146	0xbc6d436c	-0.014481407
147	0x3de4d16a	0.11172755
148	0x3e6d2aa0	0.23160791
149	0x3c5b698e	0.013391865
150	0x3e907857	0.28216812
151	0xbd8f737b	-0.07004448
152	0x3d285551	0.04109699
153	0xbd7e4d33	-0.06208534
154	0x3e702217	0.23450504
155	0x3d8b1a70	0.06792152
156	0x3d86dd7a	0.06585212
157	0x3e0b59a6	0.13608417
158	0xbdea2a7b	-0.11433884
159	0xbd61b829	-0.05510727
160	0xbd430cdd	-0.04761969
161	0x3dad41d2	0.0845982
162	0x3ee8fa81	0.4550362
163	0xbf3bb7b4	-0.73327184
164	0xbee319dc	-0.44355667
165	0x3e12ed6c	0.14348382
166	0xbe3cd6e3	-0.18441348
167	0xbe8a057f	-0.26957318
168	0x3d993f23	0.074827455
169	0xbdbfba27	-0.093616776
170	0x3e9b89c5	0.30378547
171	0x3e4f7aff	0.20261763
172	0xbe3f38de	-0.18674037
173	0xbd897b54	-0.06712976
174	0x3e65a28b	0.22425286
175	0xbe3776c0	-0.17916393
176	0xbde6bdf5	-0.112667
177	0x3ee92663	0.455371
178	0xbf31b5c3	-0.6941797
179	0x3eadb0be	0.33923906
180	0x3ea1d145	0.31604972
181	0xbceb9ce0	-0.028761327
182	0xbe1631c0	-0.14667416
183	0x3e052d80	0.13005638
184	0x3d8f77c7	0.070052676
185	0x3e8286a7	0.25493357
186	0xbd5cc1a3	-0.053895604
187	0xbdd4dac9	-0.103932925
188	0xbe2f2384	-0.17103392
189	0xbe16e33f	-0.14735125
190	0x3dd78f0a	0.105253294
191	0xbb8da081	-0.004322112
192	0x3e5ff34a	0.21870151
193	0xbf156d56	-0.5836996
194	0x3ea2c777	0.31792805
195	0x3e4a95d6	0.1978372
196	0xbe919018	-0.28430247
197	0xbbfd7401	-0.007734776
198	0x3d78a4e8	0.06070414
199	0xbe83486b	-0.25641188
200	0x3df364f6	0.11884491
201	0x3dea4e97	0.11440771
202	0xbce917e8	-0.028453782
203	0xbe3165b1	-0.17323948
204	0x3c213259	0.009838664
205	0x3df88cb3	0.12136211
206	0x3d9dcc68	0.07705003
207	0xbf84c665	-1.0373045
208	0xbe9c17d6	-0.30486935
209	0xbf695081	-0.91138464
210	0xbd82fb86	-0.063956305
211	0x3e071eb4	0.13195306
212	0xbd508d71	-0.05091614
213	0xbdac3b3a	-0.08409734
214	0x3d5cbc19	0.05389032
215	0xbd6a288f	-0.057167586
216	0x3d39f84e	0.045402817
217	0x3e09501c	0.13409466
218	0x3c9a15e1	0.01880926
219	0x3d60fc1c	0.05492793
220	0xbd3aaf73	-0.045577478
221	0x3d1d8764	0.038459197
222	0x3e82d4e5	0.2555305
223	0x3e78b5a7	0.24288045
224	0x3e902c9e	0.2815904
225	0xbe327b61	-0.17429878
226	0xbe1b69e1	-0.15177108
227	0x3e8531d6	0.26014584
228	0xbd508c45	-0.05091502
229	0xbed0ee29	-0.40806702
230	0x3e6149a8	0.22000754
231	0xbde8ef68	-0.11373788
232	0x3d69c308	0.057070762
233	0xbd5302c8	-0.051516324
234	0x3dfc728d	0.12326536
235	0x3e8bc4bb	0.2729853
236	0xbd50ac81	-0.050945763
237	0x3f68a6a5	0.9087928
238	0x3ebc7173	0.36805305
239	0xbda9e50f	-0.082956426
240	0xbcf00c17	-0.02930264
241	0xbd6ecc67	-0.058300402
242	0x3ba14ef0	0.00492274
243	0xbe2f887c	-0.17141908
244	0x3cb9b8a2	0.022671048
245	0x3d33f64a	0.04393605
246	0xbd88f97f	-0.066882126
247	0x3e3a2a5f	0.18180226
248	0x3d1c7cb2	0.038204856
249	0xbe5d10db	-0.21588461
250	0xbb58d3be	-0.0033085193
251	0xbd0e432d	-0.034732033
252	0xbe600ebd	-0.21880622
253	0x3dc14e40	0.09438753
254	0x3e841940	0.25800514
255	0x3e6de77c	0.23232836

l1.bias f4 [250]
0	0xbcc0a393	-0.023515498
1	0x3e28583d	0.1643991
2	0xbb9fcc50	-0.004876651
3	0x3e80d77d	0.25164405
4	0xbe8cc546	-0.27494258
5	0x3ca3d3b3	0.019998407
6	0xbe86daad	-0.2633871
7	0x3c39329f	0.011303573
8	0x3da4e390	0.080512166
9	0xbe10e007	-0.1414796
10	0xbe0a4048	-0.13501084
11	0x3e3c335b	0.18378966
12	0x3c88edf5	0.01671503
13	0xbe6c813e	-0.23096177
14	0x3b138961	0.0022512304
15	0x3e12bc14	0.14329559
16	0x3e277632	0.16353682
17	0x3e31bf1a	0.17358056
18	0x3e1a3442	0.15058997
19	0xbd16a15d	-0.03677498
20	0x3da78671	0.081799395
21	0xbdfc65d6	-0.12324111
22	0x3e8cdb5f	0.27511117
23	0xbeb85d15	-0.36008516
24	0xbe3816f6	-0.17977509
25	0xbe186f7b	-0.14886276
26	0x3e00cc38	0.12577903
27	0x3d020b8e	0.0317493
28	0x3e6498d4	0.22323924
29	0xbd6a8737	-0.057257857
30	0xbb7ec35e	-0.0038873772
31	0x3d9aac7b	0.07552429
32	0x3e5d7ec2	0.21630386
33	0xbe677938	-0.22604835
34	0xbe04466c	-0.12917489
35	0xbdbe577b	-0.09294029
36	0xbe95582a	-0.29168826
37	0xbe23facc	-0.1601364
38	0x3e748b0c	0.23881167
39	0xbe846085	-0.2585489
40	0xbd38e050	-0.045135796
41	0x3e00d2e2	0.12580445
42	0xbe3fbef4	-0.18725187
43	0x3d43ce40	0.047804117
44	0xbe8ea39d	-0.27859202
45	0x3e207b9d	0.15672155
46	0xbea50875	-0.32233015
47	0x3e181c23	0.14854483
48	0x3e2b9366	0.16755447
49	0xbe4de19e	-0.20105597
50	0x3c1f8537	0.009736351
51	0x3cee606e	0.029098716
52	0x3e0f2b9a	0.13981476
53	0x3d4472ba	0.047960974
54	0xbdff1864	-0.12455824
55	0x3da86c79	0.082238145
56	0x3d6a3f3f	0.057189222
57	0x3d84f912	0.06492819
58	0x3e646770	0.22305083
59	0x3df54cc6	0.11977534
60	0x3e25795e	0.16159579
61	0xbc3fd83e	-0.011709271
62	0xbd9b2bf0	-0.0757674
63	0xbdb490ed	-0.08816705
64	0x3e0e3357	0.13886772
65	0xbdb4dd7e	-0.08831309
66	0xbe948d00	-0.29013824
67	0x3c9e6b1a	0.01933818
68	0xbdd22fd2	-0.10263027
69	0x3daf599a	0.08562012
70	0x3e3529a6	0.17691669
71	0x3d7d042b	0.061771553
72	0xbdcfd4b4	-0.10147992
73	0x3d3dd7f0	0.046348512
74	0xbdf34b88	-0.11879641
75	0xbe8deecb	-0.27721247
76	0xbe8aafcc	-0.27087247
77	0x3e03ca1f	0.12870072
78	0xbe28d409	-0.16487135
79	0x3de8a7d2	0.11360134
80	0x3e502ba3	0.20329146
81	0xbd09af52	-0.033614464
82	0xbe9b6e77	-0.30357715
83	0xbe18d1ff	-0.14923857
84	0x3dda2e56	0.10653369
85	0x3e76f353	0.24116258
86	0xbe4e18b1	-0.20126607
87	0x3e4f63f3	0.20252971
88	0x3dc7e593	0.09760585
89	0x3d922cb0	0.0713743
90	0x3d8c35f8	0.06846231
91	0xbe4cfdc0	-0.20018673
92	0x3e521e44	0.20519358
93	0x3da093f4	0.0784072
94	0xbe387ae3	-0.18015628
95	0xbe27d422	-0.16389516
96	0x3d502286	0.050814174
97	0xbdc2043d	-0.09473465
98	0x3d085710	0.033286154
99	0xbe46ab10	-0.19401193
100	0xbd1a712c	-0.037705585
101	0xbe0e9b4c	-0.13926429
102	0x3dcdb182	0.100436226
103	0x3db5c39f	0.088752024
104	0x3bd64926	0.0065394817
105	0x3d81924b	0.06326731
106	0x3dcd8b35	0.10036317
107	0x3bbfe477	0.0058560926
108	0x3c1a1e2b	0.009406607
109	0x3d8ab585	0.06772903
110	0xbe062527	-0.1310011
111	0x3dcb0fc2	0.09915115
112	0x3df1f9c7	0.11815219
113	0xbe28b1e5	-0.16474111
114	0xbb651a9a	-0.0034958483
115	0x3df23ef8	0.118284166
116	0x3cec8040	0.028869748
117	0x39c0b56b	0.0003675626
118	0x3e176147	0.14783202
119	0xbd8d29c4	-0.06892732
120	0x3e20ab45	0.15690334
121	0xbe12596b	-0.14291923
122	0xbe0efd4d	-0.13963814
123	0xbe2dc9d1	-0.16971518
124	0xbd251b46	-0.040309213
125	0x3e4d3168	0.20038378
126	0xbe46c8c8	-0.1941253
127	0xbdbfebf4	-0.09371176
128	0xbda9d87a	-0.08293243
129	0xbddfbae8	-0.109243214
130	0xbe373e9e	-0.1789498
131	0x3e408a9d	0.18802877
132	0xbd68f229	-0.056871567
133	0xbe4196bc	-0.18905157
134	0xbdb614c4	-0.088906795
135	0xbd0843b8	-0.033267707
136	0xbc47d41d	-0.012196568
137	0xbd9800a9	-0.07422001
138	0xbe103cbc	-0.14085668
139	0x3dbd92a5	0.09256486
140	0x3dc24603	0.0948601
141	0xbd935e6a	-0.071957424
142	0xbedd4e8b	-0.43223986
143	0xbd3e328c	-0.046434924
144	0xbe51d9d3	-0.2049325
145	0xbda6a4ee	-0.081369266
146	0xbe406fb0	-0.18792605
147	0x3da52bdc	0.08065006
148	0xbdd78cae	-0.105248794
149	0xbe0d115d	-0.13776155
150	0xbe34e038	-0.17663658
151	0xbe08a496	-0.13344035
152	0xbe645832	-0.22299269
153	0xbe0c3dd6	-0.13695464
154	0x3e89211e	0.2678308
155	0x3da48e31	0.08034933
156	0xbdac79b5	-0.08421651
157	0x3c74155a	0.014897669
158	0x3e51fbe9	0.20506252
159	0x3e78ee3b	0.24309628
160	0x3d2d190a	0.042260207
161	0xbdca1f26	-0.09869222
162	0x3c81aa59	0.015828298
163	0xbdadfab2	-0.08495082
164	0x3dcbdb54	0.09953943
165	0x3e0c9852	0.1372998
166	0xbd8adb78	-0.067801416
167	0xbd3df0e4	-0.04637231
168	0xbd846ed3	-0.064664505
169	0x3e449fd3	0.19201593
170	0xbd539507	-0.051655795
171	0xbd9a2e5d	-0.07528374
172	0x3dec6954	0.11543527
173	0x3cfcae82	0.03084493
174	0xbd02f5bd	-0.031972636
175	0x3e4ca1ee	0.19983646
176	0x3e86a64d	0.26298752
177	0x3e510d41	0.20415212
178	0xbe3ad273	-0.18244343
179	0xbcac105c	-0.021003895
180	0xbe245515	-0.16048081
181	0x3e9424ec	0.2893442
182	0x3d2f47b2	0.042792983
183	0x3d145b77	0.03622004
184	0xbd8fdd61	-0.070246466
185	0x3ddee14d	0.108828165
186	0xbdf74543	-0.120737575
187	0x3c42e1ae	0.011894627
188	0x3d2b8b7e	0.041881077
189	0xbd55b33d	-0.052172888
190	0x3e568561	0.20949318
191	0x3e1ee79d	0.15518041
192	0x3e050018	0.12988317
193	0x3db978ae	0.09056221
194	0xbca84521	-0.020540776
195	0xbe35bea5	-0.17748506
196	0x3df66463	0.12030866
197	0xbe30dd9b	-0.17272036
198	0xbe2d784e	-0.16940424
199	0xbd4bae18	-0.049726576
200	0xbde9d9cc	-0.114184946
201	0xbd3d859c	-0.046269998
202	0xbdafec5f	-0.08590006
203	0x3e252682	0.16127971
204	0xbceccc51	-0.02890602
205	0xbe30fcfa	-0.17284003
206	0x3d3044c1	0.04303432
207	0xbe708c03	-0.2349091
208	0xbda2aef4	-0.07943526
209	0xbe7ec4e2	-0.24879792
210	0x3dffd830	0.12492406
211	0xbe6cdd1a	-0.23131219
212	0x3ddb3998	0.107043445
213	0xbe82b1d0	-0.25526285
214	0xbe6bdda0	-0.23033762
215	0x3e162943	0.14664178
216	0x3df74c69	0.12075121
217	0x3db1d7de	0.086837515
218	0x3d5bfc0c	0.053707168
219	0xbe49cd65	-0.19707258
220	0x3d8b0317	0.06787699
221	0xbd7b4049	-0.061340604
222	0xbd91808c	-0.071045965
223	0xbe3bea11	-0.18351008
224	0xbc79ef3b	-0.015254791
225	0xbe7bf4f6	-0.24605164
226	0xbdffde08	-0.12493521
227	0xbe3c8562	-0.18410257
228	0x3d893d5a	0.06701155
229	0x3e182a8c	0.1485998
230	0x3d8cc0ba	0.06872697
231	0x3c99a153	0.018753683
232	0x3e458b0a	0.1929132
233	0x3d342ec0	0.043989897
234	0xbd5962d9	-0.053072784
235	0x3e6d8eff	0.2319908
236	0xbc559fef	-0.013038619
237	0x3e900f93	0.28136882
238	0xbd2fe89e	-0.04294645
239	0x3b28bbcc	0.0025746701
240	0x3d660c1b	0.05616389
241	0xbe0032fa	-0.12519446
242	0x3d6f1816	0.05837258
243	0x3dd90621	0.10596872
244	0xbe75faa1	-0.24021389
245	0x3db2315c	0.08700821
246	0x3e4978eb	0.19675033
247	0x3e45798a	0.19284645
248	0xbe505df3	-0.20348339
249	0xbe5ab0b1	-0.21356465

l2.weight f4 [130, 250]
0	0x3ad4253b	0.0016185412
1	0x3db121f7	0.086490564
2	0x3c9da4cf	0.019243626
3	0xbc1ab2e4	-0.009442065
4	0xbe0e723d	-0.13910766
5	0xbcde6ed9	-0.027152466
6	0xbe625440	-0.22102451
7	0xbab94aa5	-0.0014136626
8	0x3cbba1fe	0.022904392
9	0x3dc1cacd	0.09462509
10	0xbd468eed	-0.04847615
11	0xbe0cf85c	-0.13766617
12	0xbe40a113	-0.18811445
13	0x3e2e9635	0.17049487
14	0x3d63529a	0.055498697
15	0x3d68c15a	0.05682502
16	0x3c82589e	0.015911397
17	0xbd83157d	-0.06400583
18	0x3d4ff16c	0.050767347
19	0xbea473c4	-0.32119572
20	0x3e8b49d2	0.27204758
21	0x3d3ba52b	0.045811813
22	0xbeb7600e	-0.3581547
23	0x3ddb0c36	0.106956884
24	0x3d9a1ff5	0.075256266
25	0xbe29f735	-0.16598208
26	0x3ca0f6b8	0.019648895
27	0xbd856197	-0.065127544
28	0xbd6eced0	-0.0583027
29	0x3d8b91d4	0.06814924
30	0xbd748f4b	-0.059706967
31	0x3d03ecef	0.03220838
32	0x3bdd45b0	0.006752692
33	0xbcc20acd	-0.02368679
34	0xbd8b5329	-0.06802971
35	0xbb83654d	-0.0040098787
36	0x3deb0362	0.114752546
37	0xbd1152a6	-0.03547921
38	0xbccf6db4	-0.025320865
39	0x3d831dcb	0.06402167
40	0x3dc71666	0.09721069
41	0xbd81c16d	-0.06335721
42	0xbbcfd529	-0.0063425493
43	0x3d7cbfc7	0.06170633
44	0x3d28f5a4	0.041249886
45	0xbe539620	-0.20662737
46	0xbe6dbc30	-0.23216319
47	0x3daf2763	0.08552434
48	0x3d915efe	0.070981964
49	0x3b184be8	0.0023238603
50	0xbda4fdcc	-0.080562204
51	0x3d089adf	0.03335082
52	0xbc114e14	-0.008868713
53	0xbdd66b96	-0.10469739
54	0xbdd42d1c	-0.103601664
55	0x3e33c874	0.17556936
56	0x3db1bc6a	0.08678515
57	0xbd84e6ff	-0.064893715
58	0xbcd7180e	-0.026256587
59	0x3b1025e0	0.0021995232
60	0xbc80a08f	-0.01570156
61	0xbdb8f814	-0.09031692
62	0xbdaf6942	-0.08564998
63	0x3dc02f4b	0.093840204
64	0xbc6a1cd3	-0.014289099
65	0xbb2a70bf	-0.0026007143
66	0x3ddb0ae1	0.10695434
67	0xbc9ab070	-0.01888296
68	0xbf6cee4d	-0.9255112
69	0xbd6a96b4	-0.057272628
70	0x3eb6f10b	0.35730776
71	0x3ce904ec	0.02844473
72	0x3cedfca3	0.02905113
73	0x3e4811a5	0.19537981
74	0xbcac44d4	-0.021028914
75	0xbe3f6a3f	-0.18692873
76	0xbea2a079	-0.31763056
77	0xbce35747	-0.027751578
78	0xbd6a534d	-0.057208348
79	0x3dabdd02	0.08391763
80	0xbd8e1507	-0.069376044
81	0x3d129e59	0.035795543
82	0x3e120d6d	0.14262934
83	0x3d90e822	0.07075526
84	0x3d59c03e	0.053161852
85	0xbe52f037	-0.20599447
86	0xbe070ca7	-0.1318842
87	0x3d18a5ab	0.03726737
88	0x3d5faa30	0.054605663
89	0x3d7ebafc	0.06219004
90	0xbe50dc13	-0.20396452
91	0xbd2221b4	-0.039582923
92	0xbd11b1ca	-0.035569943
93	0xbdbd2f17	-0.09237497
94	0x3ef8fcfc	0.48630512
95	0x3dec7ba5	0.11547021
96	0x3bd20d49	0.006410275
97	0x3d835a1b	0.06413671
98	0xbd7cfaf2	-0.061762758
99	0xbd7d184e	-0.061790757
100	0x3dad6b97	0.08467787
101	0xbdda7f3e	-0.10668801
102	0xbebbafaf	-0.36657473
103	0xbd92591b	-0.07145902
104	0x3dce6e79	0.10079665
105	0xbe0c856d	-0.13722773
106	0xbd4ebcd9	-0.050473068
107	0x3c411925	0.01178578
108	0x3d82fc55	0.06395785
109	0x3e01b931	0.12668301
110	0x3d3ead15	0.046551783
111	0x3d5a6c5c	0.053325996
112	0xbeb127d7	-0.34600708
113	0x3d8cfa1c	0.06883642
114	0xbd344571	-0.044011537
115	0xbd3f6812	-0.04673011
116	0xbd50eae7	-0.05100527
117	0x3e560b41	0.2090273
118	0xbbe20c9c	-0.006898476
119	0xbd326bbf	-0.043559786
120	0x3cd71feb	0.026260337
121	0xbde662f3	-0.11249342
122	0xbdc9a147	-0.09845214
123	0xbd5fd4a3	-0.054646146
124	0x3a51b0ea	0.00079990795
125	0x3da058c3	0.0782943
126	0xbd97821d	-0.07397864
127	0x3e06dcea	0.1317021
128	0xbcd8530a	-0.026406784
129	0xbdd2b6a4	-0.10288742
130	0xbd40602e	-0.046966724
131	0x3c21e926	0.009882247
132	0x3d06d858	0.032921165
133	0x3cdb636c	0.026780806
134	0xbc45f572	-0.0120824445
135	0xbd6c823f	-0.0577414
136	0xbd234cd1	-0.03986818
137	0xbd9b55bd	-0.07584713
138	0xbd891bc9	-0.06694753
139	0xbd0deec2	-0.034651525
140	0xbd2e25d0	-0.04251653
141	0x3c5fef99	0.013667964
142	0xbe5f9e04	-0.21837622
143	0x3d9beefc	0.07613942
144	0x3d8baa43	0.06819584
145	0x3dbbd459	0.091713615
146	0xbda0de41	-0.078548916
147	0x3defdbe7	0.11711865
148	0xbe8d14d1	-0.27554944
149	0x3d4554f8	0.048176736
150	0xbddcf713	-0.10789313
151	0xbd243e1a	-0.040098287
152	0x3dd7c7be	0.10536145
153	0x3d97d5fb	0.074138604
154	0x3c76a260	0.015053362
155	0x3d8c1157	0.06839245
156	0xbe73cb84	-0.23808104
157	0x3d324ae6	0.04352846
158	0xbd598e57	-0.05311426
159	0xbd0e4efb	-0.03474329
160	0x3bc27aba	0.0059350403
161	0xbdfc0d3e	-0.12307213
162	0xbdaf70c3	-0.085664295
163	0x396af931	0.0002240881
164	0xbc8a4248	-0.016877308
165	0xbc4478e1	-0.01199171
166	0xbcf972d7	-0.030450268
167	0x3c8d024a	0.017213006
168	0xbe193ac4	-0.14963824
169	0x3d620a2f	0.055185493
170	0xbd71de2d	-0.059049774
171	0xbd140e26	-0.036146306
172	0x3b56a50e	0.003275219
173	0xbdb8f23c	-0.090305775
174	0x3daac9e3	0.08339288
175	0x3cf2da66	0.029645156
176	0xbc9b76ca	-0.018977541
177	0x3bbbcac4	0.0057309587
178	0xbdbad204	-0.091220886
179	0x3d2d5011	0.042312685
180	0xbda66d73	-0.081263445
181	0xbaed21eb	-0.0018091773
182	0xbde4ce35	-0.11172143
183	0xbd2dc4c7	-0.04242399
184	0xbe26ba89	-0.16282095
185	0x3d16c4d7	0.036808815
186	0x3e37e234	0.17957383
187	0xbea32b55	-0.31868997
188	0x3c379c68	0.011206724
189	0xbd352c1a	-0.04423151
190	0x3e6e43b5	0.23268016
191	0x3c24096e	0.010012014
192	0x3d58ab0a	0.05289749
193	0xbdfe391c	-0.124132365
194	0xbcf81122	-0.030281607
195	0x3d81994e	0.06328069
196	0xb909ec69	-0.00013153408
197	0xbda63d66	-0.081171796
198	0xbdc2f48f	-0.09519302
199	0xbd8efbd3	-0.069816254
200	0xbc9853e7	-0.018594695
201	0x3db770b4	0.08957043
202	0x3da5538f	0.08072578
203	0x3dba5e3b	0.09100004
204	0x3d4353c8	0.047687322
205	0xbe320a58	-0.17386758
206	0xbdc3d129	-0.095613785
207	0xbe71be93	-0.23607855
208	0xbd74f65d	-0.059805263
209	0xbd625512	-0.05525691
210	0x3d6d8785	0.05799057
211	0xbd2f8b6b	-0.04285757
212	0x3cdeb05d	0.027183706
213	0xbea2a8bf	-0.31769368
214	0xbb8c7d03	-0.0042873635
215	0x3d047ca9	0.032345448
216	0x3deabd01	0.11461831
217	0xbdcf20e0	-0.10113692
218	0x3be49b7c	0.006976543
219	0xbe176ad0	-0.1478684
220	0x3bd15502	0.0063883075
221	0xbdaa6823	-0.08320644
222	0xbcd9e602	-0.026598934
223	0x3ca80f20	0.020515025
224	0x3d7420eb	0.059601706
225	0xbeef4d0b	-0.46738467
226	0xbd87cf79	-0.06631369
227	0x3c0dd960	0.008657783
228	0x3d87313a	0.06601186
229	0x3d969651	0.07352889
230	0x3c6af6c9	0.014341065
231	0x3dbf46e8	0.09339696
232	0x3d71ebe2	0.059062846
233	0xbc328f10	-0.010898367
234	0x3b6135f4	0.0034364434
235	0x3d7bfaec	0.061518595
236	0xbdaf0e5c	-0.08547661
237	0xbddab23d	-0.106785275
238	0xbcca1bda	-0.024671484
239	0xbda87bb4	-0.082267195
240	0xbd9d9264	-0.076939374
241	0x3cadef53	0.021232283
242	0xbc1c4933	-0.009538936
243	0x3e54454f	0.20729564
244	0x3cf6e7b6	0.030139785
245	0x3c2bbfe2	0.01048276
246	0xbda07d57	-0.07836407
247	0xbe2b343a	-0.16719142
248	0x3dae55bf	0.085124485
249	0xbe4403f8	-0.19142139
250	0x3d8b8210	0.06811917
251	0x3d3f80ff	0.04675388
252	0xbeb3f9a9	-0.35151413
253	0x3d777a2c	0.060419247
254	0xbe91e81f	-0.28497407
255	0xbe127b45	-0.14304836

l2.bias f4 [130]
0	0x3db63b24	0.08897999
1	0xbd5d8449	-0.054081235
2	0xbdbd9a48	-0.092579424
3	0x3bf42097	0.007450174
4	0xbd24f4b4	-0.04027243
5	0xbd34d574	-0.044148877
6	0x3d0b5e1e	0.034025304
7	0x3e085880	0.1331501
8	0xbdb50ce5	-0.0884035
9	0xbd6ffa60	-0.058588386
10	0x3ddf3ac4	0.108998805
11	0x3ce1ceb5	0.027564386
12	0xbd1c8d1d	-0.038220514
13	0x3d2eac95	0.042645056
14	0x3d9d00b0	0.07666147
15	0x3c4851ef	0.012226566
16	0x3d038a1c	0.032114133
17	0x3d8460fd	0.064638115
18	0xbd9739d8	-0.0738408
19	0xbcdfd0ad	-0.027321184
20	0x3d112587	0.03543618
21	0xbb8f8baa	-0.004380663
22	0xbd3aeb8e	-0.0456348
23	0xbe1bbf67	-0.15209733
24	0x3d3ce01d	0.04611217
25	0xbcf32fb4	-0.029685833
26	0x3c682e8e	0.014171256
27	0x3c4b252a	0.012398997
28	0x3d862242	0.06549503
29	0xbd88ca4b	-0.06679209
30	0xbcfc043f	-0.030763743
31	0xbbc3bfba	-0.0059737833
32	0xbe52c3e6	-0.20582542
33	0x3cd86449	0.026415007
34	0xbb6c4ece	-0.0036057713
35	0xbda45b0e	-0.0802518
36	0x3d707747	0.0587075
37	0x3da80c71	0.08205498
38	0xbcdc12be	-0.026864406
39	0x3c9cbd3e	0.019133206
40	0x3c6bc9bd	0.01439136
41	0xbd3759d0	-0.044763386
42	0xbd89063c	-0.06690642
43	0x3d085656	0.03328546
44	0xbcecc8d1	-0.02890435
45	0xbca447df	-0.020053802
46	0xbc7372e8	-0.014858939
47	0x3c2adf33	0.010429191
48	0xbcb96514	-0.022631206
49	0x3b8089d1	0.003922679
50	0xbd0436df	-0.03227889
51	0xbb9050e8	-0.004404176
52	0x3d3e54e7	0.046467688
53	0xbc3b27eb	-0.011423091
54	0xbb8c3fb3	-0.0042800545
55	0xb89bc001	-7.4267395e-05
56	0x3d834448	0.06409508
57	0xbcb8b9de	-0.022549566
58	0x3beb0678	0.007172402
59	0x3d19b2a5	0.037523884
60	0x3d962107	0.07330518
61	0x3d40f65b	0.047109943
62	0xbd8552bf	-0.06509923
63	0xbd2e313b	-0.04252742
64	0x3d257436	0.04039403
65	0xbd4e0ec6	-0.050307058
66	0xbd59801a	-0.053100683
67	0x3d573699	0.052542303
68	0xbd95f7c1	-0.07322646
69	0xbd64528b	-0.05574278
70	0xbd7a1c3c	-0.061062083
71	0xbdac1b37	-0.08403628
72	0x3cf0f7ce	0.029415037
73	0xbd74ca66	-0.059763335
74	0xbd533b15	-0.051570017
75	0xbda2b671	-0.07944954
76	0xbd821b4a	-0.06352861
77	0xbdc2ab97	-0.095053844
78	0x3d326865	0.04355659
79	0xbc422e43	-0.01185185
80	0xbd99502b	-0.07485994
81	0x3d09f4d3	0.03368075
82	0xbce46a68	-0.02788277
83	0xbb9efcf0	-0.00485193
84	0x3c8fd1a8	0.017556027
85	0xbd18e842	-0.037330873
86	0xbb5c7dd2	-0.003364433
87	0xbc91aa6b	-0.017781457
88	0xb9edaaea	-0.00045331503
89	0xbd948333	-0.07251587
90	0xbbebf5f0	-0.007200949
91	0xbd8fa6bc	-0.07014224
92	0xbd223cda	-0.039608814
93	0x3ccb76b1	0.02483687
94	0x3d451adc	0.04812132
95	0x3c37f149	0.01122696
96	0xbcc230cc	-0.023704909
97	0xbca0ff3d	-0.019652957
98	0xbd37819f	-0.04480135
99	0xbc2a3190	-0.010387793
100	0x3d68c105	0.056824703
101	0xbd454022	-0.048156865
102	0x3c5c8e3e	0.013461648
103	0x3d81a9ef	0.063312404
104	0xbd2b1596	-0.041768633
105	0xbb1752c1	-0.0023090097
106	0x3d35abed	0.044353414
107	0xbd3983c4	-0.045291677
108	0x3c9c5f58	0.019088432
109	0xbb0640af	-0.0020485332
110	0xbcd68d50	-0.02619043
111	0x3b3133c6	0.0027038916
112	0xbd745a84	-0.059656635
113	0xbc8f078a	-0.01745965
114	0xbc9e4e7f	-0.01932454
115	0xbd8952af	-0.06705224
116	0xbd06b7a2	-0.03288997
117	0x3ca3d504	0.019999035
118	0xbd644209	-0.05572704
119	0x3cdb1171	0.026741715
120	0xbd1d81a9	-0.03845373
121	0x3b38254d	0.0028098405
122	0xbd0a4a74	-0.03376241
123	0x3d22d69e	0.039755456
124	0xbc202b27	-0.009775913
125	0x3bca199f	0.006167605
126	0x3cfa42bd	0.030549401
127	0xbd699b83	-0.057033073
128	0x3dc22d0f	0.094812505
129	0xbb81ccf2	-0.003961199

l3.weight f4 [50, 130]
0	0xbb9efcb3	-0.0048519014
1	0xbfa54473	-1.2911514
2	0xbd967ac6	-0.07347636
3	0x3df5dbbc	0.12004802
4	0x3dd0c852	0.10194458
5	0x3e44d01e	0.19220015
6	0x3a2f3a5c	0.00066844164
7	0xc0bd4e55	-5.915812
8	0xbf3946d1	-0.7237368
9	0xbd1c5f07	-0.038176563
10	0xbe87c4ca	-0.26517326
11	0x3a9ee939	0.0012123949
12	0x3e3249af	0.1741092
13	0xbd2ef78f	-0.04271656
14	0x3e11ee95	0.14251168
15	0x3ec16052	0.377688
16	0xc004c5f7	-2.0745828
17	0x3d5cdf32	0.053923793
18	0xbd6e470e	-0.05817323
19	0x3d9716ae	0.07377373
20	0xbe2c9b3c	-0.16856092
21	0xbe4be4ec	-0.19911546
22	0x3e02f639	0.12789239
23	0xbedfbfde	-0.4370107
24	0xbd6c2b29	-0.05765835
25	0x3aca6bf3	0.0015443548
26	0xbdbff689	-0.09373195
27	0xbd3a8ec4	-0.04554631
28	0xbeb176ae	-0.34660858
29	0xbd74883a	-0.05970023
30	0x3db9125a	0.090367034
31	0x3ec4383f	0.38324162
32	0xbd90a987	-0.07063585
33	0x3d90e5cb	0.070750795
34	0x3d644f62	0.055739768
35	0xbebcbdbf	-0.36863515
36	0xc115f6ca	-9.372751
37	0x3e42a1c6	0.19007024
38	0x3d51df16	0.051238142
39	0xbe04efea	-0.12982145
40	0x3ea1058e	0.3144955
41	0xbf040791	-0.51574045
42	0xbda37acf	-0.07982408
43	0xbb077864	-0.0020671124
44	0xbd6eb628	-0.058279186
45	0xbb9095d7	-0.0044123936
46	0xbd0a036d	-0.033694673
47	0xbd52d95f	-0.051476832
48	0xbcb06cd0	-0.02153626
49	0x3e261c87	0.1622182
50	0x3dc1c52d	0.094614364
51	0x3ce0b6af	0.02743086
52	0xbde3a3d3	-0.11115231
53	0xbddca356	-0.10773341
54	0xbcafe599	-0.021471785
55	0xbeaad529	-0.33365753
56	0x3e6132c2	0.21992019
57	0x3d8e9f3d	0.06963966
58	0x3cae9e39	0.02131568
59	0xbcedc0c0	-0.029022574
60	0xbf6f55a2	-0.9349004
61	0x3dad06f3	0.08448591
62	0xbd25b968	-0.04046002
63	0x3e45bb2a	0.19309679
64	0xbd7ca516	-0.061680876
65	0x3deac136	0.11462633
66	0x3df73fd3	0.120727204
67	0xbd02c338	-0.031924456
68	0xbed7f4c7	-0.42178938
69	0xbd440744	-0.04785849
70	0x3dc3de89	0.095639296
71	0xb9870a1e	-0.00025756744
72	0xbec7f4c9	-0.39053944
73	0x3d656e3a	0.056013323
74	0xbe056aa1	-0.13028957
75	0x3d79681a	0.060890295
76	0x3b7f9354	0.0038997727
77	0xbefb3c21	-0.49069312
78	0xbd0120fe	-0.031525604
79	0x3e9bed38	0.3045442
80	0xbd0b13d4	-0.033954456
81	0xbd4cb974	-0.04998155
82	0xbd1d9461	-0.038471583
83	0x3d867906	0.06566052
84	0x3bd26713	0.006420979
85	0x3bf297dc	0.007403357
86	0x3ce1f03b	0.027580371
87	0xbec2f3be	-0.38076586
88	0xbd28c4cf	-0.041203316
89	0xbc7cfba0	-0.015440851
90	0xbeb00e87	-0.34386083
91	0x3c75680b	0.014978419
92	0x3d838519	0.06421871
93	0xbd2d8aca	-0.042368688
94	0xbd307d5c	-0.043088302
95	0xbde1f2e1	-0.110326536
96	0x3e7414d4	0.2383607
97	0xbef2003f	-0.47265813
98	0xbff7d04a	-1.936044
99	0xc03db818	-2.9643612
100	0x3e67e7fe	0.22647092
101	0xbd0f85a0	-0.035039544
102	0xbda60813	-0.08107009
103	0x3d6efe1e	0.058347814
104	0xbec453be	-0.3834514
105	0xbd38ff3b	-0.04516528
106	0xbd1d4be4	-0.038402453
107	0x3d6ce775	0.057837922
108	0xbe76d8dd	-0.24106164
109	0xbf483a6b	-0.7821414
110	0xbccae24a	-0.024766106
111	0xbd456a10	-0.048196852
112	0x3d7faaa5	0.0624186
113	0xbcbb5d60	-0.022871673
114	0x3ec6a2bc	0.3879603
115	0x3eb289f8	0.34870887
116	0x3e88ab23	0.26693067
117	0xbc8da05b	-0.017288378
118	0xbd4a0077	-0.04931685
119	0xbeec90e6	-0.462043
120	0xbd8f18c3	-0.06987145
121	0xbb79e106	-0.003812851
122	0xbcedcbdc	-0.029027872
123	0xbe027404	-0.12739569
124	0x3b6d75c4	0.0036233524
125	0x3d184817	0.037178125
126	0xbd986b85	-0.07442383
127	0xbcb1933a	-0.021676648
128	0xbd8e7e7b	-0.06957718
129	0x3d15d707	0.03658202
130	0xbcc1dfa5	-0.023666212
131	0xbfa1a1dd	-1.2627522
132	0xbd23e4c5	-0.040013094
133	0x3e03202c	0.12805241
134	0xbcd95c06	-0.026533138
135	0x3ce2f6ca	0.027705569
136	0x3d984671	0.07435311
137	0x3e2491fa	0.1607131
138	0xbc85ccc3	-0.01633299
139	0x3cb79712	0.022410903
140	0xbd8f32fa	-0.06992145
141	0xbdd9930a	-0.106237486
142	0xbda67509	-0.081277914
143	0x3e4d7c2c	0.20066899
144	0xbea22067	-0.31665346
145	0xbeae3c6a	-0.34030467
146	0xbe08b4ab	-0.1335017
147	0xbe08e5b2	-0.13368872
148	0x3cb9fdb4	0.022703983
149	0x3d002487	0.031284835
150	0x3e0950dd	0.13409753
151	0x3f821e76	1.0165546
152	0xbf2c5d31	-0.673297
153	0xbf3bfafb	-0.7342984
154	0x3d8b4bb9	0.06801552
155	0x3e563828	0.2091986
156	0x3eee2d87	0.4651911
157	0xbdd9c00e	-0.10632335
158	0xbda6f361	-0.081518896
159	0x3d577e2d	0.052610565
160	0x3e586649	0.21132769
161	0xbe2d61ed	-0.16931887
162	0xbe5d83dd	-0.21632333
163	0xbdc4545c	-0.09586403
164	0xbb2ac890	-0.0026059486
165	0x3ddb6ea9	0.10714466
166	0x3e22a9af	0.15885042
167	0xbf174908	-0.5909581
168	0xbd41aef3	-0.047285985
169	0xbce9208b	-0.0284579
170	0xbc598f71	-0.013278828
171	0xbe43add4	-0.19109279
172	0xbe20efef	-0.15716527
173	0xc00e0fbf	-2.219711
174	0xbbfd9b2a	-0.0077394443
175	0xbfc0c3b6	-1.5059726
176	0xbccff3eb	-0.025384864
177	0xbe43abb7	-0.19108473
178	0xbd37e320	-0.044894338
179	0x3f8e39ec	1.1111426
180	0x3e8166a8	0.25273633
181	0x3da9be4d	0.0828825
182	0xbf59b1e4	-0.85037065
183	0xbe22e034	-0.15905839
184	0xbdc2ad1f	-0.095056765
185	0x3cd11233	0.025521373
186	0x3c652da8	0.013987936
187	0xbc4bd1e1	-0.012440176
188	0x3e11dc5d	0.14244218
189	0x3da7c302	0.08191492
190	0x3d315333	0.043292236
191	0xbd007e00	-0.031370163
192	0x3e3f5004	0.18682867
193	0x3c5f3e37	0.013625673
194	0x3d9bafac	0.07601866
195	0x3e729b85	0.23692138
196	0xbee2cfe2	-0.44299227
197	0xbdb9d378	-0.090735376
198	0x3edc09a6	0.4297611
199	0xbd5f68d4	-0.05454333
200	0x3d06990a	0.032860793
201	0x3d9dcc34	0.07704964
202	0x3e737ee7	0.23778878
203	0x3cad41d3	0.021149551
204	0xbcea9a2a	-0.028637964
205	0x3c2863b7	0.01027768
206	0xbc4aacc0	-0.012370288
207	0xbe91c9df	-0.28474328
208	0xbdaaa272	-0.08331765
209	0x3d071c15	0.032985765
210	0x3c517b46	0.012785738
211	0x3d935a77	0.07194989
212	0xbd223ea6	-0.039610527
213	0xbd47e337	-0.048800673
214	0xbd21cc35	-0.039501388
215	0xbf0ac84e	-0.5421189
216	0x3c9e9ee5	0.019362876
217	0x3f0f5c4c	0.5600021
218	0x3db2930c	0.08719453
219	0xbcfa769b	-0.030574134
220	0xbe07f07d	-0.13275333
221	0x3db9e333	0.09076538
222	0x3dbee41f	0.093208544
223	0xbd2c985f	-0.0421375
224	0xbd046aa5	-0.032328267
225	0xbe1cf895	-0.15329202
226	0xbcdc1afb	-0.026868334
227	0xbfd42147	-1.6572655
228	0xbf17ceb8	-0.592998
229	0xbd17ae22	-0.0370313
230	0xbd16ba17	-0.036798563
231	0xbebccabb	-0.3687342
232	0x3d50f525	0.051015038
233	0xc00103c2	-2.0158544
234	0xbef714eb	-0.48258147
235	0xbf989433	-1.1920227
236	0x3df4b625	0.11948804
237	0x3d4aa738	0.04947588
238	0xbcfd2884	-0.030903108
239	0x3ea90220	0.33009434
240	0xbe326b42	-0.17423728
241	0x3cb76b6d	0.022390092
242	0x3d82359e	0.06357883
243	0x3da6ac1d	0.08138297
244	0x3f20f1aa	0.6286875
245	0x3e1144b5	0.14186366
246	0xbecfcf6d	-0.4058794
247	0xbfc4f53e	-1.5387342
248	0x3c08e430	0.008355185
249	0xbd8697ad	-0.065718986
250	0x3c8d9ed0	0.017287642
251	0xbd92f338	-0.071752965
252	0x3e6cda6b	0.23130195
253	0xbdc7096e	-0.097185954
254	0xbcba2b83	-0.022725826
255	0x3e81b38d	0.253323

l3.bias f4 [50]
0	0xbdb3213b	-0.087465726
1	0xbdc262ab	-0.09491476
2	0xbe217d44	-0.15770441
3	0x3be3b288	0.006948773
4	0x3ddf2ce9	0.10897238
5	0xbda7d2ad	-0.0819448
6	0x3d0ff55b	0.0351461
7	0xbe06fda2	-0.1318269
8	0x3cec5e35	0.028853515
9	0xbe7bc2b4	-0.24585992
10	0xbda4a375	-0.080389895
11	0xbc799cb6	-0.015235117
12	0xbddd0d49	-0.107935496
13	0x3c270964	0.01019511
14	0xbc134f16	-0.0089910235
15	0xbd66ae3a	-0.0563185
16	0xbd75c301	-0.060000423
17	0x3c830819	0.015995072
18	0xbb8eec4e	-0.004361666
19	0xbdfb558b	-0.122721754
20	0xbe0fa83e	-0.14029023
21	0xbcc9aca9	-0.024618464
22	0x3b911ef8	0.0044287406
23	0x3cd6c485	0.026216755
24	0xbc3b62ca	-0.011437127
25	0x3d25b034	0.040451244
26	0x3dc9f668	0.098614514
27	0xbd20291e	-0.039101712
28	0xbe01a098	-0.12658918
29	0x3d239391	0.039935652
30	0xbdcda0c2	-0.10040428
31	0xbc5f8e24	-0.013644729
32	0x3c8add08	0.016951099
33	0xbd1eadb0	-0.03873986
34	0xbd0c4e77	-0.034254517
35	0xbddd2545	-0.10798124
36	0x3dc362de	0.09540342
37	0xbca8624f	-0.02055469
38	0xbcb77534	-0.022394754
39	0xbc3f3d4f	-0.011672332
40	0x3d6690d6	0.05629047
41	0xbe033bac	-0.12815732
42	0x3c6373a7	0.013882554
43	0x3db77b2e	0.089590415
44	0xbd998b32	-0.074972525
45	0xbd93111f	-0.07181
46	0x3dd627c3	0.10456803
47	0xbbcec056	-0.0063095493
48	0xbcb583f3	-0.022157645
49	0x3c8e72bf	0.0173887

l4.weight f4 [1, 50]
0	0x4033e756	2.8109946
1	0x3fb1de57	1.3895978
2	0x3d824539	0.063608594
3	0xbfe5a373	-1.7940506
4	0xbea11f16	-0.3146903
5	0x3d034907	0.032052066
6	0xc09a16d7	-4.815288
7	0xbfb2b14d	-1.3960358
8	0xc08b3431	-4.350121
9	0x3fc12a67	1.5091065
10	0xc0112b00	-2.2682495
11	0xbc49f6f3	-0.012326944
12	0xbd3fcd1a	-0.04682646
13	0xbfbd0afe	-1.476898
14	0xbdfa0494	-0.122079045
15	0x3dd66c1b	0.10469838
16	0x3ddd52ef	0.10806834
17	0xbe003c7c	-0.12523073
18	0x3ca6a262	0.020341102
19	0x3d5c74bd	0.053822268
20	0x3e1a7a6c	0.15085763
21	0xbc886c32	-0.016653154
22	0xc006ef7a	-2.1083665
23	0x3c75136c	0.014958244
24	0xbd6a7e4e	-0.05724936
25	0xbf6a9638	-0.91635466
26	0xc00d8510	-2.2112465
27	0x3cdfb091	0.027305873
28	0xbdac75db	-0.08420917
29	0x3bfd08ca	0.007721995
30	0xbd82072e	-0.06349026
31	0x3f60667f	0.87656397
32	0xc05f156b	-3.4856822
33	0x3cb96165	0.02262945
34	0xbf79c977	-0.97573036
35	0xbf1c8e0d	-0.6115425
36	0x3d0f4686	0.034979366
37	0x400a1af9	2.1578963
38	0x3de1f8aa	0.11033757
39	0x3cc0ba87	0.023526443
40	0xc0053aad	-2.0817063
41	0x3abde1ed	0.0014486887
42	0xbdb0d994	-0.0863525
43	0xbc8f63e4	-0.017503686
44	0x3d9630a7	0.073334984
45	0xbdfca8c9	-0.12336881
46	0xbeea8035	-0.4580094
47	0x3cf604d6	0.030031603
48	0x3d84a1ad	0.0647615
49	0xc001b6d3	-2.0267837

exp_avg f4 [250, 15]
0	0xb3407bab	-4.481596e-08
1	0xb4bf9e55	-3.5691724e-07
2	0xb4507ef2	-1.9417692e-07
3	0xb371748a	-5.6218177e-08
4	0xb28c5443	-1.6336463e-08
5	0xb53d216c	-7.045662e-07
6	0xb52d302d	-6.4517627e-07
7	0xb50c86fe	-5.2350504e-07
8	0xb546c221	-7.404324e-07
9	0xb4aba3d8	-3.1970444e-07
10	0xb4c9ddad	-3.7600458e-07
11	0xb50f8e5e	-5.347882e-07
12	0x331421b8	3.4489602e-08
13	0x3473c4c5	2.2702723e-07
14	0xb21deb1d	-9.192061e-09
15	0x32b471ee	2.1006567e-08
16	0xb361a0c4	-5.253311e-08
17	0x34f0c35e	4.4845632e-07
18	0xb3ef5fa3	-1.1146701e-07
19	0x31ae8ee2	5.0803104e-09
20	0x34f92bb3	4.641166e-07
21	0x356300f7	8.4565494e-07
22	0x34eb7afb	4.386164e-07
23	0x3571321e	8.9852426e-07
24	0x352058ab	5.9733674e-07
25	0x3499afcd	2.8626383e-07
26	0x35385ae7	6.867762e-07
27	0xb40ac4ef	-1.2923896e-07
28	0xb427aefb	-1.5616745e-07
29	0x3541da0b	7.2215397e-07
30	0xb43e8c52	-1.7746177e-07
31	0xb62eba45	-2.6036444e-06
32	0xb593f844	-1.1024608e-06
33	0xb40a2988	-1.286736e-07
34	0xb41d1d6a	-1.4632465e-07
35	0x351464a8	5.528077e-07
36	0x35febd1d	1.8979514e-06
37	0x361dfae0	2.3540852e-06
38	0x36935d5e	4.3918108e-06
39	0x3690077f	4.292407e-06
40	0x3668e8dc	3.4706236e-06
41	0x3644c2ed	2.9319738e-06
42	0x3520711b	5.9769235e-07
43	0x3334af1f	4.2068788e-08
44	0xb5af1fd5	-1.304778e-06
45	0xb540b754	-7.179235e-07
46	0x355b7092	8.174767e-07
47	0x34f025e7	4.473106e-07
48	0x341e5c26	1.474842e-07
49	0xb4c4a833	-3.6630226e-07
50	0xb5a83286	-1.253168e-06
51	0xb5d4ffdc	-1.5869696e-06
52	0xb5dab480	-1.6294798e-06
53	0xb64decd7	-3.068524e-06
54	0xb62bd849	-2.560688e-06
55	0xb6180a67	-2.265582e-06
56	0xb611d402	-2.1730089e-06
57	0xb46b5a71	-2.1918983e-07
58	0xb515e549	-5.584048e-07
59	0x358fd032	1.0714923e-06
60	0x33ba42c4	8.6734445e-08
61	0x33ef24e1	1.1136013e-07
62	0xb29aafce	-1.8007906e-08
63	0xb36b14dc	-5.4734173e-08
64	0x33531e91	4.9155066e-08
65	0xb3b17890	-8.264135e-08
66	0xb470798b	-2.2395959e-07
67	0xb462972b	-2.1102885e-07
68	0xb490ae9c	-2.6949135e-07
69	0xb4800ff8	-2.3853477e-07
70	0xb45964a0	-2.0246307e-07
71	0xb433afe1	-1.6734658e-07
72	0xb45d3b65	-2.0603837e-07
73	0x34044f3e	1.2322286e-07
74	0x32466610	1.1548323e-08
75	0x34bc7469	3.5102428e-07
76	0xb5065e2b	-5.005592e-07
77	0xb49cdb31	-2.9216747e-07
78	0xb05f2fba	-8.119475e-10
79	0x344c2c79	1.901516e-07
80	0x3389c14d	6.414721e-08
81	0x34697f53	2.1746136e-07
82	0x34d49f74	3.9604095e-07
83	0x35324844	6.641533e-07
84	0x354ee62f	7.707594e-07
85	0x3528dbe2	6.290485e-07
86	0x35016967	4.8209625e-07
87	0xb39dd8d8	-7.350326e-08
88	0x34c70c02	3.7075375e-07
89	0x33dfab85	1.0415446e-07
90	0x339aefaa	7.2147785e-08
91	0xb3362a29	-4.241352e-08
92	0xb393ad55	-6.87675e-08
93	0x3332b158	4.1605148e-08
94	0x332f09cf	4.0754284e-08
95	0xb3a0f9b7	-7.4960035e-08
96	0xb3a2ad2e	-7.575214e-08
97	0x329235d5	1.7021117e-08
98	0xb25aef5c	-1.2743694e-08
99	0xb2ed0cc2	-2.7596233e-08
100	0x32948650	1.7290546e-08
101	0xb331cc7a	-4.1396994e-08
102	0xb42f08a7	-1.6301293e-07
103	0x32c9fd55	2.3514682e-08
104	0xb388a6b7	-6.363319e-08
105	0x338cefa1	6.562846e-08
106	0xb3990d97	-7.12709e-08
107	0x34157df2	1.3922525e-07
108	0x3436d67a	1.7028097e-07
109	0x32c249de	2.2618163e-08
110	0x35189649	5.6843106e-07
111	0x35515e8b	7.7996145e-07
112	0x353a9a64	6.951507e-07
113	0x3587600a	1.0086235e-06
114	0x354b8da9	7.5829536e-07
115	0x35254ab8	6.157602e-07
116	0x351d0001	5.8487063e-07
117	0x34416ead	1.801479e-07
118	0xb3f29bb0	-1.12973225e-07
119	0xb47f575c	-2.3780507e-07
120	0x3438bf2d	1.7205885e-07
121	0x3508f275	5.101677e-07
122	0x34bc4f49	3.5075416e-07
123	0x344b9068	1.8958383e-07
124	0x33e7c9a1	1.0793452e-07
125	0xb4b696f5	-3.4009977e-07
126	0xb50a55ea	-5.153403e-07
127	0xb51cee8b	-5.8461654e-07
128	0xb5a12852	-1.200717e-06
129	0xb594dacf	-1.1090541e-06
130	0xb5845f97	-9.862587e-07
131	0xb581b58d	-9.664087e-07
132	0x33855bac	6.20997e-08
133	0x35a23f96	1.2088447e-06
134	0x3565e664	8.564441e-07
135	0xb2ccdaf6	-2.3848298e-08
136	0x34a7587c	3.1170555e-07
137	0x3484e43a	2.4752973e-07
138	0xb4072ee2	-1.258991e-07
139	0xb22de849	-1.0122741e-08
140	0x34834eea	2.445807e-07
141	0x346cd4eb	2.2056672e-07
142	0xb2e3070f	-2.6429488e-08
143	0x33943042	6.900565e-08
144	0xb428a5bc	-1.5706513e-07
145	0xb402bf75	-1.2176845e-07
146	0x341e283b	1.4729532e-07
147	0xb41e4653	-1.474048e-07
148	0xb4d52273	-3.9699407e-07
149	0x34adbd52	3.236151e-07
150	0xb4c7ed88	-3.7239465e-07
151	0xb37d0a58	-5.891556e-08
152	0x337637d8	5.7327128e-08
153	0x3348dfec	4.6769784e-08
154	0xb456c643	-2.000243e-07
155	0xb52dde78	-6.4771257e-07
156	0xb51c666b	-5.8263566e-07
157	0xb5018306	-4.824691e-07
158	0xb58771b3	-1.0091375e-06
159	0xb531aa8f	-6.6185834e-07
160	0xb5327aad	-6.6488684e-07
161	0xb52cefb9	-6.4423836e-07
162	0x347631d4	2.2928663e-07
163	0x34ede6b1	4.431254e-07
164	0x3402c9bd	1.2180585e-07
165	0xb1f26e8a	-7.055694e-09
166	0x34ec9f31	4.4074253e-07
167	0xb4040d0d	-1.2298206e-07
168	0x32f82163	2.8886182e-08
169	0x328da429	1.6489212e-08
170	0xb5806157	-9.565073e-07
171	0xb5c569f9	-1.4708486e-06
172	0xb5ae1fe1	-1.2973288e-06
173	0xb61b1ffb	-2.3115415e-06
174	0xb5e56097	-1.7089941e-06
175	0xb5b46b5a	-1.3442288e-06
176	0xb5d4cc4f	-1.5854692e-06
177	0x34b6af29	3.4027588e-07
178	0x35b36f62	1.3368956e-06
179	0x3539d3be	6.9225996e-07
180	0x33c9880a	9.384537e-08
181	0xb4a8484d	-3.1345044e-07
182	0xb49ecb1a	-2.957757e-07
183	0x32b5a78e	2.1147368e-08
184	0x33737352	5.668273e-08
185	0xb4bca9dd	-3.514132e-07
186	0xb4de8d0c	-4.1453347e-07
187	0xb4381ec2	-1.7147525e-07
188	0xb4a07c44	-2.9892738e-07
189	0x326954e5	1.3581688e-08
190	0xb2ff34d6	-2.9709934e-08
191	0xb4574754	-2.0049384e-07
192	0x34092936	1.2774112e-07
193	0x34c42c1b	3.6539936e-07
194	0xb452e541	-1.9641176e-07
195	0x348bd0c8	2.6042676e-07
196	0xb558622d	-8.0609135e-07
197	0xb50de6aa	-5.2862254e-07
198	0xb397f3b1	-7.075813e-08
199	0x34280f10	1.5651699e-07
200	0xb5c2ea17	-1.4522255e-06
201	0xb5a15044	-1.2018795e-06
202	0xb555da26	-7.966613e-07
203	0xb5e60fc0	-1.7140919e-06
204	0xb51c1e9f	-5.815909e-07
205	0xb509f837	-5.139768e-07
206	0xb5804ab6	-9.558487e-07
207	0x35b0cb7b	1.3172242e-06
208	0xb2349a45	-1.0512456e-08
209	0xb460c962	-2.0934888e-07
210	0xb3481131	-4.6581764e-08
211	0x3437b2ff	1.7108322e-07
212	0x349da8a2	2.9366225e-07
213	0x33c302c5	9.080899e-08
214	0xb3018630	-3.0157196e-08
215	0x34a3f2b3	3.0537703e-07
216	0x34c50a5a	3.670164e-07
217	0x34803679	2.3881492e-07
218	0x348614fb	2.497471e-07
219	0x33e03959	1.0441244e-07
220	0xb2db1f50	-2.5509195e-08
221	0x342befa3	1.6012795e-07
222	0x339f40bb	7.415789e-08
223	0xb4267de5	-1.5505755e-07
224	0xb49620c3	-2.7963515e-07
225	0xb5358e2b	-6.7634636e-07
226	0xb41acd4b	-1.4417053e-07
227	0x34f9ee9e	4.655348e-07
228	0xb396fe9c	-7.0312325e-08
229	0xb4d627d2	-3.988958e-07
230	0x355f106c	8.309787e-07
231	0x35bddcd5	1.4145868e-06
232	0x3579053d	9.276735e-07
233	0x35e3ecbe	1.6981719e-06
234	0x359c3bda	1.1640325e-06
235	0x356ee03c	8.8988213e-07
236	0x35a7ac1a	1.2492558e-06
237	0xb4a42be9	-3.057933e-07
238	0xb5d25d4b	-1.5673371e-06
239	0x3581f15f	9.681497e-07
240	0x335f2e64	5.1963426e-08
241	0x33fe5d72	1.1844794e-07
242	0xb4a9b24b	-3.1608428e-07
243	0x32b3efb0	2.094734e-08
244	0x31e780de	6.7376353e-09
245	0x35a5e6b9	1.2360607e-06
246	0x3584246e	9.845369e-07
247	0x35a31a3c	1.2152082e-06
248	0x36069592	2.0054617e-06
249	0x35a6642a	1.2397115e-06
250	0x35bf5d9c	1.4257853e-06
251	0x35bbb5c5	1.3985488e-06
252	0xb484b0c7	-2.4715538e-07
253	0xb4b51cfc	-3.3734966e-07
254	0xb57effad	-9.499443e-07
255	0xb433ae33	-1.6734047e-07

exp_avg_sq f4 [250, 15]
0	0x2d299274	9.639057e-12
1	0x2dbafd2b	2.1258181e-11
2	0x2d0d8bac	8.0459354e-12
3	0x2c8be41f	3.975944e-12
4	0x2c3794c3	2.6088443e-12
5	0x2efe6db3	1.1570069e-10
6	0x2ef84c11	1.12912464e-10
7	0x2ef2645e	1.1022715e-10
8	0x2f9c8716	2.847222e-10
9	0x2f043034	1.2022455e-10
10	0x2f024546	1.1848042e-10
11	0x2f0b6d28	1.2680756e-10
12	0x2d2c08e1	9.7790396e-12
13	0x2d4e18a8	1.1715219e-11
14	0x2d33c495	1.0218622e-11
15	0x2d182199	8.64766e-12
16	0x2d8c77bd	1.5969332e-11
17	0x2cb2b398	5.079003e-12
18	0x2c5504e3	3.0271833e-12
19	0x2c330a09	2.5443e-12
20	0x2e28aa1d	3.834987e-11
21	0x2e8c6aab	6.385411e-11
22	0x2e580114	4.911367e-11
23	0x2f370022	1.66438e-10
24	0x2eefac1e	1.0899036e-10
25	0x2e957607	6.7967014e-11
26	0x2eb8b419	8.399343e-11
27	0x2d135021	8.373775e-12
28	0x2d6eede8	1.35815595e-11
29	0x2deb4b27	2.6749781e-11
30	0x2d538175	1.2022707e-11
31	0x30099801	5.005632e-10
32	0x2ea4c60c	7.493037e-11
33	0x2c9aec13	4.4031528e-12
34	0x2ca8281d	4.7793007e-12
35	0x2dab3ca4	1.9467379e-11
36	0x2f925455	2.6617167e-10
37	0x2fca49a1	3.6795902e-10
38	0x30ad43d8	1.2606689e-09
39	0x30aedf70	1.2723671e-09
40	0x3057747c	7.838208e-10
41	0x3023d1bd	5.959711e-10
42	0x2d1555f3	8.488754e-12
43	0x2cc08f30	5.472865e-12
44	0x2ec35f06	8.884453e-11
45	0x2e5f064a	5.0709915e-11
46	0x2e3f776d	4.3534443e-11
47	0x2d9181a0	1.6542157e-11
48	0x2d03deb9	7.495942e-12
49	0x2d802f2b	1.4572862e-11
50	0x2ef8890f	1.1302081e-10
51	0x2f25178a	1.5015025e-10
52	0x2f12a729	1.333801e-10
53	0x300e110e	5.1683535e-10
54	0x2fb397cf	3.2667777e-10
55	0x2f8c73be	2.5548091e-10
56	0x2f976ed2	2.7545483e-10
57	0x2dd1321b	2.37828e-11
58	0x2d80acfc	1.4628736e-11
59	0x2e986a83	6.93108e-11
60	0x2becd5bb	1.6828131e-12
61	0x2d11576e	8.261709e-12
62	0x2c248a2c	2.3382503e-12
63	0x2d9c80ed	1.7792401e-11
64	0x2b1626c6	5.3344514e-13
65	0x2cbf6269	5.4394722e-12
66	0x2d4b1d4c	1.1545719e-11
67	0x2e42a120	4.42536e-11
68	0x2e51fdfe	4.774669e-11
69	0x2e29dadc	3.8620537e-11
70	0x2de7aadc	2.6337536e-11
71	0x2c942bc3	4.2112715e-12
72	0x2c0a3b03	1.9643738e-12
73	0x2c52415b	2.9879074e-12
74	0x2bd5417c	1.5152736e-12
75	0x2def0efc	2.7177809e-11
76	0x2e1db353	3.585694e-11
77	0x2d554d8e	1.2124869e-11
78	0x2da0d8d2	1.8286182e-11
79	0x2d0a41b4	7.858981e-12
80	0x2e93f1f6	6.727767e-11
81	0x2eeb1901	1.0691004e-10
82	0x2eb078ee	8.025035e-11
83	0x2fd35f37	3.844833e-10
84	0x2f94a7eb	2.7040356e-10
85	0x2f5cbc42	2.0075766e-10
86	0x2f83550f	2.38892e-10
87	0x2dc38781	2.222911e-11
88	0x2d925da9	1.6639872e-11
89	0x2dd92fc8	2.4691263e-11
90	0x2cd0e00c	5.9365898e-12
91	0x2d2be016	9.769982e-12
92	0x2c19fa6f	2.1881626e-12
93	0x2b9f8902	1.1335657e-12
94	0x2c0225be	1.8495062e-12
95	0x2b68e6ac	8.274308e-13
96	0x2d1daa18	8.962185e-12
97	0x2d1eafb1	9.0202715e-12
98	0x2dc55302	2.243317e-11
99	0x2dc91aa2	2.2862882e-11
100	0x2d37e76b	1.0453731e-11
101	0x2d283d7a	9.563345e-12
102	0x2c56f4c6	3.0547106e-12
103	0x2b2dce58	6.1748306e-13
104	0x2ccc4e86	5.8067466e-12
105	0x2ce8713e	6.606409e-12
106	0x2d11efcb	8.2955405e-12
107	0x2c6fb1f8	3.4062735e-12
108	0x2c8bfa5a	3.9784122e-12
109	0x2c234081	2.31995e-12
110	0x2ec04ba1	8.7445835e-11
111	0x2f0e0188	1.2915369e-10
112	0x2f0461d5	1.2040087e-10
113	0x2faec3a4	3.1789427e-10
114	0x2f40a0bf	1.7519407e-10
115	0x2f1978c6	1.3958176e-10
116	0x2f10ff8f	1.3187516e-10
117	0x2d70e39a	1.3692958e-11
118	0x2cbd2673	5.375972e-12
119	0x2caa545d	4.841057e-12
120	0x2e6c7b51	5.3769714e-11
121	0x2f06249f	1.220024e-10
122	0x2e17f50e	3.4551077e-11
123	0x2d54523c	1.20690645e-11
124	0x2d71a610	1.3736137e-11
125	0x2ff540d7	4.4611312e-10
126	0x303b1910	6.806582e-10
127	0x302823eb	6.1169086e-10
128	0x3115dfe0	2.1809612e-09
129	0x30bc6713	1.3708096e-09
130	0x308f6cd8	1.0435555e-09
131	0x30938005	1.0732043e-09
132	0x2eafee33	8.000391e-11
133	0x2ecd362f	9.3319456e-11
134	0x2e27818d	3.8086468e-11
135	0x2e57bb48	4.905168e-11
136	0x2d56a34d	1.2200752e-11
137	0x2c84fb72	3.7795817e-12
138	0x2b8b518b	9.899177e-13
139	0x2d7c20c5	1.4331818e-11
140	0x2f05b1a6	1.2159393e-10
141	0x2ee77be6	1.05266726e-10
142	0x2ea5b2b7	7.5350774e-11
143	0x2f8133d4	2.350179e-10
144	0x2eb368f9	8.1586245e-11
145	0x2eb9d269	8.450202e-11
146	0x2ef3adc1	1.10812255e-10
147	0x2d33c34f	1.0218339e-11
148	0x2d9c17cc	1.7745715e-11
149	0x2d6a5897	1.3321031e-11
150	0x2e9af181	7.046009e-11
151	0x2c320795	2.529953e-12
152	0x2c884fb9	3.8742035e-12
153	0x2bc501a1	1.3998144e-12
154	0x2db61ca5	2.0703725e-11
155	0x2ec3ea30	8.9091734e-11
156	0x2f03d1da	1.1988935e-10
157	0x2ea99590	7.711798e-11
158	0x2f905441	2.6253313e-10
159	0x2f0f9ffe	1.3062615e-10
160	0x2ecf6f07	9.4329926e-11
161	0x2f16ec71	1.3726421e-10
162	0x2dc9a649	2.29249e-11
163	0x2de3cba0	2.589734e-11
164	0x2c1c957b	2.2251912e-12
165	0x2f075048	1.23067e-10
166	0x2f686207	2.1135103e-10
167	0x2e6dd713	5.4078585e-11
168	0x2d0feda4	8.181376e-12
169	0x2e0bf73d	3.1824533e-11
170	0x304e39c5	7.502446e-10
171	0x309dba53	1.147621e-09
172	0x30a2dc1d	1.1849611e-09
173	0x3184c596	3.8641685e-09
174	0x312e7d31	2.5391496e-09
175	0x31021fa9	1.8935487e-09
176	0x30f668aa	1.7928603e-09
177	0x2f85e21a	2.4353214e-10
178	0x2f80dc1c	2.3439461e-10
179	0x2de32ec9	2.5827689e-11
180	0x2e0451cd	3.008598e-11
181	0x2d0e0f8f	8.07522e-12
182	0x2d711d74	1.3705804e-11
183	0x2c3e94b2	2.7083166e-12
184	0x2d15e8f2	8.521394e-12
185	0x2efcb5e6	1.1491945e-10
186	0x2e6a28f2	5.3241807e-11
187	0x2ec5074c	8.959819e-11
188	0x2f804446	2.3331576e-10
189	0x2eb057a2	8.01912e-11
190	0x2f1f3835	1.4480935e-10
191	0x2ed0c747	9.494144e-11
192	0x2d38d85d	1.0507231e-11
193	0x2de987ce	2.6549343e-11
194	0x2d63a5cb	1.29402695e-11
195	0x2eb92bb7	8.420591e-11
196	0x2f2b482b	1.5577999e-10
197	0x2e81b5cc	5.8985344e-11
198	0x2d95f4d0	1.7048057e-11
199	0x2de93dad	2.6516423e-11
200	0x2f3d0150	1.7189916e-10
201	0x2f9049fc	2.6246016e-10
202	0x2f790990	2.2649815e-10
203	0x305281e3	7.6582135e-10
204	0x3017d3b0	5.5234306e-10
205	0x2fd7d807	3.926177e-10
206	0x2fd17c1b	3.810506e-10
207	0x2f3cf6bf	1.7186162e-10
208	0x2d9d47d8	1.7880739e-11
209	0x2d9e2f79	1.7983602e-11
210	0x2ca08dc8	4.5632144e-12
211	0x2ccb67ba	5.781123e-12
212	0x2c8c4942	3.9871726e-12
213	0x2bfd6b1f	1.8006463e-12
214	0x2bd07542	1.4811834e-12
215	0x2eac77e6	7.842953e-11
216	0x2ecdf26e	9.365385e-11
217	0x2eb7abdb	8.352404e-11
218	0x2f8cdd43	2.5623068e-10
219	0x2f102842	1.3111026e-10
220	0x2ef62b76	1.1194505e-10
221	0x2f045d08	1.2038381e-10
222	0x2d9d0717	1.7851982e-11
223	0x2c97f8d6	4.3193045e-12
224	0x2cae1529	4.9477267e-12
225	0x2e8fdd55	6.5422036e-11
226	0x2e1d1775	3.57185e-11
227	0x2d1a5914	8.773666e-12
228	0x2cbb0b9d	5.316149e-12
229	0x2dd2f286	2.3981938e-11
230	0x2faebcdf	3.1784617e-10
231	0x2ff04b16	4.3709097e-10
232	0x2fd2dfa4	3.8357684e-10
233	0x309f30ff	1.1582698e-09
234	0x30319294	6.4600525e-10
235	0x30051e99	4.84286e-10
236	0x300e6c5a	5.1813276e-10
237	0x2dc5c288	2.2482696e-11
238	0x2f39f804	1.6913765e-10
239	0x2edfb22d	1.0172516e-10
240	0x2d72c704	1.3800298e-11
241	0x2db8be0e	2.100278e-11
242	0x2e074c4d	3.0763215e-11
243	0x2ccc08be	5.7989993e-12
244	0x2c9a278f	4.381335e-12
245	0x2ff63c93	4.479018e-10
246	0x2ff6299d	4.4776707e-10
247	0x30010889	4.6942056e-10
248	0x30d595f7	1.5540412e-09
249	0x3057bcb6	7.848472e-10
250	0x305708b5	7.822892e-10
251	0x3052d297	7.669682e-10
252	0x2e5bebc5	5.000424e-11
253	0x2db5e059	2.0676948e-11
254	0x2e0e8603	3.2406088e-11
255	0x2e1b7af0	3.535211e-11
