motion_planning/NN_model/models/model.pt (torch, 420530 bytes, 16 tensors)

l1.weight f4 [250, 48]
000000 34 74 5e 3b 16 84 f5 bd 48 43 c5 bd fd d3 1a bc
       0.0033943774 -0.11988084 -0.096319735 -0.009449956
000010 89 67 56 3d 3a 0e 1d 3e 7a 00 47 3e cd 19 aa 3c
       0.052344833 0.15337458 0.19433776 0.020764256
000020 89 fc fc bb 5b 4c 06 3b ad c4 2d 3b 0e 8d ce bb
       -0.007720534 0.0020492289 0.0026514933 -0.006303436
000030 c2 54 a9 39 95 18 10 bc 56 e2 9e ba 8c 01 28 bc
       0.0003229734 -0.008794923 -0.0012121897 -0.010254275
000040 ba 4c 2a 3d ce 51 e6 bd 95 d3 3a bc ef ce 8a 3b
       0.04157708 -0.11246072 -0.011402984 0.004236094
000050 e2 53 a9 3b d2 be d0 3d 2b 12 bd 3d af 18 41 3d
       0.0051674703 0.10192646 0.09231981 0.04714268
000060 76 76 cd 3b 56 23 9b 3b e8 27 bf ba a0 8a e7 3b
       0.006270225 0.004734437 -0.0014584037 0.007066086
000070 2d 8b c3 3b 43 b4 15 3c 61 5a 85 3a db 93 24 3c
       0.005967519 0.009137216 0.001017403 0.010045017
000080 eb a2 0f 3e 76 77 2c 3e 1b bc f9 bc 8c 53 bf 3c
       0.14026992 0.16842446 -0.030485203 0.023355268
000090 bb ef b9 bb 24 4e 80 be c6 62 f3 bd 2d c2 16 bd
       -0.00567433 -0.25059617 -0.11884074 -0.036806274
0000a0 82 1b 7f 3c d3 de a9 bb 54 f8 99 3c e5 cc 5e 3b
       0.015570523 -0.0051840334 0.01879517 0.0033996638
0000b0 dc ac 8d bb e1 85 75 ba 4a de ba 3b c5 87 9d 3b
       -0.004323585 -0.0009365958 0.0057027685 0.0048074448
0000c0 2c 4b 2b ba b5 3a 49 3e 05 6f f0 bc 55 2c cd bd
       -0.0006534334 0.19651301 -0.029349813 -0.10018221
0000d0 53 28 50 3d e0 fa d3 ba 11 3f 5e 3d 1c 3f 1f 3b
       0.050819706 -0.0016172789 0.054259364 0.002429909
0000e0 a6 8e 28 bc 6e e2 95 ba 8f b1 98 39 6b aa ea 3b
       -0.010287916 -0.0011435279 0.0002912399 0.0071614287
0000f0 80 fa e3 3a f0 85 06 bc 53 67 72 3a c8 3f a8 3b
       0.001739338 -0.008210644 0.0009246964 0.0051345564
000100 bf 11 ff bb 82 5f 9a 3d 6f fd e8 bd 44 ed 80 bd
       -0.007784098 0.07537748 -0.113764636 -0.06295255
000110 a4 a8 91 3c 58 fe f3 ba e3 5e 45 3d f4 28 8a bb
       0.01778061 -0.0018615229 0.048186194 -0.004216308
000120 2d 8f 84 3b 6e f0 16 bc cf 45 dc bb 4c 83 20 bc
       0.004045388 -0.009212596 -0.006722189 -0.009796929
000130 a3 cb ff 3b b0 59 18 bb 01 60 78 bb b7 46 e7 b9
       0.007806258 -0.0023246817 -0.003789902 -0.0004411244
000140 ee c8 0b bd 0a c7 28 be d5 67 08 3d 8c 1e c2 bc
       -0.03412717 -0.16482177 0.033302147 -0.023696207
000150 a9 60 d3 bd a8 ff d3 3d b3 10 2a 3d 7f 51 c1 3a
       -0.10321171 0.10351497 0.041519832 0.0014749019
000160 af 5c b0 3c 3d 89 43 3b 10 5c 02 3d ef 68 c4 3c
       0.02152857 0.002983644 0.03182608 0.023975817
000170 81 aa 60 3b 08 71 c9 3c b3 0c 74 3c 6e 2c 59 bc
       0.0034281316 0.02459003 0.014895606 -0.013255222
000180 d5 d5 cb 3c 39 f4 44 3e 66 8d 19 3e 3d 5b 5c bc
       0.024882236 0.19233789 0.14995345 -0.013449487
000190 ae 12 c1 3c 6a 73 4e be 46 9f 43 be c0 d8 6d bd
       0.023568477 -0.20161214 -0.19103727 -0.058068037
0001a0 40 63 36 3c a3 a2 16 3b f1 7c 89 39 95 f6 9f bb
       0.0111320615 0.0022985123 0.00026223765 -0.00488169
0001b0 21 33 ef bb 8f 05 5e 3c a1 90 9d b8 5d cd 4b 3b
       -0.007299796 0.01355113 -7.5132826e-05 0.0031097748
0001c0 45 2e 8f bd d6 8b 32 3e 11 90 6e 3d 98 74 7b 3b
       -0.06991247 0.17436156 0.05824286 0.0038369056
0001d0 87 30 03 bd b9 d9 25 be f8 cb ad bd b5 49 53 bd
       -0.0320287 -0.16196336 -0.084861696 -0.051583964
0001e0 71 04 4b bc e3 ac b9 bb e3 94 6f 3b b9 7f ef 3b
       -0.012391196 -0.0056663617 0.003655725 0.007308927
0001f0 16 e5 52 3b 90 3b 62 bc 6f 20 2f bb 46 f0 22 37
       0.0032180003 -0.013808146 -0.0026722213 9.7118955e-06
000200 f6 9d c9 3c ba 0d e3 bd 2a cc c5 bd d1 2c 78 3d
       0.024611454 -0.110866025 -0.09658082 0.060589615
000210 3b 09 ba bd 67 ad b1 bc fe 15 7e 3d e1 71 96 3c
       -0.09083792 -0.02168913 0.062032692 0.018364849
000220 35 89 1a bc 70 6a b0 ba 06 bf db 3b 9b cb 36 bb
       -0.009432127 -0.0013459455 0.0067061214 -0.0027892354
000230 8e 41 f1 bb 6a 93 b5 bb 29 43 40 3a 24 7d 8d bc
       -0.007362551 -0.0055412548 0.00073342264 -0.017271586
000240 4a 69 cb bb 34 6a 31 bb ae dd 40 3c 12 32 40 37
       -0.00620762 -0.0027071359 0.011771603 1.145575e-05
000250 b0 86 a1 3e 83 7e cb bd 51 f1 62 bd 67 43 4b bc
       0.3154807 -0.099362396 -0.05540592 -0.012406207
000260 58 ba a5 be 25 e6 4b bc d0 a2 29 3d 56 da 0b 3b
       -0.32368731 -0.012445007 0.041415036 0.0021339855
000270 0b 2e eb 3a 65 8e 25 3a 27 c1 ed 3a 24 fb 84 bb
       0.0017942799 0.0006315469 0.0018139229 -0.0040582586
000280 fb b7 d4 3a be 96 fb 3a 48 66 4a bc c0 7b b5 b9
       0.0016229147 0.0019194705 -0.012353487 -0.0003461521
000290 b3 b3 4b 3e f0 6d f1 bc 9f 86 a4 bc 0f 79 a5 3c
       0.19892769 -0.029471368 -0.020083724 0.020199327
0002a0 19 5a 22 be 2b 4d 82 ba 2a cd 56 3c ef 15 cf 3c
       -0.15854682 -0.0009941211 0.013110438 0.025279013
0002b0 15 36 94 bb 88 ca 32 bb 74 71 88 b9 43 a4 ac 3b
       -0.0045230486 -0.0027281363 -0.0002602447 0.005268605
0002c0 07 b3 db ba 1a ce 8d ba fe dc 04 3c 7a db e2 bb
       -0.0016761728 -0.0010818869 0.008109329 -0.0069231363
0002d0 9b da fc 3d df 98 a9 3c aa 23 84 bc 91 e5 9b 3b
       0.12346383 0.020702777 -0.016130287 0.004757591
0002e0 ff c0 f6 3d e3 01 b1 bd 0b 50 b5 bc 8f 71 1e 3c
       0.1204853 -0.08642938 -0.022132894 0.009670629
0002f0 30 0e f1 ba 16 3e 71 3a e0 30 ba ba 36 ba b8 39
       -0.0018391069 0.0009202672 -0.001420524 0.00035233953
000300 25 90 b7 bb 26 01 18 3b 1f 09 05 3b 29 d2 64 3b
       -0.0056019 0.0023194044 0.0020299626 0.0034915304
000310 51 56 c8 3b ba 8d a5 ba 68 f7 b9 3b 63 48 88 ba
       0.0061138053 -0.0012630739 0.005675245 -0.001039755
000320 8a 96 46 3d 06 40 13 3e 6f f7 6d 3e 66 6d 04 3e
       0.04848341 0.14379892 0.2323892 0.12932357
000330 a8 42 7e bd cf 3a 91 3c e5 57 31 be 3c 49 8a bd
       -0.062075287 0.017728237 -0.17318685 -0.067522496
000340 13 76 41 3b 92 b1 a4 bb 46 30 b9 b9 f0 8e 65 bb
       0.002951984 -0.005026051 -0.00035321916 -0.0035027824
000350 e8 8f a7 ba b2 6f 73 3b 9e d3 ac bb 51 ba 25 3b
       -0.0012783976 0.0037145433 -0.00527425 0.0025288055
000360 67 2b 3e 3d 49 f8 e3 3d a3 24 3f 3e 7a a2 f9 3d
       0.04642811 0.11131341 0.1866632 0.12189193
000370 cc 23 db bc f8 59 0e bd a6 20 ff bd f7 93 b8 bd
       -0.026750468 -0.03475377 -0.12457399 -0.09012597
000380 39 b7 31 bc 53 67 40 bb 88 67 84 bc 20 07 18 39
       -0.010846906 -0.002935846 -0.016162649 0.00014498504
000390 20 c9 18 3b 9a 07 3f bb a0 fd c9 bb 60 9e 1c bb
       0.002331324 -0.0029148818 -0.0061642677 -0.002389811
0003a0 03 d5 86 bc 94 5c 9f bd df 65 0b be f5 ae 8b bd
       -0.016458994 -0.0778133 -0.1361308 -0.0682048
0003b0 3b 70 31 3c 5a 16 eb bd 7c d7 e0 3d 94 55 6a 3c
       0.0108299805 -0.114788726 0.109786004 0.01430263
0003c0 b3 91 67 ba 86 ed 23 3c a2 57 13 bc 6f 9c 2b bb
       -0.00088336616 0.0100053605 -0.008993061 -0.002618577
0003d0 f0 f8 70 3c 61 34 96 bc f2 aa c4 3b ea 93 a7 bb
       0.014707789 -0.018335523 0.0060018236 -0.0051140683
0003e0 27 e8 bd bb d2 7b 00 3c 6a 85 9e 3a 81 e9 82 b9
       -0.005795497 0.007842021 0.0012094204 -0.00024969506
0003f0 c0 5f 35 bb 91 52 99 bb f4 6e 06 bc 0e c8 ac ba
       -0.002767548 -0.004679032 -0.008205164 -0.001318218

l1.bias f4 [250]
000000 c2 c3 92 3e 82 b7 90 3d a0 98 94 3d fd 82 07 3e
       0.28664976 0.07066251 0.072556734 0.13233562
000010 4f 30 ba 3d db 4b 30 3d 77 e0 3d be 3f 55 d8 bd
       0.090912454 0.04304109 -0.18542658 -0.105631344
000020 9e 47 5c be 7d 02 56 3a 34 cb ff bc 38 1d 5e bd
       -0.21511695 0.0008163823 -0.031224824 -0.054227084
000030 30 53 99 be de 47 7c bc 29 32 c7 be 60 5c 9f 3b
       -0.2994628 -0.015397994 -0.38905457 0.004863307
000040 77 87 a6 bd 83 88 8e 3d 64 06 19 3e 81 5a e6 bd
       -0.081313066 0.06959631 0.14943844 -0.11247731
000050 3c e4 88 3c 97 25 68 be d3 8d 10 be e2 75 19 3e
       0.016710393 -0.2267059 -0.14116602 0.14986375
000060 9f c8 a7 bd 3d eb 66 bd 92 f2 a0 3c e8 8b cd bd
       -0.08192562 -0.056376684 0.019646917 -0.100364506
000070 1b 6b 73 bc 59 85 94 3d 8e 00 46 3d 57 f8 8c 3e
       -0.014857079 0.072519965 0.048340373 0.27533218
000080 27 7e 13 3e c5 c0 da bc ad 72 69 3c c2 ac b2 bc
       0.14403592 -0.026703248 0.014248532 -0.021810893
000090 49 65 a4 bd c1 bf d2 bd 3e dd 2f 3e 6c b7 14 3e
       -0.08027131 -0.102904804 0.17174241 0.14523095
0000a0 e3 d2 e5 3d 16 2a 26 be 7a 69 4a 3e 0e 2c 40 3e
       0.11221864 -0.16226992 0.19766799 0.18766806
0000b0 23 3e 65 3e c1 ad 3c 3e 81 48 9e bd 04 5c d5 bd
       0.22386985 0.18425657 -0.07728673 -0.10417941
0000c0 08 21 db 3d 2b dc 42 be 24 bb 4b 3c 99 7e ab bd
       0.106996596 -0.190293 0.0124347545 -0.08373756
0000d0 04 e4 a3 3d 1a b6 0d be 90 c7 7d be 0e 23 66 3e
       0.08002475 -0.13838997 -0.24783158 0.2247431
0000e0 fa 62 0a be 7d e6 2f be 01 7f 06 be 7e ac 0a be
       -0.13514319 -0.17177768 -0.13134386 -0.13542363
0000f0 c5 83 66 bd 1d 7d a1 bd 9f 1f a5 3d f1 08 55 3d
       -0.05627801 -0.078851916 0.08062672 0.05201048
000100 1d 7e 33 3d d4 e7 7f 3d 93 0b 05 be 87 2c 28 3e
       0.043821443 0.062476948 -0.12992696 0.16423236
000110 f9 d7 02 3e 52 83 b5 bc 56 ac 66 3d b5 5e 99 3c
       0.127777 -0.022157345 0.056316696 0.018721918
000120 88 40 13 be 0b 4e 0c bd 1e 9e 0c bf 14 58 64 be
       -0.14380085 -0.034254115 -0.5492877 -0.22299224
000130 f2 3a ad 3d f2 18 8e 3d d0 19 c9 bd da 74 e8 3d
       0.084585086 0.06938352 -0.098193765 0.11350413
000140 b9 bc 70 3c 04 94 e6 bc 81 ed d6 3d 5b cb bf 3d
       0.0146934325 -0.028146751 0.10494519 0.09364959
000150 42 b2 f1 bd 52 e1 67 be 0e 55 07 be be 8b e6 be
       -0.11801578 -0.22644547 -0.1321604 -0.4502849
000160 b3 25 23 3c 38 ec e5 3b 2e 85 47 bd 37 9a 0d bd
       0.009957719 0.007016685 -0.048710994 -0.0345709
000170 d6 df ec 3c b9 78 9f bd 6a 13 ee 3d ab 52 c1 3c
       0.028915327 -0.07786698 0.11624797 0.02359899
000180 b9 69 aa 3c e4 6e 81 bd d7 03 bd bd fc ee fa bd
       0.020802366 -0.06319979 -0.09229248 -0.12252614
000190 40 d4 e7 3c 72 36 4c be 3a 82 fc 3c 0d d1 3a 3e
       0.02829945 -0.19942644 0.030823816 0.18243809
0001a0 af 06 a4 bd 47 65 b7 bc 4b a6 7b 3e c3 6a 8f bd
       -0.08009087 -0.02238716 0.24575154 -0.07002785
0001b0 0b 0e a5 bd ab bd a3 bd d0 81 f9 bd 8c 28 5a 3d
       -0.08059319 -0.07995161 -0.12182963 0.053261325
0001c0 8c e1 1f bc 7b 80 92 3d 12 3c fd ba ce 9c cb 3d
       -0.009758364 0.07153412 -0.001932027 0.099420175
0001d0 b7 a1 21 3e 8d ee df bd 03 f6 80 bb 6b 46 3e bd
       0.15784346 -0.10934172 -0.003935577 -0.046453875
0001e0 37 e4 90 3e f7 9b 1c be d3 85 72 3e e6 cb 44 be
       0.28299114 -0.15293871 0.23683862 -0.19218406
0001f0 f2 59 e8 bd a0 a0 c2 3d e1 b9 f3 3c a1 46 96 bd
       -0.11345281 0.09503293 0.02975172 -0.0733769
000200 8e e9 58 3d 6e da ee bd 2d bf 2a bd 3d 96 dd bd
       0.05295711 -0.11662756 -0.041686226 -0.10819671
000210 f4 35 0e bd de 43 9b bd be 49 1d be 00 6d 61 be
       -0.034719422 -0.07581304 -0.15360162 -0.22014236
000220 fa ef ae bd ca 7b f9 bd cb 00 46 bd cc 61 7e be
       -0.08541866 -0.12181814 -0.0483406 -0.24841994
000230 35 78 17 3d 12 03 0c be 5b 77 c7 bd 7f 77 75 bd
       0.036979873 -0.13673046 -0.09739562 -0.059928413
000240 62 22 a6 bd 64 7f 7f bd 46 54 a4 3e 20 23 71 bd
       -0.08112027 -0.06237735 0.32095546 -0.05887139
000250 c9 da fb bd d5 7f 08 be f5 77 63 3e 80 f6 07 3d
       -0.12297589 -0.13330014 0.22213729 0.033194065
000260 e0 6a 73 3d fd 71 88 3d a2 5c 38 be 26 11 00 3d
       0.059428096 0.066623665 -0.18004087 0.031266354
000270 ea c4 54 3d 91 8b 0b be 48 7b 42 be 17 f1 44 3d
       0.051945604 -0.13627459 -0.1899234 0.048081484
000280 57 70 29 3d 1d e7 c9 bc ae 4a 1f 3d 85 75 21 bd
       0.0413669 -0.024646336 0.03888958 -0.039418716
000290 59 62 06 be 48 b2 34 be 2a 0a 1a be e3 84 44 be
       -0.13123454 -0.17646134 -0.1504294 -0.19191317
0002a0 0e 5f d1 bd 5d fa 01 3e 3d 14 8b 3e 8f 95 05 3e
       -0.10223208 0.12693162 0.27163878 0.13045333
0002b0 d4 e1 8d 3b a4 68 4d 3e db 8b 80 bd c7 35 5e bb
       0.0043298993 0.20059448 -0.06276675 -0.0033906566
0002c0 3c 5a 0b bd ad dc 85 bd 5a ce 61 bd e5 eb f6 bc
       -0.0340216 -0.06536231 -0.055128433 -0.03014178
0002d0 d1 88 59 3e 0e 55 05 3d cf 1f 24 be ac 27 d3 bd
       0.21243598 0.032551818 -0.16027759 -0.10310301
0002e0 f4 64 6f 3d 30 7a 15 bd e6 d9 45 3c 08 a3 f8 bd
       0.058445886 -0.03649348 0.012075877 -0.12140471
0002f0 3d a6 1c be af b5 c1 bd 05 7d 77 be 83 7a 97 bd
       -0.1529779 -0.094584815 -0.24168785 -0.07396414
000300 51 10 e2 bd 2f 1a 7c bc 23 34 6a bc 46 3e ff bd
       -0.11038268 -0.015387102 -0.014294657 -0.124630496
000310 80 dc 92 bd 59 9a 20 3e a3 9b 03 be 7e 61 69 bd
       -0.07170963 0.15683879 -0.1285234 -0.05697774
000320 45 37 37 bd 9e 54 65 bc 0c 7a 58 bd 6f 6a 15 bd
       -0.044730444 -0.013997225 -0.052850768 -0.036478456
000330 66 0c 44 be bf 47 8b 3e 51 42 88 3d 3b 4b a3 3e
       -0.19145355 0.27203175 0.06653274 0.31893334
000340 fd 13 c8 bd b5 1f 2b bc 89 71 5f 3e ca 83 a6 be
       -0.097694375 -0.010444571 0.21820654 -0.32522422
000350 fc 95 52 be c5 3e b8 bd 06 06 00 be 57 07 87 3c
       -0.20565027 -0.08996347 -0.12502298 0.016482992
000360 a7 f5 6e be 35 9d ce 3b 66 9a 4e 3d 70 ff e3 bd
       -0.23335896 0.0063053616 0.050440215 -0.11132705
000370 67 75 34 bd 08 63 2b bd 2a a4 15 be 80 d6 97 be
       -0.044057276 -0.04184249 -0.14613405 -0.29655838
000380 06 5a d0 3d a7 44 0f be ce 5f ef 3d 06 bc 8d ba
       0.101734206 -0.13991033 0.11688195 -0.0010813482
000390 13 e9 0e 3d b4 37 90 3d 7f 1a 6f be 42 a9 ca 3d
       0.034890246 0.070418745 -0.23349951 0.098955646
0003a0 4e 2c 5a be 86 d2 99 bd 69 19 03 be af 11 39 be
       -0.21305963 -0.07510857 -0.12802662 -0.18073152
0003b0 48 ee 82 be bf 4c d5 3c 06 b5 b1 bd 2a 8e e1 3c
       -0.2557242 0.026037572 -0.086771056 0.02753361
0003c0 1b 99 af 3d af c6 0e bf 1f 33 a4 bd ed a0 cc 3e
       0.085741244 -0.5577192 -0.08017563 0.39966527
0003d0 c6 86 8f bd 4c 3e 2b be ab 0c c6 bd 92 f7 02 be
       -0.07008128 -0.16722983 -0.09670385 -0.12789753
0003e0 a4 6d bc bd 78 68 40 be
       -0.092006 -0.18789852

l2.weight f4 [130, 250]
000000 12 bd 6f bd 93 b9 0c 3d 98 67 ae 3d 19 7b 50 bb
       -0.05852992 0.034356665 0.08515853 -0.0031811653
000010 e6 df e9 3d 22 c2 bb 3b 99 e5 74 bb 3f f8 9b 3b
       0.11419658 0.0057299295 -0.0037368296 0.004759818
000020 68 c3 22 bd 66 25 5b be 25 28 64 3d 2c db 87 ba
       -0.039737135 -0.21400985 0.055702347 -0.0010365001
000030 0e 70 1f bd fc 2f 33 3c 3d 27 5d 3c 89 04 00 bc
       -0.038925223 0.010936733 0.013498125 -0.007813581
000040 1e ae 9f bb cd d1 fc bd 0a 85 67 3c e4 37 9a bb
       -0.0048730513 -0.12344704 0.01413084 -0.0047063697
000050 2b 40 33 3c eb ab cf bb 7d 3f 0f 3b 05 2c a1 bd
       0.010940592 -0.006337633 0.002185791 -0.07869724
000060 4e 17 ac bc 71 51 a7 bb e7 60 05 bc 85 31 01 bc
       -0.021007206 -0.005106144 -0.008140779 -0.0078853415
000070 58 71 9b 3d f5 fd 53 3c 2a 5d e0 3a fa 38 15 3e
       0.07589978 0.012938966 0.0017117609 0.14572516
000080 c5 4e fc bc e0 c2 60 3e 4c a9 4f 3c a1 e0 1e ba
       -0.030799279 0.21949339 0.012674641 -0.0006060694
000090 0f 1c 04 3c a4 f6 56 bc 2c 8e 86 3d 91 50 1c bd
       0.00806333 -0.013120327 0.06570086 -0.03816277
0000a0 b1 82 80 ba cf ca 40 bd 62 2d a3 bd 34 dd fb bb
       -0.0009804574 -0.047068413 -0.079676405 -0.0076862816
0000b0 77 13 a5 ba bb a9 10 3d db 64 39 bc 60 94 79 3d
       -0.0012594302 0.035318118 -0.01131555 0.060932517
0000c0 18 3b 87 3d ea 7c d4 bb fc 43 32 bd e7 44 bd 3c
       0.06603068 -0.0064846175 -0.043521866 0.023104144
0000d0 dc 0f 13 bd bb 67 4c 3c ea 88 76 bd f2 cd 91 3e
       -0.035903797 0.012475903 -0.060189165 0.28477436
0000e0 b4 70 8e bb 8f 03 be bc 2d e6 09 3b 09 ea 88 bb
       -0.0043469314 -0.023195056 0.0021041736 -0.00417829
0000f0 be e7 c2 bb 75 cb 8b 3b ab aa 26 3d 52 3f a2 bc
       -0.005948036 0.0042661973 0.040690105 -0.019805584
000100 e2 b9 f4 3b 2d fa b7 3b dc 4f 53 3c b4 f4 9f bd
       0.007468448 0.00561454 0.012897458 -0.07810345
000110 71 ca b4 3d b5 09 88 3b 99 65 a8 3d 8c 50 6f 3d
       0.08827675 0.004151548 0.08222503 0.058426425
000120 a9 5c 00 3b 50 55 4c 3d c0 dc 4c 3a 3b 13 33 3c
       0.001958648 0.049886048 0.0007814877 0.010929878
000130 a8 6b 0a bd 73 6f 3a bc d9 b6 7e bc 1c f8 ac be
       -0.033794075 -0.011379111 -0.015546524 -0.33783042
000140 17 3c 36 bc 4a d6 77 3b e5 df 93 3c 37 96 7a 3d
       -0.011122725 0.0037816935 0.018051097 0.061178412
000150 01 ca 16 bd 26 ba 18 bd 59 ce c4 ba 7d 1c 90 bd
       -0.03681374 -0.0372869 -0.001501511 -0.07036684
000160 ce 43 12 bb 73 0e 3c 3c ab 60 26 3d ab 3b 47 3b
       -0.0022318247 0.011478054 0.040619534 0.0030400555
000170 77 3e 0a 3d 74 a5 3e 3c df f2 31 bc 49 2b 3e 3d
       0.033750977 0.011636127 -0.010861128 0.046428
000180 1f 3d 90 3c f1 6e ce 3a 11 dd 3e b8 c4 f3 41 bb
       0.01760727 0.0015749616 -4.5505414e-05 -0.0029594759
000190 1d f0 7c bc 3d f4 c0 3b d4 62 57 3d 07 94 83 bc
       -0.015438107 0.0058884905 0.052584484 -0.016061796
0001a0 06 af 5a 3d cc 83 18 bd 97 dc ea bc 6f 66 d3 3b
       0.05338957 -0.037235066 -0.028669639 0.00645142
0001b0 10 41 91 3a bf 24 14 ba 5c ab 1b 3b 03 40 d3 bd
       0.0011082012 -0.00056512275 0.0023753261 -0.10314944
0001c0 eb d0 81 bc f1 5c 83 3c 4d 78 92 3b 6b 34 5a bc
       -0.01584669 0.016035529 0.0044699074 -0.0133181615
0001d0 91 4c a6 bd a6 fc 25 bd dd 75 64 bb 22 24 a3 3c
       -0.08120073 -0.040524147 -0.003486029 0.01991469
0001e0 32 23 f8 bb bf e9 c3 bb 79 45 82 3d cf c7 fe 3a
       -0.007572555 -0.0059787924 0.06360907 0.001943821
0001f0 46 cb 79 3c ef ae 68 3d f7 a8 7f bb d7 f1 b9 3d
       0.015246218 0.056807455 -0.0039010623 0.090793304
000200 93 ce 68 3d ad 43 02 3c f2 56 c5 ba 8a 7f 52 3d
       0.05683763 0.0079507055 -0.0015055819 0.051391162
000210 16 20 75 be 5a ef d6 bb d7 a7 5c 38 c2 39 da 3c
       -0.23938021 -0.0065592946 5.26084e-05 0.02663887
000220 30 70 bc bb 7f ef f7 3b 18 08 86 3d 62 76 12 3c
       -0.0057506785 0.007566392 0.065445125 0.0089393575
000230 37 06 5c bb 46 ed 87 3d 73 5e dd 3b cf d1 ac bb
       -0.003357304 0.06637053 0.006755644 -0.0052740346
000240 6e 16 d3 bb ec 05 30 3c bf 20 a6 bc e6 81 32 bb
       -0.006441883 0.010743599 -0.020279286 -0.002723807
000250 27 37 a2 3b 41 81 c8 39 29 d0 0c bc d3 11 a5 3b
       0.0049504223 0.00038243274 -0.008594551 0.005037525
000260 cb bc 94 3c de cd 9a bc 8a 3f 1d 3c 7b 21 83 3d
       0.01815643 -0.018896993 0.009597668 0.0640287
000270 ca f5 19 3c 53 f8 76 3d 67 3e c3 bb f2 63 88 3c
       0.00939698 0.060295414 -0.0059583667 0.01664922
000280 1f 42 0d 3d fa 10 b3 bb 7a 2e 25 bd 2c 0c 89 bd
       0.034486886 -0.0054646702 -0.040327527 -0.06691775
000290 03 0c b5 3b 21 f3 4b bb 4a 40 76 3d 04 f3 d0 bc
       0.0055251135 -0.0031120258 0.060119905 -0.025506504
0002a0 45 f7 f5 38 b4 51 ed bc f0 9e 85 3c 61 02 cc bc
       0.00011728568 -0.028969623 0.016311139 -0.024903478
0002b0 4a 4c ad 3d bf 23 12 bd 8c d6 49 bc d3 ab 46 3c
       0.084618166 -0.03567862 -0.012319218 0.012125927
0002c0 46 16 35 bd ba a6 20 3b 22 24 ab 3a b4 8a f6 3c
       -0.044210695 0.002451344 0.0013057033 0.030095436
0002d0 59 cd 8f be 4b e5 62 3d 3d 8f 8f bb 11 23 f0 ba
       -0.28086355 0.055394452 -0.004381089 -0.0018320997
0002e0 ee b0 76 bc 93 e2 23 bd 3f 8b 13 3c 91 14 82 ba
       -0.015056832 -0.040011 0.009005367 -0.0009924342
0002f0 ad 0e 1e bc 18 d4 80 be f0 79 74 3d 45 c8 b1 bc
       -0.009647054 -0.25161815 0.0596866 -0.021701941
000300 da 00 a9 b9 f1 b3 95 3c 3c f0 3e 3e 9a 1e 86 ba
       -0.00032234826 0.01827428 0.1864633 -0.0010232509
000310 a7 86 35 be 1b 0a 71 3c e5 27 05 bd 08 c8 08 3b
       -0.17727147 0.014711882 -0.03250875 0.002087118
000320 57 0c 89 bc d8 31 73 3b f0 55 7d bb d8 3c 59 bd
       -0.016729517 0.0037108567 -0.003865596 -0.05303654
000330 bb 61 7e bd 3f aa 9c 3d 44 54 ae 3d 4b 21 8f 3a
       -0.06210492 0.07649659 0.08512166 0.0010919956
000340 0d 10 7b bc 8b af 97 bc c0 dd 97 3d 74 3c 8c bc
       -0.015323651 -0.018516323 0.07415342 -0.01711867
000350 4d c5 cf bc 69 1f b5 bc 9b 19 a1 bb 9b a4 a1 bb
       -0.025362635 -0.022109704 -0.0049163825 -0.0049329526
000360 53 bb 9d bc 90 24 52 3d 50 b1 18 bc 2b 0b df 38
       -0.019254362 0.0513044 -0.009319618 0.00010635549
000370 cc 85 6c 3a 50 e3 38 ba 17 60 ea 3d 34 2e 6d bc
       0.0009022623 -0.0007052915 0.11444109 -0.014476348
000380 86 58 c5 3d 0e a3 db bd da 5b 60 3d 30 52 90 3c
       0.09636025 -0.107244596 0.054775096 0.017617315
000390 2a 3e d1 3c 4a 0b 1d bc a0 df 45 3d af fa 9f ba
       0.025542337 -0.009585211 0.04830897 -0.0012205447
0003a0 83 56 1b 3c b6 c8 0f bc 24 ba 08 3d 8e df 1a 3c
       0.009481075 -0.008775881 0.033380643 0.009452714
0003b0 40 98 06 3b 92 59 19 bc a5 29 6d bc f4 69 f6 3d
       0.0020537525 -0.009359734 -0.014475261 0.12031928
0003c0 ea 33 6c bc 86 7f fc bc f2 11 38 3d 4c be 26 3d
       -0.014416674 -0.030822527 0.04493899 0.040708825
0003d0 b7 9b 0c bc c1 1f 33 3b f2 dc f1 3e 06 05 bd bb
       -0.008582047 0.002733216 0.4723888 -0.005768421
0003e0 d3 46 13 3d 5b c4 35 bb de dc 39 bb 1a 11 52 bb
       0.035956215 -0.0027735445 -0.0028360407 -0.003205365
0003f0 2f 55 42 bb fe a4 7b 3a 02 e6 09 bb 5f 61 68 ba
       -0.0029652824 0.0009599476 -0.0021041636 -0.0008864607

l2.bias f4 [130]
000000 a4 b5 90 3e b3 e3 b2 ba a6 3f 5b bd 5e f6 a1 bd
       0.2826358 -0.0013648182 -0.053527497 -0.07908319
000010 07 56 56 bd a8 eb 34 3e 57 14 99 bb 75 06 2a bd
       -0.052328136 0.1766802 -0.004671614 -0.041510064
000020 ce c4 cb 3c 3e 3f 48 bd a1 9b 76 bc da ef 25 be
       0.024874117 -0.048888437 -0.015051753 -0.16204777
000030 ab e5 2b be f7 06 57 bc 93 a9 a5 3d b0 f5 75 be
       -0.1678683 -0.013124219 0.08088984 -0.24019504
000040 b5 3e 90 be 55 8b 91 bc ab f0 02 3d f3 79 70 bd
       -0.28172842 -0.017766634 0.0319678 -0.05871005
000050 16 6f 56 be fa ae 57 3c b8 f1 e4 3d 94 32 c5 bd
       -0.20940813 0.013164276 0.11178917 -0.09628788
000060 d8 a3 cb 3d 50 22 4f 3d 50 40 05 bf 65 bf 28 3e
       0.0994336 0.050569832 -0.5205126 0.16479261
000070 d2 87 d7 3d e1 76 37 bc c3 94 f4 bc 54 aa 11 be
       0.105239525 -0.0111977765 -0.029856091 -0.14225131
000080 a4 5e 9d bc 00 cb 5f be 18 79 64 3c 78 ec 89 bd
       -0.019210167 -0.21854782 0.013944887 -0.06734556
000090 95 08 19 be dd b4 57 be 4a 04 90 bc e0 aa c1 bd
       -0.1494468 -0.21065088 -0.01758017 -0.0945642
0000a0 2a ac a8 bd 2a 42 a7 bd 26 54 60 bd 3d 18 9a 3c
       -0.08235963 -0.08166917 -0.05476775 0.018810386
0000b0 e1 c7 eb bd 19 12 69 3c a8 cb 61 3d 5a cd 1d bd
       -0.11512733 0.014225506 0.055125862 -0.038525917
0000c0 b4 56 b0 bd 62 4d 9f bc 7f 16 69 3e 32 8e 49 be
       -0.08610287 -0.019446079 0.22762488 -0.1968315
0000d0 40 a0 d1 bc bd 7d 79 bd be e3 55 3c 4b 48 59 bd
       -0.025589108 -0.06091093 0.013054786 -0.05304746
0000e0 50 ae ee bd 64 6a 30 be 76 9a 6b 3e 90 20 99 bd
       -0.11654341 -0.17228085 0.23008141 -0.07476914
0000f0 40 29 78 bd 4b 9e aa bc 9d 21 65 3e 64 f1 bb bc
       -0.060586214 -0.020827433 0.22376104 -0.022942252
000100 8b 8e ae bd b9 76 53 3e 5d 5b 8d bc ee e8 b3 3b
       -0.08523282 0.20650758 -0.01725548 0.005490414
000110 d4 d2 a9 be c9 6c 38 bd b6 b7 15 3d 10 16 af be
       -0.33168662 -0.04502562 0.036552154 -0.3419652
000120 ab bc af be bb 2f b3 bc f2 a9 c8 3d 10 df 98 3e
       -0.3432363 -0.021873346 0.097980395 0.29857683
000130 99 c7 ed bd 28 e6 27 be 2b 63 c6 bd 00 ae 07 bd
       -0.11610336 -0.16396391 -0.096868835 -0.033124924
000140 7b 14 38 bd 04 6f 11 be db 13 8a 3e 86 98 a8 bd
       -0.044941407 -0.14202505 0.26968274 -0.082322165
000150 6c 88 8d 3d 74 bd ed bd 29 94 f6 bd cd bb 3b 3e
       0.06910786 -0.11608401 -0.12039978 0.18333359
000160 c3 a4 5b ba 67 1a 9a bd bc c8 04 be 8e 82 3b bd
       -0.00083787384 -0.07524567 -0.12967199 -0.045778804
000170 45 85 73 bd fc 3d c7 3d d3 78 03 be 57 f5 7a 3c
       -0.059453268 0.097286195 -0.1283906 0.015317283
000180 39 fe 77 be c6 11 e0 bd 1b ee a4 be 40 5c 3f bd
       -0.24218072 -0.1094089 -0.3221291 -0.046718836
000190 ff d3 34 bd 81 cc ca 3d 88 c1 cb bd 6c 17 63 3e
       -0.044147488 0.09902287 -0.099490225 0.22176903
0001a0 02 9a 53 3e c0 80 65 bd bb 61 f0 bc fa 3d 39 bd
       0.20664218 -0.05603099 -0.029343477 -0.04522512
0001b0 84 d2 06 bd c7 9e eb bc 33 64 97 bd 7a 9a 83 bc
       -0.032915607 -0.028762234 -0.07392158 -0.016064871
0001c0 ba 89 0b be 75 80 dc 3a 76 d5 78 3e 82 55 fe bc
       -0.13626757 0.0016822951 0.24300179 -0.031046633
0001d0 03 01 e7 bd 68 d2 e1 bd 0e 83 c5 bd c6 b7 d4 3c
       -0.1127949 -0.1102646 -0.09644137 0.025966536
0001e0 3d 80 03 bd 50 a3 34 bf fa 63 ae bd 2c 39 1a be
       -0.03210472 -0.70561695 -0.08515163 -0.15060872
0001f0 37 11 98 bd 99 c3 4d bd 5e 59 ec bd 75 17 08 bf
       -0.074251585 -0.050235365 -0.11540483 -0.5316079
000200 d0 36 94 bd 62 97 cd bd
       -0.07237017 -0.100386396

l3.weight f4 [50, 130]
000000 11 d9 86 bd d8 ef 19 bb 0c f1 8f bb 85 0f 27 3a
       -0.06584371 -0.0023488905 -0.0043927487 0.0006372857
000010 5d 36 9a 3a 3d 96 b5 bb 1a 4f b1 bd 20 72 a4 bc
       0.0011765469 -0.0055415914 -0.086576656 -0.02007395
000020 de 53 ee ba 77 83 6d 3b 65 e6 da ba 74 a6 e8 3a
       -0.0018182953 0.003624169 -0.0016700743 0.0017749802
000030 ea ed 0a 3c 33 97 04 b8 8a 35 b5 3a 84 7f a7 bc
       0.008479575 -3.1612068e-05 0.001382516 -0.020446546
000040 5f d8 ab 3c 04 4f 8d b9 34 dd 4e bd 0e 22 9f 39
       0.020977197 -0.00026952487 -0.050503924 0.00030352216
000050 a4 e0 09 3b 9d 9f 28 bd f9 90 9c bb 4a 4b 3c bb
       0.0021038437 -0.041167844 -0.0047780243 -0.00287314
000060 5b 71 96 37 76 1c 87 ba 96 56 f9 3b 3a 21 e4 ba
       1.7934179e-05 -0.0010308165 0.007609199 -0.0017404922
000070 db 44 82 bc fb 8b 34 bb 72 07 9d 3d b6 26 51 ba
       -0.015901973 -0.0027549255 0.07667436 -0.00079784857
000080 ee 41 4a bc da a8 cc bc cf 83 70 bd b3 89 0d 3b
       -0.01234482 -0.024982858 -0.058719452 0.0021596968
000090 80 ba 67 bc ec e0 95 3c 5e f4 22 bb dd c3 a4 3a
       -0.014143586 0.018295728 -0.0024864892 0.0012570579
0000a0 c5 f6 45 ba 94 e6 e3 ba 58 ec 74 ba 79 83 99 3b
       -0.0007551725 -0.0017387443 -0.00093430793 0.004684862
0000b0 b8 6a 98 3c dd 84 a4 bd 8c ee 8f bd ce b4 7a bb
       0.018605575 -0.08033154 -0.07027921 -0.003825474
0000c0 80 47 36 3b 98 05 17 bc 68 91 44 bc 0e a0 e5 3a
       0.0027813613 -0.009217642 -0.011997558 0.0017519013
0000d0 0b 81 8a bb 6f 7a 5d 3c 1f 23 9c bb 07 38 e7 39
       -0.004226809 0.01351796 -0.004764929 0.00044101497
0000e0 f0 50 dd bc 61 e5 78 bc 91 91 6c bc eb e9 1d 3b
       -0.027016133 -0.015191407 -0.014439003 0.0024095725
0000f0 dd 9f 54 ba 72 c4 98 bb 89 bc ab bd 8a 03 a8 bb
       -0.00081109797 -0.00466209 -0.083855696 -0.005127375
000100 f6 1e 85 bc e0 7d ab bd 55 d0 43 3b fe 5e 1b 3d
       -0.016250115 -0.08373618 0.0029878814 0.03793239
000110 89 2c 0a 3e 8a 6a 41 bb 8b d4 96 3b 54 37 9f ba
       0.13493551 -0.0029512965 0.004602974 -0.0012147226
000120 07 5d 7b 3b b9 cb ca ba 7d 00 12 bc 50 dc 7b bc
       0.003835501 -0.0015472091 -0.008911249 -0.015372351
000130 2e 8a 7f 3a b7 e9 03 b9 d9 fc 15 3a 5e 6d 6a ba
       0.00097480684 -0.00012580199 0.0005721576 -0.00089426886
000140 be 2d 8b bb 96 3a db bb 48 4a e8 3b 62 5c 33 bb
       -0.0042473963 -0.0066903336 0.007088933 -0.0027368297
000150 1f f1 b9 bc e6 d0 49 bc 07 30 05 bb 47 a4 6e bd
       -0.022697983 -0.012317872 -0.0020322816 -0.058262136
000160 c3 cd 64 3b 50 8a 5c bb 80 00 cd bc 04 ce e9 b9
       0.0034912683 -0.0033651777 -0.025024652 -0.00044594717
000170 6d b8 aa 3a b6 62 fd bb 2a 0e 96 3d 0d 28 5f bd
       0.0013024934 -0.0077327145 0.0732692 -0.054481555
000180 9f 55 13 3d 66 96 4a 3b d0 fe 5a 3a 96 03 18 bb
       0.035970327 0.0030912398 0.000835401 -0.0023195497
000190 b7 e0 8e ba ba e3 45 3b b6 33 80 3c d3 6e 1c bc
       -0.001090071 0.003019555 0.015649658 -0.009547907
0001a0 af 3d 05 bd 64 7d c0 ba 54 a6 4d bc a2 af 30 3b
       -0.03252953 -0.0014685807 -0.012551863 0.0026960154
0001b0 6f c5 86 bb 15 75 62 3b 8c e7 95 bd 0a 04 a6 bb
       -0.0041128914 0.003455465 -0.07319555 -0.0050663995
0001c0 04 b3 68 3d 8d 96 0e 3d 74 b6 fd bb 53 42 c4 3b
       0.056811348 0.034811545 -0.0077426974 0.005989352
0001d0 61 8b 94 b9 98 a4 9c bc 3e 05 16 3d 4b 16 43 bd
       -0.00028332605 -0.019121453 0.036626093 -0.047628682
0001e0 fc 8a a9 bb 42 5e 08 3c ce 24 4a 3b 9d e7 d6 3a
       -0.005174039 0.008323254 0.0030844691 0.001639593
0001f0 6e 85 fe ba 8f 07 88 ba 07 0b fc ba b3 06 f4 3b
       -0.0019418427 -0.0010378229 -0.0019229361 0.0074470877
000200 a7 bc 94 b9 4c a6 19 bd 72 6e d8 bc ac e7 9b 3b
       -0.00028369317 -0.03751211 -0.026419852 0.004757842
000210 e1 45 07 bc 94 03 05 bd 7a 98 47 3b 0c 1d 7e 3d
       -0.0082564065 -0.032474115 0.0030455873 0.06203942
000220 82 df 68 be a0 82 dc 3c f6 c5 84 be 6b 94 6c 3b
       -0.22741511 0.026917756 -0.25932282 0.0036099206
000230 4f 5d e6 b9 b0 24 21 3c db 35 25 3c 75 a3 9c b9
       -0.0004393854 0.009835407 0.010083641 -0.00029876424
000240 a8 fd b0 bd c9 d2 53 bc 14 c9 d6 bc 52 2d 1e ba
       -0.08642131 -0.012928673 -0.026218928 -0.0006033975
000250 bb 5c e2 bc b1 17 94 bb a3 91 1b bb 47 e0 26 be
       -0.027632108 -0.004519426 -0.002373793 -0.16296493
000260 5d a8 99 bd bb 0f 08 ba 8e 3b b7 bd fe 2f 95 3b
       -0.07502816 -0.00051903323 -0.08946906 0.0045528403
000270 93 6c c6 ba b0 f3 bb 3e 4f 7e a0 be c9 38 76 bb
       -0.0015138559 0.36709356 -0.31346366 -0.0037570468
000280 e9 ee 4e 3c 78 27 0d 3e 6e 61 36 be be 53 0f 3d
       0.012630203 0.13784587 -0.17810604 0.034991972
000290 a4 fd 69 bc 99 0d 07 ba e4 a0 4b 3e 17 07 5a be
       -0.014281664 -0.00051518675 0.19885594 -0.21291767
0002a0 bd 96 2f 3b fd 21 4f ba 67 dc fa 39 a6 7c 5f ba
       0.0026792728 -0.0007901488 0.00047847928 -0.0008525349
0002b0 05 3d 56 bb 7c 59 4d be 81 f7 4b 3d e0 43 e3 bd
       -0.003269018 -0.20053667 0.049796585 -0.110969305
0002c0 be a3 f6 bc 62 15 79 bb bf 82 3b b9 9f 38 75 ba
       -0.030107375 -0.003800713 -0.00017882416 -0.00093544455
0002d0 6a ea 0f be ab 94 02 3c 62 3f aa 39 1a b4 0b be
       -0.14054266 0.0079700155 0.0003247215 -0.13642922
0002e0 c9 b1 39 3c b6 30 5e bb 49 82 76 bb 83 98 d3 bc
       0.011333891 -0.0033903546 -0.0037614277 -0.02582956
0002f0 db dd 5f 3e 27 5e 1e b9 1e 6a 37 ba e1 fb d0 3c
       0.21861975 -0.00015103129 -0.00069967087 0.02551073
000300 99 cb 06 3c 0d e7 88 be 4b 88 56 3b 11 9b f9 bd
       0.008227252 -0.26738778 0.0032735046 -0.1218778
000310 f7 d2 ac 3b 58 b4 8b bc f9 4c 44 3c ff 4e 3e b8
       0.0052741724 -0.017053768 0.011981242 -4.53731e-05
000320 6f 98 8b bd 90 a7 9d 3e 24 1a ae 3b 4b 83 1e bb
       -0.06816184 0.30791903 0.005313175 -0.0024187143
000330 c7 2e 97 be 1d 19 27 be 9d db b1 3b cb 70 22 3b
       -0.29527876 -0.16318174 0.0054277913 0.0024786468
000340 ed 9b 88 b9 66 b1 49 3b da 8f 65 ba 31 f7 32 3e
       -0.00026056115 0.0030775904 -0.00087570923 0.17477109
000350 32 9e 0e 3e 4b 4c a3 bb eb 6c 81 3e 2c 14 87 ba
       0.13927534 -0.00498346 0.2527841 -0.0010305694
000360 9a 12 08 bb 50 e5 c8 ba 44 06 f1 3d e7 62 ca ba
       -0.002076304 -0.001532713 0.11768773 -0.0015440852
000370 ff a0 49 be 52 8b 2a bb c6 ef 4e bb 86 3b 75 3d
       -0.19690321 -0.0026022983 -0.0031576022 0.05987122
000380 60 2e aa 3b 97 49 51 3c 3c 06 c3 bc 94 1c 51 3b
       0.0051935166 0.012773893 -0.023806684 0.0031907903
000390 f8 c2 db 3b e9 72 6b bb 18 13 12 bb 20 70 9f 3d
       0.0067065917 -0.0035926646 -0.0022289213 0.07785058
0003a0 e1 c7 39 3b 0d ff 69 be db ee 3a bd 81 40 95 bb
       0.0028347897 -0.228512 -0.045637947 -0.0045548086
0003b0 7f b7 1f 3c 8b 7f 0f 3b f3 e9 f6 ba a9 28 0d 3a
       0.009748339 0.002189609 -0.0018838033 0.0005384782
0003c0 52 2d a4 bd 7f 8e 1f 3e fb 42 0d bb 2a d9 c7 bc
       -0.08016457 0.15581702 -0.0021554816 -0.024395544
0003d0 e9 d0 35 be a2 a0 6e 3b 79 d6 00 3b 7d 8e 6e 3e
       -0.17755474 0.0036411663 0.0019659086 0.23296542
0003e0 7b e0 ef 3c 21 07 16 3d c0 1d 38 bb c6 1d 27 3b
       0.029281845 0.036627892 -0.0028093904 0.0025499924
0003f0 a4 49 44 bb 40 21 95 bb 0b 27 e0 b9 e3 da 5b 3b
       -0.002995112 -0.004551083 -0.000427537 0.0033547215

l3.bias f4 [50]
000000 dc c3 85 be ac 32 2e 3f 74 f9 d3 bd 54 34 2c 3e
       -0.2612599 0.6804607 -0.10350314 0.16816837
000010 cb 1e 2f be 3e 34 03 be d0 07 df bd ac d5 01 be
       -0.1710159 -0.12812898 -0.10890162 -0.12679166
000020 aa 13 01 3f 88 3b 5c 3e 4f 1a bb bd e4 f9 87 bd
       0.5042063 0.21507084 -0.09135877 -0.0663946
000030 41 bc 5c 3e 63 75 23 be a0 09 2d be 2a 69 4a be
       0.21556188 -0.15962748 -0.16898203 -0.1976668
000040 ad 05 e1 bc 4d 50 3b 3e cf bf ad 3e df 23 04 3d
       -0.027468527 0.18292351 0.339354 0.03226077
000050 9d 2d 90 3e e2 67 b9 3c a2 9b 6f 3e bc 75 ff bd
       0.281598 0.022632543 0.23399213 -0.12473628
000060 45 6e 1f bd 9e 39 44 3e 58 15 98 bd b9 d1 a5 be
       -0.03892352 0.19162604 -0.07425946 -0.32386568
000070 c8 7d 8e bd 60 e2 ea be 09 30 5b be 5c 2b 14 bd
       -0.069575846 -0.45875835 -0.21405043 -0.036174163
000080 4c 1c a1 3e 1b 20 88 3e b6 e7 07 3f 60 82 0c be
       0.314669 0.26586995 0.5308794 -0.13721609
000090 a6 62 94 bd bd 01 20 be 85 bf 73 3d e0 6d 2b be
       -0.07245378 -0.15625663 0.05950882 -0.16741133
0000a0 a7 5e 85 bd a8 d5 2b 3e f2 52 6c be 39 ed b2 bd
       -0.06512194 0.16780722 -0.23078516 -0.08736653
0000b0 93 b5 2b bd 65 0a a2 bc 9b c0 8e bd 2a 1a a0 3e
       -0.04192121 -0.019780347 -0.0697033 0.31269962
0000c0 49 83 c7 bd 02 70 d4 be
       -0.097418375 -0.41491705

l4.weight f4 [10, 50]
000000 d8 04 35 ba ec 57 54 3e f0 b9 8b 3b 10 f3 46 bd
       -0.0006905324 0.20736665 0.004264109 -0.048571646
000010 62 aa b2 ba f7 e7 3d bb 0d 68 d2 39 27 71 7c 3b
       -0.00136311 -0.0028977373 0.00040131845 0.0038519592
000020 25 a1 2f 3c 4d f8 25 bf 52 b0 fb 3b e3 4c 68 3b
       0.010719572 -0.64832 0.007680931 0.0035446219
000030 39 51 a7 bd 80 09 b0 3a ca b0 c4 ba e5 2b e9 bb
       -0.08169789 0.0013430566 -0.00150063 -0.0071158283
000040 c4 fd 17 bd e6 bd fd bb 1b 2e 5f bd 73 22 92 3d
       -0.037107244 -0.007743585 -0.05448733 0.07135477
000050 73 38 d3 3d 3f 96 52 bc c7 58 ca 3c 63 60 c4 3b
       0.10313501 -0.012853204 0.024700535 0.0059929355
000060 60 88 17 bd 42 ac 4b bd d1 d3 6e 3b 8f 90 07 3c
       -0.03699529 -0.049724825 0.003644217 0.008274212
000070 37 41 dd 3a 0d e3 76 bb 1f 33 bf ba 6b 16 c7 3b
       0.0016880397 -0.0037671954 -0.0014587379 0.0060756705
000080 df cf d1 3b 19 41 81 be f9 cd 01 bd 8c 8e da 3b
       0.006402954 -0.25244978 -0.03169057 0.006669825
000090 b4 94 8b bd f8 72 53 bb e8 f6 49 3d ab 19 8a 3b
       -0.06815472 -0.0032264572 0.049307734 0.0042144856
0000a0 2b 37 8c 3b d1 f0 e0 3c 0a 23 fd be 1b e8 5c 3b
       0.0042790375 0.02745858 -0.49440795 0.0033707682
0000b0 52 c8 37 bc 91 7a 95 b9 09 59 91 3b 44 82 e2 3d
       -0.011217194 -0.00028510814 0.0044356626 0.110600024
0000c0 29 80 14 3c ba 23 52 be 8e 78 88 3b 12 0f 42 3e
       0.009063759 -0.20521441 0.004164762 0.18951061
0000d0 86 f7 0e 3a 2d 17 f8 bb 49 57 c9 ba 75 eb 01 3c
       0.0005453754 -0.007571122 -0.0015361096 0.0079296725
0000e0 c4 a5 4e 3b 8c fa ab bd 78 7f 92 3d a7 b9 1c 3e
       0.003153191 -0.083973974 0.07153219 0.15305196
0000f0 f0 f5 df 3b 14 ab 25 3c 90 d9 82 3e 88 eb a6 bb
       0.006834738 0.010111589 0.25556612 -0.0050939955
000100 fe d8 e9 bb fa e9 06 3b 48 f5 12 bf e1 c0 d4 bb
       -0.007136463 0.0020586238 -0.5740552 -0.0064927195
000110 ee 81 97 3e d2 d3 40 3d 9b e4 a0 bd 77 21 fb 3c
       0.29591316 0.047077008 -0.07856103 0.030655606
000120 06 cc 98 3c 94 74 81 3c f6 b7 42 bb 01 ef 5a bd
       0.018651973 0.01580266 -0.00297117 -0.053450588
000130 b4 6c a8 3b e7 53 f0 bc 2c 86 e4 3b 3f ff 93 bb
       0.0051399115 -0.029336883 0.0069740023 -0.0045165117
000140 5a e4 e7 bc 9c de 1a bb b8 4b 9f 3c cb a7 69 be
       -0.028307129 -0.002363122 0.019445285 -0.22817914
000150 a9 33 45 3c 49 70 0a 3b 91 ad 31 bc 35 3b c8 bb
       0.0120362425 0.0021124056 -0.010844604 -0.0061105737
000160 7c b7 d5 be 77 11 33 3c 54 6a 84 3b 39 00 14 bd
       -0.4174155 0.010929457 0.0040409956 -0.036133025
000170 27 3b 82 bd 82 ff cc 3a 67 02 46 bc 0f 57 ef 3b
       -0.06358939 0.0015640112 -0.012085534 0.0073040794
000180 e8 f7 90 38 cf 82 49 be e6 08 ce 3b 21 f0 8a bd
       6.912631e-05 -0.19678806 0.006287682 -0.06784082
000190 db 18 95 bb 3b 9a 3f 3d 4b f6 9c 3a f3 b3 12 bb
       -0.004550082 0.046777945 0.0011975256 -0.002238509
0001a0 07 7d 3b bb 95 25 9c 3b b3 fc 8e 3b 65 d0 9f bb
       -0.0028608458 0.0047652223 0.00436362 -0.0048771375
0001b0 47 3e b9 bb f5 60 c0 3d f1 4d 18 3b d6 2f b8 3b
       -0.005653176 0.09393493 0.0023239816 0.005620937
0001c0 41 5f 86 3e 51 28 9f bb 56 22 1e bb b6 25 47 bb
       0.26244548 -0.004857101 -0.0024129353 -0.0030387468
0001d0 5f cd 1b be 96 a4 c9 3a 14 55 83 be f4 9f c4 be
       -0.15215062 0.0015384133 -0.25650847 -0.38403285
0001e0 75 3a 35 bd a4 3f cc bd 02 6a a3 3c b0 dc 85 3b
       -0.044245202 -0.09973076 0.01994801 0.004085146
0001f0 e7 8c ce 3a 7b 87 5f 3d 84 6c 79 3a 8a 68 ab bd
       0.0015758545 0.054572564 0.0009514766 -0.083695486
000200 bd b1 4c 3b 84 6a 23 bb 2b a4 8f 3d 48 f5 f6 3b
       0.003123387 -0.0024935314 0.070137344 0.007536564
000210 60 2b 70 3a 9a 7e 91 3e a3 82 2a bf 5e 26 22 3b
       0.0009161737 0.28416902 -0.66605586 0.0024742107
000220 bc 68 11 3c c3 73 9f 3b b7 1b 81 3d ca 44 12 3c
       0.008875068 0.004866095 0.06304114 0.008927533
000230 ae a0 8a 3b 18 c2 bf 3d fe d6 21 be 9f 8c cc ba
       0.0042305803 0.09363192 -0.1580467 -0.0015605873
000240 88 b8 ff 39 52 fb bb 3b 6f f3 c5 ba b1 d1 ad bd
       0.00048774877 0.005736747 -0.0015102456 -0.08487261
000250 61 98 01 3c e1 b3 ea bd 41 5f 8a bd 26 aa 0d be
       0.007909865 -0.114600904 -0.067564495 -0.13834438
000260 2c 4b 9b 3a 7a 1e 5a bd 9c 02 fe b9 5f 9c ec 3b
       0.0011847964 -0.05325172 -0.000484486 0.0072207893
000270 49 04 bb bb 6e d3 b8 bc 2c e5 fa bd 14 58 87 3e
       -0.005707298 -0.022561755 -0.12250742 0.26434386
000280 0e 9a 14 b8 76 d2 65 3b 9e 82 15 bf 35 8f 12 3b
       -3.5429424e-05 0.0035068071 -0.5840243 0.002236319
000290 22 7d 09 3e 7a ce ca b9 42 74 a8 3d ed 2d fb 3c
       0.1342664 -0.0003868228 0.082252994 0.030661548
0002a0 b9 66 0c 3e 37 52 aa be d5 48 36 be 53 82 5d 3d
       0.1371106 -0.3326585 -0.1780122 0.054079365
0002b0 e4 ca 52 3e ee 55 e3 3b 20 c5 c3 bb f8 c9 b3 be
       0.20585209 0.006937734 -0.005974427 -0.35115027
0002c0 c1 a0 0a 3b 65 0f 40 bd bb 61 e9 ba f1 b3 49 bb
       0.0021152946 -0.04688968 -0.0017805615 -0.003077742
0002d0 2c a2 bd bc 13 0d 8e bd 29 5a 3e bf db af ba 3c
       -0.023148619 -0.069360875 -0.74356323 0.022788933
0002e0 f1 24 cf 3d f8 5b d7 ba 73 4e bb bd 0b 36 8f 3b
       0.10114468 -0.0016430607 -0.091458224 0.004370456
0002f0 5a 42 2f bc 15 10 61 bb 0e da b3 3b aa f1 99 bd
       -0.010696972 -0.003434186 0.0054886406 -0.07516797
000300 7a d2 ea ba 44 bd 16 bc eb b6 b7 3b e9 a3 c4 3a
       -0.001791551 -0.009200398 0.0056065223 0.0015002462
000310 d3 28 a6 ba bd 92 72 be b3 91 0e bb 34 be 89 bf
       -0.0012676961 -0.23688789 -0.0021754324 -1.076117
000320 85 6f 9b bb d7 28 43 3c e7 b1 d1 bb 21 13 a3 3b
       -0.004743519 0.011911592 -0.0063993814 0.0049766456
000330 d6 7b fa b9 94 08 9d 3b 9d bb 8d bb 4f ef b3 3b
       -0.0004777598 0.0047922824 -0.0043253438 0.0054911743
000340 2a 0f b1 39 50 63 24 bb ee 7a de bb ea e8 11 3c
       0.0003377137 -0.002508361 -0.0067895567 0.008905629
000350 2e 79 93 3c 3d 99 1f bb ba 13 ee bb 57 22 c1 37
       0.018002119 -0.0024352812 -0.007265535 2.3023384e-05
000360 cb 92 58 3c 60 6e bd b9 47 22 5d 3c a1 26 46 3d
       0.013218592 -0.00036131125 0.013496942 0.048376683
000370 74 1f 0a 3c 93 9a f2 3c 33 bf 89 3b 97 99 df 3b
       0.008430351 0.029614722 0.004203701 0.0068237293
000380 94 39 66 3c 58 93 ec 3a 86 c6 07 3c 87 14 cd b9
       0.014051814 0.0018049283 0.008287078 -0.0003911594
000390 f3 04 3b 3c 2a ae bc be 20 a6 0a 3d df e5 e3 b9
       0.011414754 -0.36851627 0.033849835 -0.0004346808
0003a0 62 32 40 3b 36 68 9d 3c 5b bb 87 bc b0 63 f9 3a
       0.0029326905 0.01921473 -0.01656883 0.0019026902
0003b0 67 2d c9 3c e1 ed a8 3b 21 4f 4a bb b0 fb e9 3a
       0.024557782 0.0051553105 -0.0030869918 0.0017851498
0003c0 a4 61 da ba 2a 7b 62 3a 0d 4c 0d 3c 69 da 49 bb
       -0.0016661179 0.00086395687 0.008624089 -0.0030800349
0003d0 37 8a 11 c0 d7 db bc 3a 89 db db bb 22 c8 92 bb
       -2.274061 0.0014408779 -0.0067095202 -0.004479424
0003e0 09 6f 05 3a ad 87 5d bc b5 d8 1b 3c 68 8b 6b 3e
       0.0005090093 -0.013521117 0.009512116 0.23002398
0003f0 7c c6 a2 bb d6 3d 6a 3a 4d 44 86 3b b4 68 0a bb
       -0.004967509 0.0008935606 0.0040974976 -0.0021119537

l4.bias f4 [10]
000000 6c 41 a5 3f 57 fd 14 3f 01 62 80 3f 0d 30 f6 3f
       1.291059 0.58199066 1.0029908 1.9233414
000010 67 80 04 3f e5 5f 6d 3f f0 6b 1d 3f 80 bd 11 3f
       0.51758426 0.9272445 0.61492825 0.5692978
000020 d9 9f 03 3f f2 7f ab 3f
       0.51415783 1.3398421

momentum_buffer f4 [250, 48]
000000 b8 8e 83 b7 ac a2 9c b7 90 07 36 b7 0b 28 c7 b6
       -1.5682876e-05 -1.86724e-05 -1.0849806e-05 -5.9353238e-06
000010 9c 8a 3e b8 78 e9 e3 b5 58 e8 c0 b6 81 4d 93 37
       -4.542862e-05 -1.6980766e-06 -5.7490943e-06 1.7559856e-05
000020 8a 71 e0 37 c0 d7 f5 b4 36 d4 99 35 da da e9 36
       2.6755752e-05 -4.5791785e-07 1.146115e-06 6.969419e-06
000030 d0 57 ae b6 5a a1 4c b7 07 7d 49 37 fd 7a eb 36
       -5.195827e-06 -1.2196915e-05 1.2009644e-05 7.0178635e-06
000040 98 23 74 b7 3e 3f 72 b7 53 26 03 b7 fb 5f 4f b6
       -1.4551821e-05 -1.4439049e-05 -7.8171315e-06 -3.0901272e-06
000050 48 47 1f b8 84 ca 9e b5 08 05 38 b6 7e 30 96 37
       -3.797494e-05 -1.1830857e-06 -2.7421065e-06 1.7903974e-05
000060 e7 1b be 37 c0 99 12 35 3b db 23 36 ee da d0 36
       2.2662758e-05 5.4612974e-07 2.4416502e-06 6.22437e-06
000070 6c 7c 34 b6 42 73 3b b7 f4 9d 5e 37 7b 9b f1 36
       -2.6894513e-06 -1.1172904e-05 1.32690075e-05 7.20046e-06
000080 80 16 9a b8 31 4b 8c b8 b6 cc 58 b8 0a 21 6e b8
       -7.347483e-05 -6.689726e-05 -5.1689065e-05 -5.6774392e-05
000090 54 da 6b b8 48 cd 93 b8 d0 ec a4 b8 32 9c 85 b8
       -5.62317e-05 -7.047743e-05 -7.864239e-05 -6.371028e-05
0000a0 66 ce 87 b8 4a 79 75 b8 9f 61 83 b8 a4 92 7f b8
       -6.475746e-05 -5.852551e-05 -6.26475e-05 -6.0933307e-05
0000b0 c0 36 86 b8 a7 b5 8c b8 48 e4 45 b8 52 20 8d b8
       -6.399816e-05 -6.7095556e-05 -4.7181064e-05 -6.729424e-05
0000c0 c2 87 87 b6 a0 2f ee 36 e4 f1 7a b6 c1 e3 1f 37
       -4.039118e-06 7.098497e-06 -3.7393702e-06 9.530167e-06
0000d0 a8 2a cd b5 76 cc b0 b7 a0 21 3c 36 22 26 c9 36
       -1.5286105e-06 -2.1076045e-05 2.8033755e-06 5.994706e-06
0000e0 be 76 3f b6 5f 22 a3 36 b4 86 de 36 de 3e 8a b6
       -2.8530335e-06 4.86178e-06 6.631797e-06 -4.120039e-06
0000f0 a0 a9 37 34 93 24 d9 36 60 26 f1 b5 70 ed f8 b4
       1.7104912e-07 6.4713618e-06 -1.7967068e-06 -4.6366358e-07
000100 8c f9 29 b6 92 a2 ca 36 9c 6d 9e b6 e5 b3 07 37
       -2.5328218e-06 6.038995e-06 -4.721527e-06 8.088512e-06
000110 18 9c ac b5 62 67 a5 b7 58 3d 15 36 da 32 a7 36
       -1.2860428e-06 -1.9717674e-05 2.2238437e-06 4.9829077e-06
000120 87 fd 25 b6 42 36 85 36 66 8e c2 36 59 2f 83 b6
       -2.4734488e-06 3.9700253e-06 5.798228e-06 -3.909616e-06
000130 40 5c 55 35 1f 83 ce 36 af 87 0f b6 58 54 bf b5
       7.9482925e-07 6.154543e-06 -2.1387639e-06 -1.4255156e-06
000140 c6 ad be b7 90 da bf b7 ed 1b 96 b7 32 a4 7c b7
       -2.2730685e-05 -2.287075e-05 -1.7894397e-05 -1.50586e-05
000150 56 08 a9 b7 5a df 6f b7 4a 36 5e b7 6a 27 9c b7
       -2.0150252e-05 -1.4297513e-05 -1.3244871e-05 -1.8615003e-05
000160 7f bc 8a b7 ab 80 87 b7 f6 9b 81 b7 af ba 83 b7
       -1.6538657e-05 -1.615317e-05 -1.5450623e-05 -1.5703348e-05
000170 1d 3b 95 b7 ab 4a 81 b7 ea 93 54 b7 14 4a 87 b7
       -1.7789711e-05 -1.5412768e-05 -1.2670624e-05 -1.612775e-05
000180 a5 85 4d b8 88 dd b4 36 7b 16 16 37 1d f9 5d 37
       -4.9000275e-05 5.3902077e-06 8.945931e-06 1.3230628e-05
000190 f0 16 3c 37 bd eb 70 b8 04 91 5e b7 29 3e 86 b7
       1.1211014e-05 -5.7440007e-05 -1.3265995e-05 -1.600299e-05
0001a0 c2 fa 91 b7 28 38 26 36 1a bc 6e 37 f2 54 03 36
       -1.7402115e-05 2.4768615e-06 1.4229701e-05 1.9569966e-06
0001b0 20 12 16 36 24 ce 16 37 7c 54 57 b7 a8 f8 20 b6
       2.2362292e-06 8.988693e-06 -1.2834669e-05 -2.3986595e-06
0001c0 1f 7b 32 b8 00 95 d1 35 18 c3 33 36 36 86 61 37
       -4.2553173e-05 1.5615078e-06 2.6786638e-06 1.34422935e-05
0001d0 70 76 04 37 a6 1c 6c b8 0a cb 46 b7 07 9e 6f b7
       7.895389e-06 -5.6293466e-05 -1.1848993e-05 -1.4282304e-05
0001e0 c2 1c 83 b7 80 da 60 35 86 62 59 37 52 9f 7f 36
       -1.5629808e-05 8.376446e-07 1.2957147e-05 3.8090698e-06
0001f0 48 7f 18 36 1e 93 f7 36 e4 12 4e b7 de 99 e4 b5
       2.2723852e-06 7.3783003e-06 -1.2282955e-05 -1.7032105e-06
000200 b1 95 45 38 b7 9d 45 38 42 df 42 38 b4 6c 7b 38
       4.710787e-05 4.7115343e-05 4.646113e-05 5.99443e-05
000210 19 aa 6a 38 5a a4 9d 38 21 8a a4 38 af e7 86 38
       5.5948363e-05 7.516956e-05 7.845858e-05 6.432772e-05
000220 af b8 6b 38 0d 3b 7c 38 20 0a 70 38 9d dd 71 38
       5.6200366e-05 6.0136477e-05 5.722989e-05 5.766527e-05
000230 f8 19 8a 38 c8 42 87 38 68 57 35 38 7d 38 81 38
       6.58519e-05 6.4497406e-05 4.3235166e-05 6.161721e-05
000240 28 fc 58 b4 f2 e5 49 b6 61 b9 80 b7 4c 26 1d b7
       -2.0208302e-07 -3.008518e-06 -1.5345113e-05 -9.366846e-06
000250 e6 2c c6 b8 6c 03 c3 37 c9 2a 14 38 ec 5c 07 b7
       -9.449739e-05 2.3247405e-05 3.5325796e-05 -8.068262e-06
000260 62 66 07 39 02 2b dd 38 08 a0 b9 38 55 b1 46 38
       0.00012912744 0.00010546112 8.8512956e-05 4.7372032e-05
000270 96 5f 94 b7 6a ba 30 36 1a c1 cd 37 24 ca 94 b7
       -1.7687486e-05 2.633455e-06 2.4527824e-05 -1.7737104e-05
000280 a0 f5 1b b5 04 59 0c b6 57 c7 81 b7 6e 7f f7 b6
       -5.809943e-07 -2.091344e-06 -1.5470823e-05 -7.3760084e-06
000290 50 52 a2 b8 b8 a9 d0 37 9e 58 0a 38 6a ce 18 b7
       -7.740094e-05 2.4874564e-05 3.2984295e-05 -9.1079655e-06
0002a0 9a 09 eb 38 c3 2a ce 38 bf 65 a6 38 1c 32 35 38
       0.00011207462 9.8308104e-05 7.9344485e-05 4.320043e-05
0002b0 8b 24 81 b7 2f ab 23 36 3e ba cf 37 28 d0 80 b7
       -1.5395015e-05 2.4388535e-06 2.4763049e-05 -1.535572e-05
0002c0 f8 13 cd 39 6c 82 cf 39 e6 d8 d1 39 01 47 d0 39
       0.00039115525 0.0003957929 0.00040025188 0.00039725754
0002d0 c8 60 d6 39 52 38 e5 39 39 2d d2 39 2a dd ce 39
       0.00040889368 0.00043720246 0.00040088015 0.00039456162
0002e0 2c 13 d6 39 f5 d0 de 39 aa 39 cf 39 f0 d1 d3 39
       0.00040831545 0.00042498825 0.0003952508 0.00040401472
0002f0 ac de d0 39 c8 5d d0 39 2c ab d2 39 a8 d5 d1 39
       0.00039838755 0.00039742724 0.00040181854 0.00040022773
000300 05 f3 2c 35 f4 c6 17 b6 ff 67 f4 b4 92 de 88 34
       6.4428633e-07 -2.261656e-06 -4.552421e-07 2.5493915e-07
000310 96 11 04 36 d0 26 5d 35 6e 7a 04 37 a0 9b 4f 34
       1.967977e-06 8.2385395e-07 7.8963185e-06 1.9334993e-07
000320 24 5a cc 36 38 87 52 b5 11 5f 02 37 ce e1 55 36
       6.0901675e-06 -7.8427865e-07 7.770738e-06 3.187091e-06
000330 22 e5 2e 36 80 34 ad b3 90 d0 09 b6 f5 61 b5 b6
       2.6061393e-06 -8.06549e-08 -2.053599e-06 -5.405624e-06
000340 58 f1 9c 34 7e 6f b2 b5 ab 97 07 b6 c3 92 46 35
       2.9232865e-07 -1.3294482e-06 -2.020485e-06 7.3974314e-07
000350 ce ad d0 35 78 85 c7 35 a0 ca fe 36 a9 8c 0b 35
       1.5547791e-06 1.48655e-06 7.5933785e-06 5.198622e-07
000360 18 8b 55 36 80 60 d0 33 64 ce 06 37 a4 d3 67 36
       3.1820437e-06 9.703308e-08 8.0350765e-06 3.4544873e-06
000370 8d d6 10 36 b6 5b 3c 36 4f 3d a8 b5 25 25 d6 b5
       2.1582557e-06 2.8067566e-06 -1.2534819e-06 -1.5955053e-06
000380 17 67 18 37 a1 b3 16 37 34 37 14 37 77 d5 1f 37
       9.0839085e-06 8.98252e-06 8.83434e-06 9.52684e-06
000390 18 31 33 37 da 34 28 37 9a 3f 0c 37 0e 03 fd 36
       1.0680662e-05 1.0025886e-05 8.359459e-06 7.540343e-06
0003a0 22 a0 c5 36 a9 1e 1b 37 86 e6 02 37 cb 89 13 37
       5.8896994e-06 9.245859e-06 7.802277e-06 8.793965e-06
0003b0 9e 11 0f 37 6c 9e 38 37 ec 7c 2e 37 a2 29 13 37
       8.527566e-06 1.100414e-05 1.0400294e-05 8.771576e-06
0003c0 f0 0b fa b4 32 74 0f 36 e4 ee 44 34 96 3c 9e b5
       -4.6574814e-07 2.1376295e-06 1.834083e-07 -1.178955e-06
0003d0 fe 8d 74 35 cf 00 10 36 54 68 88 b5 9f d8 14 36
       9.110371e-07 2.1458143e-06 -1.0163153e-06 2.2179809e-06
0003e0 7c f5 73 b6 cb f3 cc b5 92 84 ef b5 f8 77 67 35
       -3.6352712e-06 -1.5270138e-06 -1.7845471e-06 8.6228783e-07
0003f0 e4 4b 12 b6 67 19 cd 35 a4 cf 63 35 de 41 0e 35
       -2.179987e-06 1.5281083e-06 8.4866247e-07 5.299497e-07
