motion_planning/NN_model/models/model_new_01_N5_para.npz (npz, 1182 bytes, 3 tensors)

loss_weight f8 [3]
0	0x3fb999999999999a	0.1
1	0x4008000000000000	3.0
2	0x4000000000000000	2.0

add_lr f8 [3]
0	0x3ff0000000000000	1.0
1	0x3f1a36e2eb1c432d	0.0001
2	0x40f62b0000000000	90800.0

dis_scale f4 [2, 10]
0	0xbbdac72f	-0.0066765766
1	0xbc0240e8	-0.007950045
2	0xbbeee7e8	-0.007290829
3	0xbd143f0c	-0.03619294
4	0xbd437bee	-0.04772561
5	0xbcec814b	-0.028870245
6	0xbd15a5d0	-0.036535084
7	0xbd443b72	-0.047908254
8	0xbd033f1f	-0.03204262
9	0xbceec2b1	-0.02914557
10	0x3d844c65	0.064598836
11	0x3d845490	0.064614415
12	0x3d844e49	0.06460244
13	0x3ca31882	0.019909147
14	0x3c88ad8b	0.016684314
15	0x3d769672	0.06020207
16	0x3d2b899b	0.041879278
17	0x3c88af2c	0.016685091
18	0x3d3035eb	0.04302017
19	0x3d6c402e	0.057678394
