motion_planning/NN_model/models/model_03.pt (torch, 420530 bytes, 16 tensors)

l1.weight f4 [250, 48]
0	0x3db87981	0.0900755
1	0x3c69801a	0.014251733
2	0x3db6c076	0.08923428
3	0x3c903fe2	0.017608587
4	0x3c22a062	0.009925934
5	0x3b74e05d	0.0037365176
6	0x3ba94754	0.0051659737
7	0xbb20bb42	-0.0024525677
8	0x3be7e01b	0.007076276
9	0x3c28ee01	0.010310651
10	0xbb554675	-0.0032543216
11	0x3a5c09a3	0.000839377
12	0x3cb0f3ba	0.021600593
13	0xbd9ba07f	-0.075989716
14	0xbd8655b6	-0.06559317
15	0x3cb758ea	0.022381265
16	0x3d4d6d75	0.050153214
17	0xbd223da3	-0.039609563
18	0x3c8f917a	0.017525423
19	0x3da67eca	0.08129652
20	0x3b91a207	0.004444364
21	0x3c4e3ee3	0.012588236
22	0x3a2939c6	0.00064554473
23	0xbb0f7363	-0.0021888844
24	0x3ba0e93d	0.0049106167
25	0x3bbbcab6	0.005730952
26	0x3be36a62	0.006940172
27	0x3c140279	0.009033793
28	0x3bf3f12b	0.007444521
29	0xbd41b99d	-0.047296155
30	0xbd337d6d	-0.043820787
31	0xbb54c4b4	-0.0032465877
32	0xbc2883af	-0.010285302
33	0xbce19908	-0.027538791
34	0xbdaaf374	-0.08347216
35	0x3d00b045	0.031418104
36	0x3b7cb9fe	0.0038563008
37	0x3bb8c97b	0.0056392527
38	0xbb1774f7	-0.0023110488
39	0x3a531249	0.0008051736
40	0x3c1a0a31	0.009401844
41	0xbb3491ce	-0.0027552727
42	0x3c03554a	0.00801594
43	0x3c12e1cc	0.008964967
44	0xbbe52353	-0.0069927364
45	0x3c32a017	0.010902426
46	0x3d29fd0e	0.041501097
47	0xbd178ae6	-0.0369977
48	0x3b2ac91f	0.002605982
49	0x3d989c4c	0.07451686
50	0xbcfbf5dc	-0.030756883
51	0xbc62d3e8	-0.013844468
52	0x3e166e30	0.1469047
53	0xbe37a295	-0.17933114
54	0xbdfadfc5	-0.12249712
55	0x3ca666e7	0.02031274
56	0x3b639e98	0.003473198
57	0x3b25d8a7	0.0025306137
58	0xbbb4f89a	-0.0055227997
59	0xb9153c29	-0.00014232159
60	0xbb034485	-0.0020029854
61	0xbb87fcd2	-0.0041500116
62	0xbae9f2ef	-0.0017848889
63	0x3ad8ace1	0.0016531014
64	0xbb484fe6	-0.0030565201
65	0x3c79c437	0.015244535
66	0xbc9424f3	-0.018084025
67	0xbca95bfc	-0.020673744
68	0x3d97a353	0.074041985
69	0xbe04e02e	-0.12976143
70	0xbd726ca9	-0.059185658
71	0xbd173f16	-0.036925398
72	0x3b2b8d7f	0.0026176868
73	0x3c30dcf4	0.010794867
74	0x3b4a1a90	0.0030838586
75	0x3c446e23	0.011989149
76	0x3bd8d926	0.006617683
77	0x3bbefc4d	0.0058284164
78	0x3b911c4c	0.004428422
79	0x3a515fb6	0.00079869793
80	0x3c991010	0.018684417
81	0xbd908b22	-0.070577875
82	0x3dad656c	0.0846661
83	0xbbe25e1b	-0.006908191
84	0xbcda3e1d	-0.026640946
85	0x3dd648bf	0.10463094
86	0x3d014840	0.031563044
87	0xbd345a4a	-0.04403142
88	0xbb9780fa	-0.0046235295
89	0x3c9225f7	0.017840369
90	0x3c3031a6	0.010754025
91	0x3c9bd749	0.019023554
92	0x3c0ddb3d	0.0086582275
93	0x3bcc50ed	0.006235233
94	0xba859f19	-0.001019451
95	0x3be98493	0.0071264
96	0xbab580d3	-0.0013847597
97	0x3b45ac42	0.0030162488
98	0x3b2ba298	0.0026189443
99	0xbb9e8973	-0.0048381626
100	0xbc078c26	-0.00827316
101	0x3b836c27	0.0040106955
102	0xba15a581	-0.0005708561
103	0xbba9688d	-0.005169934
104	0xbd38e967	-0.045144465
105	0x3e6ba20a	0.23011032
106	0x3eb1ea9d	0.34749308
107	0x3e205f40	0.15661335
108	0xbb1f6540	-0.0024321824
109	0x3aaedcbc	0.001334093
110	0xba0d1e3a	-0.0005383227
111	0x37af468d	2.0894478e-05
112	0x397cbba2	0.00024102491
113	0xbc3c95f8	-0.011510365
114	0x3a859470	0.0010191333
115	0xbb29975d	-0.0025877573
116	0xbbaafa5f	-0.005217835
117	0xbb2ac65e	-0.0026058177
118	0xbc174ce2	-0.009234639
119	0xbaff5bd4	-0.0019482323
120	0xbce442dd	-0.027863914
121	0xbd3f24c1	-0.04666591
122	0x3d0c6708	0.034277946
123	0x3e76babe	0.24094674
124	0x3a8bb152	0.0010657704
125	0xbbd5ed52	-0.006528535
126	0xbb6f459a	-0.0036509992
127	0xbb2c5a07	-0.0026298778
128	0xbc0673f3	-0.008206355
129	0xbc6fac47	-0.014628476
130	0xbb9631f0	-0.0045835897
131	0xbb275823	-0.0025534711
132	0x3b8c5c2d	0.004283449
133	0xbc1f4fd4	-0.009723622
134	0xbc1a47f6	-0.009416571
135	0xba874649	-0.0010320629
136	0xbd86ae8d	-0.06576262
137	0xbdca1d96	-0.09868924
138	0xbeb6d938	-0.357126
139	0xbd5ae076	-0.05343672
140	0x3b24220c	0.0025044708
141	0xbb63ceba	-0.003476067
142	0xb9bde32d	-0.00036218148
143	0xbc09dda1	-0.008414657
144	0x3cded189	0.027199524
145	0xbe14e8ff	-0.14542006
146	0xbd62b6e4	-0.0553502
147	0xbd159f27	-0.036528733
148	0x3d129973	0.03579087
149	0x3e1c2b16	0.15250811
150	0x3ba7cc6b	0.005120804
151	0x3b821fe6	0.0039710877
152	0x38f55ac1	0.000116994146
153	0x3b683f6f	0.00354382
154	0x39bce709	0.0003603029
155	0xbbee0d01	-0.007264734
156	0xbb4cf5b0	-0.003127437
157	0x3a171bfa	0.00057643617
158	0xbac676e9	-0.0015141639
159	0xbb56b659	-0.0032762496
160	0x3c3d1b59	0.011542165
161	0xbe19990b	-0.14999788
162	0x3db61845	0.08891348
163	0xbcba7b7b	-0.022763958
164	0x3c968574	0.018374182
165	0x3bfef172	0.0077802474
166	0x3cca57c1	0.024700047
167	0xbb020547	-0.0019839571
168	0x3a73984f	0.000929241
169	0xbb20a4cb	-0.0024512287
170	0xbc016e8e	-0.007899893
171	0x3c0c47e3	0.008562061
172	0xbc711b5c	-0.014715996
173	0xbbaf40ac	-0.0053482857
174	0x3a908e72	0.001102878
175	0xbc476793	-0.01217069
176	0xbccc5979	-0.024945008
177	0x3bc19a51	0.0059082885
178	0x3df8c629	0.12147171
179	0x3d3430e5	0.043991942
180	0xbd3b73b4	-0.04576464
181	0xbe304e52	-0.17217377
182	0x3d4dd714	0.050253943
183	0x3b445137	0.0029955634
184	0xbbd94aaf	-0.0066312174
185	0xbbb1f2ae	-0.005430541
186	0xbbe73af5	-0.007056589
187	0x3b1f8eea	0.0024346658
188	0xbc18aab3	-0.009318042
189	0xbc007079	-0.007839316
190	0xb9c1cf8e	-0.0003696647
191	0xbc63bcde	-0.01390001
192	0xbb0dff36	-0.002166701
193	0xba5bb38c	-0.00083809416
194	0x3b4f8624	0.0031665647
195	0x3a36bc04	0.00069707655
196	0x3df27c0d	0.11840067
197	0x3d6d3c48	0.057918817
198	0x3db36d88	0.08761126
199	0x3bbbb7cc	0.0057286974
200	0x3d9f12fa	0.07767291
201	0xbdfc04fd	-0.12305639
202	0x3e3bb3b2	0.18330267
203	0x3e04e3ca	0.1297752
204	0x3a8ba7e4	0.0010654894
205	0xbbe8fcba	-0.0071102055
206	0x3adf97eb	0.0017058825
207	0xbb91cfb5	-0.0044498094
208	0x39274616	0.0001595247
209	0xbbcf6a57	-0.0063298154
210	0x3a6561f3	0.00087502523
211	0xbb8de451	-0.004330196
212	0x3d78de57	0.060758915
213	0x3d0f22df	0.034945365
214	0x3e2034f7	0.15645204
215	0xbc2377b6	-0.009977272
216	0x3d48d57a	0.049031712
217	0xbdc638cb	-0.09678801
218	0x3d7fdba6	0.062465332
219	0x3d956d25	0.07296208
220	0xbc1db5b6	-0.009625843
221	0xbc1c304b	-0.009532998
222	0xbcac90e7	-0.021065189
223	0xbbfe66bf	-0.007763713
224	0xbcbfb735	-0.02340279
225	0xbc00e032	-0.007865952
226	0x3bc54efc	0.0060213786
227	0xbc0722b2	-0.008248018
228	0x3d11c2e3	0.03558625
229	0xbd5b9acd	-0.053614426
230	0x3d7bfdac	0.061521217
231	0xbba6a3f3	-0.0050854622
232	0xbca95e1c	-0.020674758
233	0x3d348df2	0.044080682
234	0xbe36be5e	-0.17846057
235	0xbdd9b4f4	-0.10630217
236	0xbc160913	-0.009157437
237	0xbc81f4ec	-0.015863858
238	0xbca60505	-0.020266065
239	0xbb8b39a3	-0.004248814
240	0xbe0b4518	-0.13600576
241	0xbd4af086	-0.049545787
242	0xbc4dffc8	-0.01257319
243	0x3b9b51fe	0.004739999
244	0xba385330	-0.0007031439
245	0xbbb1a6d0	-0.005421497
246	0xb9f26196	-0.00046230544
247	0x3af65a01	0.0018795134
248	0x3de16c40	0.11006975
249	0xbbba8fa5	-0.0056933933
250	0xbc442077	-0.011970631
251	0xb96d03d4	-0.00022603507
252	0x3ae1ebc0	0.0017236397
253	0xbbe6bf9e	-0.0070418855
254	0x3b6843b1	0.0035440738
255	0xba71d6fe	-0.0009225457

l1.bias f4 [250]
0	0xbd4329a0	-0.04764712
1	0x3addb35d	0.0016914416
2	0xbe326396	-0.17420802
3	0xbe5614f3	-0.20906429
4	0xbe3f7b55	-0.18699391
5	0xbda435fe	-0.08018111
6	0x3c4da4d6	0.012551507
7	0xbded1314	-0.115759045
8	0xbced2856	-0.028949898
9	0x3c455a64	0.012045477
10	0xbe001580	-0.12508202
11	0xbe17cf71	-0.14825226
12	0x3d0a5c06	0.033779167
13	0xbc39ea65	-0.011347388
14	0xbd66e38c	-0.05636935
15	0xbeb1279e	-0.34600538
16	0xbb99423d	-0.0046770857
17	0xbca53f42	-0.020171765
18	0xbd21d3f3	-0.03950877
19	0x3e5c4313	0.21509962
20	0x3e8c5cb3	0.27414474
21	0xbd259c44	-0.04043223
22	0x3d3c3590	0.04594952
23	0xbda05cd3	-0.07830205
24	0xbe2ba167	-0.16760789
25	0x3e03af72	0.12859896
26	0x39e03045	0.00042760573
27	0xbce6fc11	-0.028196367
28	0xbe175b9b	-0.14781038
29	0xbd50413c	-0.050843462
30	0xbdc74640	-0.09730196
31	0x3c9b672b	0.018970093
32	0xbdced3cc	-0.10098991
33	0x3ca3cc40	0.019994855
34	0x3c4af91e	0.012388496
35	0xbb141f67	-0.0022601725
36	0xbd033734	-0.032035068
37	0xbdc6949d	-0.096963145
38	0xbe14e1ea	-0.14539304
39	0x3da21c1a	0.07915516
40	0x3cd85558	0.026407883
41	0x3e464fc0	0.1936636
42	0x3eb6c22e	0.35695022
43	0xbd16e140	-0.03683591
44	0xbcb11de1	-0.021620693
45	0xbe218b73	-0.15775852
46	0x3e165d2c	0.1468398
47	0x3c2c7a20	0.010527164
48	0xbd1b382a	-0.03789536
49	0xbd90778a	-0.0705405
50	0x3dcddc44	0.10051778
51	0x3d9580cf	0.07299959
52	0xbc2f178d	-0.010686767
53	0xbdc024df	-0.093820326
54	0xbd853395	-0.06503979
55	0xbdd4a0a5	-0.10382203
56	0xbd90c04f	-0.0706793
57	0xbd4d4e39	-0.050123427
58	0x3b60de41	0.003431216
59	0x3dafd220	0.08585
60	0xbcd20637	-0.02563773
61	0xbc3067d6	-0.010766944
62	0xbdf0243d	-0.11725662
63	0xbd22062e	-0.039556675
64	0x3e2e1508	0.1700021
65	0x3e0f345c	0.13984817
66	0xbe32a064	-0.17443997
67	0xbd51c150	-0.051209748
68	0x3defd48c	0.11710462
69	0xbdbfb365	-0.09360389
70	0x3db4aa56	0.088215515
71	0x3e83af09	0.2571948
72	0xbd563302	-0.05229474
73	0xbe079297	-0.13239513
74	0xbd9def8f	-0.07711708
75	0x3e8c47de	0.2739858
76	0xbdc02664	-0.093823224
77	0x3da77eb8	0.081784666
78	0xbe45e2ef	-0.1932485
79	0x3dfbdb96	0.12297742
80	0x3dae0cd6	0.08498542
81	0x3c1eec5c	0.009699907
82	0x3d809351	0.062780984
83	0x3db70e14	0.08938232
84	0x3e575eae	0.21032211
85	0xbd84d4d8	-0.06485909
86	0xbd3a305e	-0.045456283
87	0x3dbbcc0a	0.09169777
88	0xbd896335	-0.06708375
89	0xbda0fa27	-0.07860213
90	0xbd625515	-0.05525692
91	0xbe8ab456	-0.2709071
92	0xbba5074d	-0.0050362707
93	0x3e000d27	0.12505017
94	0x3cdec9ab	0.027195772
95	0x3d1cd922	0.03829301
96	0xbd217ae0	-0.039423823
97	0xbcc56b1c	-0.024098925
98	0xbcc1d607	-0.023661627
99	0xbe01b8d9	-0.1266817
100	0xbdfa3d6e	-0.12218748
101	0xbe8bd115	-0.27307954
102	0xbcda1eb7	-0.026625974
103	0xbb42d1c2	-0.0029727076
104	0xbe361c68	-0.17784274
105	0x3d3d6537	0.046239104
106	0xbd92377d	-0.0713949
107	0xbd96bfd2	-0.073608056
108	0xb7f79ade	-2.951681e-05
109	0xbd7edfa1	-0.062224988
110	0x3d18579b	0.037192922
111	0xbbe629ef	-0.007024042
112	0xbc20963f	-0.009801446
113	0x3d8ee853	0.06977906
114	0x3d9ff05a	0.07809515
115	0x3d7ec565	0.06219997
116	0x3d9df86b	0.077133976
117	0xbdb71383	-0.089392684
118	0x3e1c56c3	0.15267472
119	0x3dc884e1	0.0979097
120	0x3d923d8f	0.071406476
121	0x3d020fbd	0.03175329
122	0x3e9b9cc8	0.30393052
123	0x3e218473	0.15773182
124	0x3e79dc95	0.24400552
125	0x3cea560f	0.028605489
126	0xbe638d85	-0.22221954
127	0x3d707cb7	0.058712687
128	0xbe68893d	-0.22708602
129	0xbe45c5fc	-0.19313806
130	0xbde90e03	-0.11379626
131	0x3df9b72a	0.12193139
132	0xbd12027b	-0.035646897
133	0x3e053026	0.13006648
134	0xbd9a450f	-0.07532703
135	0x3b797e92	0.0038069827
136	0xbd978d59	-0.07400007
137	0xbd101efc	-0.0351858
138	0xbe0bb290	-0.13642335
139	0xbdc52658	-0.09626454
140	0xbd576467	-0.052585986
141	0xbb107863	-0.0022044412
142	0xbe2ceb67	-0.16886674
143	0x3e22db8e	0.15904066
144	0xbdff5af1	-0.124685176
145	0xbe2f6c40	-0.17131138
146	0xbdbe4ea8	-0.09292346
147	0x3d602bbc	0.05472921
148	0xbcd1a31e	-0.025590476
149	0xbd8aa4b9	-0.067696996
150	0x3cb0d471	0.021585675
151	0xbe83bd85	-0.2573053
152	0xbd3768c5	-0.04477765
153	0x3930ad1f	0.0001684916
154	0xbdb82570	-0.08991516
155	0x3bacc72e	0.0052727675
156	0x3d25ef77	0.040511575
157	0x3c24abba	0.010050708
158	0x3d9881bb	0.07446619
159	0x3de6e54d	0.112742044
160	0xbcc4db9a	-0.024030495
161	0x3d9600e5	0.07324389
162	0xbc3818dd	-0.011236397
163	0x3da9d47c	0.08292481
164	0xbcb87c7b	-0.022520294
165	0xbd5e7192	-0.054307528
166	0xbde7fc44	-0.11327413
167	0x3dc45206	0.09585957
168	0x3d47a6bd	0.048743
169	0xbe07b192	-0.13251331
170	0xbd641d5a	-0.055692054
171	0x3e32ac2d	0.17448492
172	0xbc79d935	-0.01524954
173	0x3d6eea58	0.058328956
174	0xbc803de1	-0.015654506
175	0x3d0f64b3	0.035008144
176	0x3e4265a7	0.1898409
177	0xbdd8c2a4	-0.10584
178	0x3e6218cf	0.22079776
179	0xbcdbf185	-0.026848564
180	0xbb8b8e28	-0.0042588897
181	0xbde10d88	-0.10988909
182	0x3ec12e04	0.3773042
183	0xbd09f6fb	-0.033682805
184	0xbd23981a	-0.039939977
185	0xbd946394	-0.072455555
186	0x3c946326	0.018113684
187	0x3e29815b	0.16553251
188	0xbd9d2776	-0.07673542
189	0x3c5a89cd	0.013338518
190	0xbd8b933d	-0.06815193
191	0x3c5259e5	0.012838815
192	0xbdf63a44	-0.12022832
193	0xbd5c741b	-0.053821664
194	0xbcffc7f0	-0.031223267
195	0x3dcd621d	0.10028479
196	0x3ddee468	0.10883409
197	0x3e323e78	0.17406642
198	0xbda19bcf	-0.07891046
199	0x3e93b5a8	0.2884953
200	0xbdfa2360	-0.122137785
201	0x3dce014f	0.10058843
202	0xbe801dc0	-0.25022697
203	0x3d613891	0.054985587
204	0xbdce8e96	-0.1008579
205	0xbdba18dd	-0.090867735
206	0xbd20273d	-0.03909992
207	0xbe08b2a6	-0.13349399
208	0x3e0173a1	0.12641765
209	0x3d6e4bf9	0.058177922
210	0x3df65011	0.1202699
211	0xbdbd98fa	-0.092576936
212	0xbccc42af	-0.024934141
213	0xbd4b3d13	-0.04961879
214	0x3cb8d610	0.02256301
215	0x3ca452d4	0.020059027
216	0x3d547dd1	0.0518778
217	0x3e108884	0.14114577
218	0xbce998b7	-0.028515203
219	0x3da5ae5c	0.08089897
220	0x3e09ecf2	0.13469294
221	0xbc510ec7	-0.012759871
222	0xb8fe25f5	-0.00012118734
223	0xbe64432f	-0.22291254
224	0x3d701f2d	0.05862348
225	0xbd729700	-0.059226036
226	0xbd616c32	-0.055034824
227	0x3d358054	0.044311836
228	0x3d104523	0.035222184
229	0x3dadda19	0.084888645
230	0x3e462f35	0.19353946
231	0xbd97f79d	-0.07420275
232	0xbd213b88	-0.039363414
233	0x3d1144eb	0.035466116
234	0x3dd3cc4a	0.103416994
235	0x3db83470	0.08994377
236	0xbbc9ba1c	-0.006156219
237	0x3b43e794	0.002989267
238	0xbe1ae54d	-0.15126534
239	0xbbe4e551	-0.0069853445
240	0xbcd7aac1	-0.026326539
241	0x3d24d04d	0.040237714
242	0x3dc0464d	0.09388409
243	0xbc86556b	-0.016398152
244	0x3dd4ec0f	0.10396587
245	0x3bfc90fa	0.0077077122
246	0xbbe2995e	-0.0069152554
247	0xbbe01dc3	-0.0068394854
248	0xbb892ec1	-0.0041864817
249	0x3d955d9a	0.07293244

l2.weight f4 [130, 250]
0	0xb8f51466	-0.0001168631
1	0xb8530d97	-5.0318977e-05
2	0x385d308f	5.273573e-05
3	0xb9bbd500	-0.00035826117
4	0x38bcbd6c	8.999821e-05
5	0xb9b64b1e	-0.00034769712
6	0xba27d438	-0.00064021675
7	0xb7371889	-1.09133625e-05
8	0xb906cfd8	-0.00012856664
9	0xb9c9af11	-0.00038468142
10	0x39cb8187	0.00038815683
11	0xb9804a0b	-0.0002446923
12	0xb73f73ee	-1.1411479e-05
13	0x39804694	0.00024466647
14	0x3961eee7	0.0002154667
15	0x38338a2a	4.28056e-05
16	0xb9fe7ab3	-0.00048538073
17	0x3923af1e	0.00015610128
18	0xb93e9bf0	-0.00018177903
19	0xb90dc4d4	-0.00013520132
20	0xb9b63f95	-0.00034761117
21	0xb9839e11	-0.00025104036
22	0xba0728ec	-0.0005155939
23	0xb99f7088	-0.00030410686
24	0x389f9199	7.6088305e-05
25	0x39a15e17	0.00030778415
26	0xb515c601	-5.579496e-07
27	0x39ac6bb3	0.0003288664
28	0xba125bf0	-0.0005583158
29	0x38fc0e73	0.00012018988
30	0x37a4b0ea	1.9632706e-05
31	0x3959ddb6	0.00020777326
32	0xb938da4f	-0.00017628934
33	0xb931f6a6	-0.00016971919
34	0xb89489d1	-7.08286e-05
35	0xba21269e	-0.0006147417
36	0x37affd43	2.097956e-05
37	0xb7cd8669	-2.4500494e-05
38	0xb986e8bb	-0.0002573187
39	0xb7dd0f66	-2.6352423e-05
40	0xba05374a	-0.0005081786
41	0xb9eebc17	-0.00045535035
42	0xb78f03f1	-1.7048764e-05
43	0x387691e4	5.878684e-05
44	0xb9c86723	-0.00038223815
45	0xba0ef976	-0.00054540427
46	0xb983f885	-0.0002517143
47	0x38249507	3.923944e-05
48	0xb975966a	-0.00023421054
49	0x3797da54	1.810227e-05
50	0x38b4c707	8.6201406e-05
51	0xb9d728f5	-0.0004103851
52	0x37c2fd36	2.3244513e-05
53	0xb8542f4b	-5.0588784e-05
54	0x3948eded	0.0001916212
55	0xb9ceadcc	-0.0003942087
56	0x38382942	4.3907443e-05
57	0xba11f368	-0.00055675814
58	0x3960161d	0.00021370543
59	0x39cb0159	0.0003872018
60	0xb8db17b8	-0.00010447152
61	0xb74d8402	-1.2249688e-05
62	0xb7a2b36d	-1.9395457e-05
63	0xb9b1c102	-0.00033903873
64	0xba1e8993	-0.0006047722
65	0xb9e3fee9	-0.00043486737
66	0xb9e21465	-0.00043121274
67	0x3966096b	0.00021938018
68	0xb864c7f2	-5.454565e-05
69	0xb95b2c5e	-0.00020901996
70	0x3792b46d	1.7488574e-05
71	0xba1cd9d4	-0.00059833867
72	0x39ca4c7e	0.00038585434
73	0x39263efa	0.00015854454
74	0x38bcb6b4	8.99857e-05
75	0xba18f803	-0.00058352965
76	0xb9417baa	-0.00018451983
77	0xba2d4d61	-0.00066109566
78	0xb8bdb5cf	-9.046087e-05
79	0x39456060	0.00018823287
80	0x391d2fda	0.00014990513
81	0xb91cbd07	-0.00014947738
82	0xb8aa56e7	-8.1224185e-05
83	0x39b48130	0.00034428528
84	0x39be771d	0.0003632837
85	0xb99c33cd	-0.00029793233
86	0x39005a9a	0.00012240783
87	0x3989bb64	0.00026270293
88	0xb9fedb5d	-0.00048610094
89	0x39c1efec	0.00036990584
90	0xb9df8e70	-0.0004264
91	0xb9bf7251	-0.0003651553
92	0xb8870556	-6.4382955e-05
93	0xb977208a	-0.00023567877
94	0xb9db27d8	-0.0004180062
95	0x390020ae	0.00012219205
96	0x3849415c	4.7983005e-05
97	0xba44779e	-0.0007494631
98	0xb933ac52	-0.00017134965
99	0xb9a27f5e	-0.00030993944
100	0xb9814172	-0.00024653558
101	0x397b306c	0.00023955264
102	0x399bd7ff	0.00029724833
103	0x38e96df4	0.00011130786
104	0xb9939d07	-0.0002815502
105	0xb872a4fe	-5.7850957e-05
106	0xb92ad2b9	-0.00016290964
107	0x39b881b9	0.00035191866
108	0xb9d9de27	-0.00041554982
109	0xb931d7db	-0.00016960448
110	0xb8d75a2c	-0.00010268795
111	0x37b7e7f3	2.192331e-05
112	0xb71504e3	-8.88223e-06
113	0xb9b39c5f	-0.00034258046
114	0xb9875c03	-0.0002581776
115	0x3905f176	0.0001277382
116	0x36db6068	6.5379318e-06
117	0xb897fc24	-7.247206e-05
118	0xb9598f57	-0.00020748131
119	0xb9fee774	-0.000486191
120	0xb9a14f70	-0.00030767499
121	0xba4beaa7	-0.00077788014
122	0xb993c315	-0.00028183372
123	0xb9b79f6f	-0.00035023267
124	0x387ccd02	6.027241e-05
125	0xb9fafc0e	-0.0004787151
126	0xb876b672	-5.8820886e-05
127	0xb629805e	-2.5257682e-06
128	0xb9224fc0	-0.00015479233
129	0xb992e815	-0.00028020205
130	0x3706cdd3	8.034945e-06
131	0x39042ce8	0.0001260523
132	0xb9967069	-0.00028693982
133	0xb950187b	-0.00019845545
134	0xb7d483b8	-2.5333706e-05
135	0xb9d9c997	-0.00041539661
136	0xb993e1d8	-0.00028206292
137	0xba39d7d0	-0.00070893485
138	0xb99e6f5f	-0.00030219086
139	0xb9ac600e	-0.00032877963
140	0xb7ef51d1	-2.8529119e-05
141	0xba064ad6	-0.0005122846
142	0xb9a0a317	-0.0003063909
143	0x39030072	0.000124933
144	0xb8c22061	-9.256672e-05
145	0x3806eac9	3.216675e-05
146	0xb91b7241	-0.00014824515
147	0x37242fd9	9.786302e-06
148	0xb9b6fb28	-0.0003490087
149	0x37c056bb	2.292857e-05
150	0xb9a1be6a	-0.00030850183
151	0xb9ae1e90	-0.00033210637
152	0xb9c159d4	-0.00036878756
153	0xb9b2c2cb	-0.00034095938
154	0xb9792b2e	-0.00023762576
155	0xba04afe4	-0.000506161
156	0xb934e4c6	-0.00017251362
157	0xba10dffd	-0.0005526541
158	0xb9b7ed0e	-0.000350811
159	0xb9380cd8	-0.00017552392
160	0xb9b4003e	-0.00034332456
161	0xba388127	-0.0007038288
162	0xb837ad76	-4.3792148e-05
163	0xb93a8e99	-0.00017791464
164	0x39a1996a	0.00030822615
165	0x395b871a	0.00020935797
166	0x38ef0b09	0.000113984635
167	0xb9a6beb4	-0.00031804072
168	0xb4c4caea	-3.6655484e-07
169	0xb997d9c1	-0.00028963204
170	0xb9961b24	-0.0002863045
171	0xb7d9f6f3	-2.598341e-05
172	0x387925e7	5.9401526e-05
173	0xb99c9c66	-0.00029871165
174	0x38a3c955	7.809947e-05
175	0xb91667c7	-0.00014343775
176	0xba02a2fd	-0.00049833936
177	0xb9d7dd7c	-0.00041173014
178	0x37eae80d	2.800303e-05
179	0x38c14031	9.214914e-05
180	0x39551c3c	0.00020323781
181	0x396f40a2	0.00022816894
182	0xb9f7a336	-0.00047233113
183	0x394339b7	0.0001861815
184	0xb91b7e2e	-0.00014828958
185	0xb9ef5f73	-0.00045656748
186	0xb8bedb39	-9.1007394e-05
187	0xb9447ba4	-0.00018738076
188	0x38855d9d	6.359371e-05
189	0x38a16ea5	7.6976874e-05
190	0xba42ac05	-0.00074261456
191	0xba3ea6a1	-0.00072727544
192	0xb8a0d181	-7.668418e-05
193	0xba0ac119	-0.0005293056
194	0xb98db2bc	-0.00027026783
195	0xb90f0891	-0.00013640734
196	0x392bdf7b	0.00016391084
197	0x390705dd	0.00012876788
198	0x391b16ff	0.00014790519
199	0xb968731f	-0.0002216813
200	0x393ed7e4	0.00018200238
201	0xb9f02010	-0.00045800256
202	0x38f2b763	0.00011573618
203	0x3931e5f4	0.000169657
204	0x3989cf5b	0.00026285168
205	0xba5f7838	-0.0008524689
206	0xb9c6a43a	-0.0003788786
207	0xba042388	-0.0005040695
208	0xb90ce2e2	-0.00013435961
209	0xb9996ca4	-0.00029263378
210	0x39366c71	0.0001739727
211	0xba308fef	-0.0006735315
212	0xb8b6d689	-8.7183966e-05
213	0x398ef122	0.00027264009
214	0xb9017528	-0.00012346043
215	0xba1cc3a6	-0.00059800816
216	0x391a8807	0.00014737259
217	0xb888565a	-6.5010696e-05
218	0x3688e31f	4.079556e-06
219	0xb93c1ad4	-0.00017939071
220	0xb6d4cb19	-6.341736e-06
221	0xba1ae868	-0.0005909265
222	0xb9bac0ac	-0.00035620236
223	0xb9128771	-0.00013974101
224	0xba31c490	-0.0006781304
225	0xba2cc6c4	-0.00065908977
226	0x38b4f0fc	8.627956e-05
227	0xb8bf3442	-9.1173235e-05
228	0xb9765ec4	-0.00023495691
229	0xb9a05f18	-0.00030588428
230	0xba38f89e	-0.000705609
231	0xb8e43afe	-0.00010882875
232	0xb9c74aa3	-0.00038011846
233	0xb8daa395	-0.000104255196
234	0x38d4cc6e	0.00010147026
235	0x38ada977	8.280848e-05
236	0xb8eae316	-0.000112002876
237	0xba0e460c	-0.0005427308
238	0xb9249004	-0.00015693909
239	0xb8390e93	-4.412101e-05
240	0xb83c4615	-4.4887962e-05
241	0xba0b9be4	-0.0005325659
242	0xba0373a6	-0.00050144864
243	0xb9583a00	-0.00020620972
244	0x39a1908f	0.00030816018
245	0xb94a092d	-0.0001926764
246	0xb9f65777	-0.00046985943
247	0xb96b9458	-0.00022466609
248	0x393fbc6c	0.00018285372
249	0x39c1fd00	0.00037000328
250	0xbb12014d	-0.0022278607
251	0xbbacc966	-0.005273032
252	0xbcabcc53	-0.020971453
253	0xbc00716c	-0.007839542
254	0xbbe6fb36	-0.0070489896
255	0x3c463b00	0.012099028

l2.bias f4 [130]
0	0xbda2dfea	-0.079528645
1	0x3e46373b	0.19357006
2	0x3ec46c85	0.38364044
3	0xbd7901a5	-0.060792584
4	0x3c82586e	0.015911307
5	0x3da0f1e5	0.07858638
6	0xbd38133c	-0.04494022
7	0xbdd7a0b1	-0.10528696
8	0xbd769059	-0.060196254
9	0x3c15d142	0.009144129
10	0x3da45b8d	0.080252744
11	0x3dec1942	0.11528255
12	0xbd39a8a5	-0.045326848
13	0x3e6ebaf1	0.233135
14	0xbdd76427	-0.105171494
15	0xbe3bf682	-0.18355754
16	0x3ec5e2d7	0.38649628
17	0xbda98270	-0.08276832
18	0xbe80c90a	-0.2515338
19	0xbc4d7a9e	-0.012541441
20	0x3e3ee549	0.18642153
21	0x3da45efb	0.080259286
22	0xbd708b9e	-0.0587269
23	0xbd9b5a08	-0.075855315
24	0xbda63eb5	-0.08117429
25	0x3ee96050	0.45581293
26	0xbd708c06	-0.058727287
27	0xbe197468	-0.14985812
28	0xbe0d1349	-0.13776888
29	0x3e36c612	0.17848995
30	0xbd47fa06	-0.048822425
31	0xbde10a07	-0.10988241
32	0x3e478d03	0.19487385
33	0x3a9a3170	0.0011764001
34	0xbc2eb480	-0.010663152
35	0xbdff72c3	-0.12473061
36	0xbdcc8143	-0.09985592
37	0xbe0843ba	-0.13307086
38	0xbe1b0f5f	-0.15142582
39	0x3bdb444f	0.0066914926
40	0xbdceee00	-0.10103989
41	0x3e9c78e1	0.30560973
42	0xbddd5180	-0.108065605
43	0xbdacee08	-0.08443838
44	0xbc8961d2	-0.016770277
45	0x3e0680ff	0.13135146
46	0x3d868f46	0.06570296
47	0xbdf5b5b2	-0.11997546
48	0xbd8cf1ba	-0.06882043
49	0xbdd29a4e	-0.102833375
50	0xbca1cacf	-0.019750027
51	0xbda3d5f0	-0.0799979
52	0xbdcffd2a	-0.10155709
53	0x3dfff868	0.124985516
54	0xbdbe8f8f	-0.093047254
55	0x3c743ac9	0.014906594
56	0xbd410b1b	-0.04712973
57	0xbd010637	-0.031500068
58	0xbe483f33	-0.19555359
59	0xbcd23aee	-0.025662865
60	0xbed09838	-0.40741134
61	0xbdb29184	-0.08719161
62	0x3ccade01	0.024764063
63	0x3dd0a2ff	0.10187339
64	0xbd016e21	-0.031599168
65	0xbca5c1cb	-0.02023401
66	0x3c93d8c5	0.0180477
67	0xbd73ed12	-0.05955226
68	0xbec42ce0	-0.38315487
69	0x3de64ef3	0.11245527
70	0x3d436005	0.047698993
71	0xbc5970ac	-0.013271492
72	0x3e8ab5f6	0.2709195
73	0xbd9533db	-0.07285281
74	0x3d11c78a	0.035590686
75	0xbd3797f4	-0.04482265
76	0x3dd1bda0	0.10241246
77	0xbd528b20	-0.05140221
78	0xbdb388f9	-0.0876636
79	0xbcb1b7a8	-0.02169402
80	0xbd91c918	-0.07118434
81	0xbda5598a	-0.08073719
82	0xbe06516a	-0.13116995
83	0xbd5c951c	-0.05385314
84	0xbde87e62	-0.113522306
85	0x3d8b08b8	0.06788772
86	0xbda8b507	-0.08237653
87	0x3e4b3ae5	0.19846685
88	0x3d965f48	0.07342392
89	0xbc26f87e	-0.010191081
90	0x3edab234	0.42714083
91	0xbde160a4	-0.11004761
92	0xbdd03a7f	-0.10167407
93	0xbd7cf6ab	-0.06175868
94	0xbd8f60c2	-0.07000877
95	0xbe616384	-0.22010618
96	0x3e528522	0.20558599
97	0xbe32ce8b	-0.17461602
98	0x3d1408e2	0.036141284
99	0xbd2599f6	-0.04043003
100	0xbd87ec00	-0.0663681
101	0x3d4e8d88	0.050427943
102	0xbd6e2464	-0.058140174
103	0xbde917e0	-0.11381507
104	0xbcebb302	-0.028771881
105	0x3d88fe61	0.06689144
106	0xbd84319f	-0.06454777
107	0xbe410eb4	-0.18853265
108	0x3e9de6b5	0.30840078
109	0xbd8d7f70	-0.069090724
110	0x3ec31b67	0.38106844
111	0x3dc6fe08	0.09716421
112	0x3d179ddc	0.03701578
113	0xbdb89a0b	-0.09013756
114	0x3d33ba28	0.043878704
115	0xbe021870	-0.12704635
116	0xbd15b8d5	-0.036553223
117	0xbc0d3f93	-0.008621114
118	0x3cd4a67c	0.025958292
119	0xbd484f97	-0.048904028
120	0x3e663fbf	0.22485255
121	0xbe0002c3	-0.12501054
122	0x3ddbe9cf	0.10737955
123	0xbed51cd2	-0.4162355
124	0xbd6aec6b	-0.057354372
125	0xbd8cdbd4	-0.068778664
126	0x3ebd7957	0.37006637
127	0xbdbea48c	-0.093087286
128	0xbda36ed4	-0.07980123
129	0xbd90fb25	-0.07079152

l3.weight f4 [50, 130]
0	0xb9c88c3b	-0.00038251452
1	0x39e17ac8	0.00043006823
2	0x3a0cbe07	0.00053688925
3	0xba0fa096	-0.0005478946
4	0xb72d6b92	-1.0336649e-05
5	0xb8baa000	-8.8989735e-05
6	0x395c77c4	0.00021025451
7	0xb9a5cc89	-0.00031623643
8	0x39f2b191	0.00046290134
9	0xba3c081d	-0.000717284
10	0x39b88a5d	0.00035198304
11	0x3a07f46d	0.00051862636
12	0x392206dc	0.00015452079
13	0x39448ee4	0.00018745248
14	0xb91ef6ab	-0.00015159945
15	0x394037aa	0.00018331283
16	0xb9dd68c9	-0.00042230476
17	0x394626b4	0.0001889717
18	0xb854f6f4	-5.077473e-05
19	0xba14a3ab	-0.00056701404
20	0xba400120	-0.00073243864
21	0xba20d2a7	-0.0006134905
22	0xb76575ab	-1.367686e-05
23	0xb97f0075	-0.00024318865
24	0xb8166f93	-3.58667e-05
25	0xbac265d2	-0.001483137
26	0xba4fa93e	-0.00079216424
27	0x39d0120a	0.00039686292
28	0x390c35a6	0.00013371426
29	0xba583622	-0.00082478125
30	0xba48e63f	-0.0007663704
31	0x3932c75b	0.00017049669
32	0x3991a651	0.0002778047
33	0x38910683	6.915352e-05
34	0x38b69ce8	8.707662e-05
35	0x38fb6bc0	0.00011988683
36	0xb9a50987	-0.0003147835
37	0xb7b03070	-2.100339e-05
38	0x3906a2a3	0.00012839823
39	0xb87f5531	-6.087608e-05
40	0x390df1ab	0.00013536836
41	0xb9c3a010	-0.00037312554
42	0x3a036117	0.0005011721
43	0xb9867cc2	-0.00025651423
44	0xba110198	-0.00055315485
45	0xba06a7d0	-0.00051367003
46	0x3a00b64c	0.0004909977
47	0xb72237e7	-9.668968e-06
48	0xb9ff4d88	-0.00048695155
49	0x39d6e0a2	0.00040984625
50	0x3994a212	0.00028349512
51	0xba7287df	-0.0009251814
52	0x399181c0	0.00027753226
53	0x39a3a224	0.00031210587
54	0xb89d7136	-7.5074306e-05
55	0xba765f71	-0.0009398377
56	0xba003c0e	-0.00048917613
57	0x39e522d4	0.00043704233
58	0x39bc90a0	0.00035965908
59	0x3992ecb5	0.0002802365
60	0x39d440d3	0.0004048409
61	0x38a47a5d	7.842921e-05
62	0xba4a0351	-0.00077061827
63	0xbadda2ee	-0.0016909519
64	0x3921af96	0.00015419567
65	0x39ade64e	0.00033168722
66	0xb987a4d8	-0.00025872025
67	0xb9cfcabd	-0.00039633168
68	0x37cee3aa	2.4663128e-05
69	0xb7cfccce	-2.4771693e-05
70	0xba13fb4b	-0.00056450506
71	0xb9aaa2bb	-0.0003254617
72	0xb92e022a	-0.0001659474
73	0x3a0ca990	0.0005365843
74	0x39554822	0.00020340135
75	0x399fba8e	0.00030465837
76	0xb9832209	-0.00025011625
77	0x3962b1f6	0.00021619335
78	0x398ec702	0.00027232623
79	0x390c26e9	0.00013365936
80	0xb98c2318	-0.00026729028
81	0xb88d82a7	-6.74774e-05
82	0xb8a7c715	-8.0002625e-05
83	0x398fb6fe	0.00027411425
84	0x3926885d	0.00015881793
85	0xb928962c	-0.00016077672
86	0x38a3991c	7.8009645e-05
87	0xba0e8c81	-0.0005437807
88	0x3a0c9083	0.000536211
89	0xb8a61435	-7.919261e-05
90	0x398ef82b	0.0002726925
91	0xba16699d	-0.00057377835
92	0xba0dc4a2	-0.0005408024
93	0x3941a247	0.00018466367
94	0x390e9868	0.00013598951
95	0xb9305c74	-0.0001681911
96	0xb7af0f84	-2.086885e-05
97	0xb98cc30d	-0.00026848205
98	0xb9ed1abd	-0.00045224084
99	0xbaa0f007	-0.0012278565
100	0x3a09cb32	0.0005256414
101	0xb9913699	-0.00027697234
102	0xb9e24211	-0.00043155302
103	0x39468121	0.00018930856
104	0xba0cbfe7	-0.0005369172
105	0xb9ff1de5	-0.00048659663
106	0xb9ef5308	-0.00045647495
107	0xb8f3c3db	-0.00011623624
108	0xba2a7bf8	-0.0006503458
109	0x38eb643d	0.00011224344
110	0xba7bc964	-0.00096048997
111	0x39b82b49	0.00035127465
112	0x3a0225bc	0.00049647293
113	0xb8d58499	-0.0001018133
114	0xb9f1a98f	-0.00046093433
115	0x3a0df562	0.0005415288
116	0xba05f299	-0.0005109697
117	0x39fcba48	0.00048203976
118	0xb9797af0	-0.00023792288
119	0x3a0111c1	0.0004923605
120	0xb9d95281	-0.00041450936
121	0xb9da2c8c	-0.0004161339
122	0x391e34d4	0.00015087734
123	0xba05c43c	-0.00051027886
124	0xb9ac5483	-0.00032869363
125	0xb9fc6097	-0.0004813715
126	0xba123833	-0.00055778323
127	0xb95d6b91	-0.00021116274
128	0xb99ce7e2	-0.00029927405
129	0x39d99488	0.0004150013
130	0xb9a11c26	-0.00030729285
131	0xb8bd7b1a	-9.035152e-05
132	0xb9f9e034	-0.00047660025
133	0x39f54fdf	0.0004678955
134	0x393aeab8	0.00017825782
135	0xb8ab2d08	-8.162303e-05
136	0xba34b7d9	-0.00068938505
137	0xb9c5de7f	-0.0003774054
138	0xb978a03c	-0.00023710815
139	0xba2fe2c6	-0.0006709512
140	0xba1560e3	-0.0005698336
141	0x39e87db0	0.00044344133
142	0xb9f80127	-0.00047303105
143	0xba3c6cc9	-0.0007187841
144	0x38edaf28	0.00011333666
145	0xb8f4bf8a	-0.000116705036
146	0xba59bee1	-0.0008306336
147	0xba862c5e	-0.0010236611
148	0x397172f6	0.00023026377
149	0x38b44ea0	8.597714e-05
150	0xba29cb02	-0.0006477089
151	0x38af1d24	8.350078e-05
152	0xb85e10ed	-5.2944688e-05
153	0x3922d035	0.00015527087
154	0xb97b14bd	-0.00023944951
155	0xba37c692	-0.0007010485
156	0xba266415	-0.0006347311
157	0xb966d13d	-0.00022012457
158	0xba30da01	-0.00067463523
159	0xba8c6430	-0.001071101
160	0xb98d51e7	-0.00026954638
161	0x38a3fc10	7.819396e-05
162	0xba17fa36	-0.0005797477
163	0x3a1bb83f	0.00059402356
164	0xba073724	-0.0005158058
165	0xb9b3a232	-0.00034262385
166	0xb9a06c8e	-0.00030598458
167	0xbaf8758d	-0.0018955931
168	0xb9c4b3aa	-0.00037517893
169	0xb80672ea	-3.205511e-05
170	0xb967c226	-0.00022102203
171	0x39fa9a86	0.00047798845
172	0xb9a5119c	-0.00031484372
173	0xb9a73ed7	-0.00031899542
174	0xb9b9306a	-0.0003532202
175	0x390703a3	0.00012875958
176	0x3a1ad186	0.0005905855
177	0xb999137c	-0.0002919695
178	0xb91fbe85	-0.00015234396
179	0xba613d87	-0.0008592237
180	0xb9aa6fec	-0.00032508315
181	0xb8272ee6	-3.985958e-05
182	0xb889f870	-6.578944e-05
183	0x3a0f48ea	0.0005465882
184	0xba4a7380	-0.00077228993
185	0xb969c463	-0.00022293771
186	0x3895c36a	7.141272e-05
187	0x39303e39	0.00016807848
188	0xb9baebe2	-0.0003565243
189	0xba2941a6	-0.0006456621
190	0x391a5c35	0.00014720934
191	0xb8146f5a	-3.5389654e-05
192	0xba3e88a4	-0.0007268286
193	0xb9792fd8	-0.00023764314
194	0x380dee43	3.3838918e-05
195	0x39c90337	0.00038340103
196	0xba7e37fb	-0.0009697673
197	0xb9c1f9dc	-0.00036997988
198	0xb95b91b2	-0.00020939743
199	0x39a63f90	0.00031709345
200	0xb88f1d3d	-6.8242174e-05
201	0xb8498bf8	-4.805249e-05
202	0xb9512082	-0.00019943903
203	0x3930a216	0.0001684505
204	0xb9db5842	-0.00041836692
205	0xb9a2bee6	-0.00031041278
206	0xb9c18f02	-0.00036918378
207	0x387adae2	5.9808495e-05
208	0x3968940f	0.000221804
209	0x3996dd52	0.00028775126
210	0xba0fa8e5	-0.00054801843
211	0xba527d5e	-0.00080295454
212	0xba4049d9	-0.0007335223
213	0x3941be23	0.00018476746
214	0x399d565c	0.00030009716
215	0xba0193cb	-0.00049429823
216	0x3884dc48	6.335281e-05
217	0x36c0314c	5.727785e-06
218	0x39f97b3c	0.00047584798
219	0xba0c7953	-0.0005358655
220	0x392e4203	0.00016618524
221	0xba0068d4	-0.0004898433
222	0x3919788a	0.00014636121
223	0xb9dcc28e	-0.00042106624
224	0xb94c27ba	-0.00019469755
225	0xba6de2be	-0.000907462
226	0xb9fbdadf	-0.00048037522
227	0x39326bf8	0.00017015624
228	0xba190c48	-0.0005838317
229	0xbab746b3	-0.0013982862
230	0xb9a0f47d	-0.00030699736
231	0xb919432b	-0.00014616239
232	0x39aedc27	0.00033351892
233	0x38f834d3	0.00011835401
234	0xba553a81	-0.0008134023
235	0xb9c787c2	-0.00038057385
236	0x39bed174	0.0003639568
237	0x399d366f	0.0002998593
238	0xb937aadf	-0.00017515894
239	0xb9c36402	-0.0003726781
240	0xba9745d4	-0.0011541196
241	0xb82eb22c	-4.165077e-05
242	0xba3417f1	-0.00068700226
243	0xba943921	-0.001130853
244	0xb9e40a43	-0.00043495194
245	0x3917e9c8	0.00014487572
246	0x38d8a984	0.00010331257
247	0xb95213fd	-0.00020034607
248	0xb8cd11ac	-9.7784534e-05
249	0x39372c23	0.00017468682
250	0x391648af	0.00014332191
251	0x397c07c3	0.00024035484
252	0xb9b66abf	-0.00034793277
253	0x392ece43	0.00016670772
254	0xb9be7387	-0.000363257
255	0x397a7ea8	0.00023889041

l3.bias f4 [50]
0	0xbd8a4729	-0.06751854
1	0xbf015bdf	-0.5053081
2	0xbe5593a0	-0.20857096
3	0x3e849d7c	0.259014
4	0xbd9ca209	-0.07648093
5	0xbdbe3c25	-0.092888154
6	0xbd189c0b	-0.03725819
7	0x3dce3b3c	0.10069892
8	0xbd8bfc76	-0.068352625
9	0x3f26640e	0.6499642
10	0xbdd3179f	-0.1030724
11	0xbdc7e0e3	-0.097596906
12	0x3e5de7fa	0.21670523
13	0xbd998dda	-0.07497759
14	0xbdfb0ed8	-0.122586906
15	0x3e556612	0.20839718
16	0x3ea1ba58	0.31587481
17	0x3f461132	0.7736999
18	0x3ce7dcfc	0.028303616
19	0xbe8455b7	-0.25846645
20	0xbd417b71	-0.047236864
21	0xbe01cdf0	-0.12676215
22	0xbf12fa97	-0.5741362
23	0xbd72f331	-0.059313957
24	0x3f3aadf0	0.7292166
25	0x3d0cecbe	0.034405462
26	0x3e1d6374	0.1536997
27	0xbefc0292	-0.4922071
28	0xbda99ccd	-0.082818605
29	0xbe61b003	-0.220398
30	0xbe085e26	-0.13317165
31	0xbcd4e8a4	-0.025989838
32	0xbc57121c	-0.013126876
33	0xbda321ae	-0.07965408
34	0x3c49c477	0.012314907
35	0xba825ed6	-0.0009946476
36	0xbddd5645	-0.1080747
37	0xbd9d0ae6	-0.07668094
38	0xbe57802b	-0.21044986
39	0x3df1be20	0.118038416
40	0xbd88d033	-0.06680336
41	0x3ea41fb1	0.3205543
42	0xbd987f90	-0.074462056
43	0x3ca553e5	0.020181606
44	0x3da545cd	0.08069954
45	0xbdf258dd	-0.118333556
46	0xbc9cdbdf	-0.019147811
47	0x3edfb6d2	0.43694168
48	0x3e3ede7d	0.1863956
49	0xbe329039	-0.17437829

l4.weight f4 [10, 50]
0	0x3a627307	0.0008638356
1	0xb7fc40cd	-3.0070916e-05
2	0x3b2d6d30	0.0026462786
3	0x3da67624	0.08128002
4	0x3a886bce	0.0010408105
5	0x390fe3bb	0.00013722379
6	0x39033dca	0.00012516152
7	0xba45f754	-0.00075518084
8	0x3a945101	0.0011315645
9	0x3ab803ca	0.0014039215
10	0xb9ff9fe1	-0.0004875651
11	0x39d278f9	0.00040144453
12	0x3e9c01cb	0.30470118
13	0x39e3c89a	0.00043446274
14	0xba28c6a1	-0.00064382894
15	0xbe0c58fe	-0.13705823
16	0xbdb47aa5	-0.08812455
17	0x3d9351de	0.07193349
18	0x3a53c4f5	0.000807836
19	0xb9bee48d	-0.00036409908
20	0x3888e2e9	6.527251e-05
21	0xba079111	-0.0005171458
22	0x3a26ff07	0.00063703995
23	0x3a021cd3	0.00049634016
24	0x3e8bedd1	0.27329877
25	0x3c49d830	0.0123196095
26	0xbb75cfac	-0.0037507815
27	0x39acaa06	0.00032933074
28	0xba5fd722	-0.0008538832
29	0x3a60e00a	0.00085783063
30	0xb8562138	-5.1052513e-05
31	0xbc808b67	-0.015691472
32	0x39be6626	0.0003631573
33	0x3d847f58	0.064696014
34	0xbbba4137	-0.0056840437
35	0x3bfee230	0.0077784285
36	0x3a538ce3	0.0008070005
37	0x38e7851d	0.000110397326
38	0x3a749598	0.00093301525
39	0xbc08a123	-0.008339199
40	0xbf180df8	-0.59396315
41	0xbe9e352b	-0.3089994
42	0x3913d851	0.00014099597
43	0xbb14be6b	-0.0022696506
44	0xbf086b91	-0.53289133
45	0xb9256256	-0.00015772259
46	0xbdaf163d	-0.085491635
47	0xbd0be422	-0.03415311
48	0x3ad8391a	0.001649651
49	0x3a93d47e	0.0011278538
50	0xba184ed4	-0.0005810086
51	0xb9aa4fbb	-0.0003248433
52	0xbf238603	-0.6387636
53	0x3efc7ceb	0.49314055
54	0x3aeca438	0.0018054312
55	0xba208839	-0.00061238144
56	0x3a07a7c6	0.00051748415
57	0x3994602f	0.00028300422
58	0x3aa06385	0.001223669
59	0x3c8809fc	0.016606323
60	0xba66fb1e	-0.0008811223
61	0xb9d9d9a0	-0.0004155161
62	0xbe43f58f	-0.19136642
63	0xb9c96cb7	-0.00038418706
64	0x3a1b203a	0.0005917583
65	0xba330c33	-0.0006830126
66	0xbe3ddcc8	-0.18541253
67	0x3d3c6bc9	0.04600123
68	0xbd20f7d7	-0.03929886
69	0xb95ed089	-0.00021249255
70	0xb93f5a0b	-0.00018248723
71	0x38cbc185	9.71584e-05
72	0x39ca75cb	0.00038616205
73	0x3a8daa7e	0.0010808257
74	0xbdff9745	-0.12480024
75	0xbbeec343	-0.0072864606
76	0x3bece5a1	0.0072295223
77	0xb9af3f0b	-0.00033425572
78	0xb9ba5ef3	-0.00035547427
79	0xbb4fe1ed	-0.0031720356
80	0x3a4d5c20	0.0007833857
81	0xbda6bd7b	-0.08141609
82	0xba303506	-0.00067217683
83	0x3e7b8650	0.24562955
84	0x3942b098	0.00018567068
85	0xbe29a459	-0.165666
86	0xb9257f0b	-0.00015782953
87	0x391935cb	0.00014611256
88	0x3a041126	0.00050379557
89	0xba36ada4	-0.00069686235
90	0xbdb6040a	-0.08887489
91	0x3e47a8ae	0.1949794
92	0x390379e9	0.00012538549
93	0x3c0c7865	0.008573626
94	0x3d3d420d	0.04620557
95	0x3a0cb6d8	0.0005367822
96	0xbeccbb5a	-0.39986688
97	0xbe263c92	-0.16234043
98	0x3c9d180e	0.01917651
99	0xb97308e6	-0.00023177601
100	0xba2bc456	-0.00065523887
101	0xb9b8e285	-0.00035263985
102	0x3aacad4b	0.0013174204
103	0xbd8a7236	-0.06760065
104	0xb7727777	-1.4452139e-05
105	0x3a1e169d	0.00060305913
106	0xba2d4d61	-0.00066109566
107	0xbb501688	-0.003175171
108	0x3a902cb2	0.0010999648
109	0xbab16804	-0.0013535027
110	0x38353c82	4.3210115e-05
111	0xb9f784ef	-0.00047210554
112	0xbe8fb260	-0.28065777
113	0x37cead1a	2.463772e-05
114	0x3a8ab0c9	0.001058125
115	0x3abad6a4	0.0014254642
116	0xbd11bf95	-0.035583097
117	0xbce79f55	-0.028274218
118	0x3c1c7176	0.009548536
119	0xb9f48d6e	-0.0004664468
120	0xb9bba79e	-0.00035792304
121	0xb94127d2	-0.00018420749
122	0x3a60b8f3	0.00085724815
123	0x38f560e6	0.00011700559
124	0x3e7d59d6	0.24741301
125	0x3b1fcd93	0.0024384006
126	0xbb161acd	-0.0022904158
127	0x3a7886f4	0.0009480559
128	0xb9bd8077	-0.00036144603
129	0x3a94ec92	0.0011362007
130	0x3a99bc44	0.0011729081
131	0xbab56da3	-0.0013841878
132	0x3a69ac47	0.0008913916
133	0xbf1cc220	-0.6123371
134	0xba35e0c6	-0.0006938096
135	0x3a790333	0.0009499073
136	0xb8a15d67	-7.694476e-05
137	0xb9ccb36b	-0.0003904359
138	0x3b00bc58	0.0019643512
139	0x3b22752b	0.0024789076
140	0xb953f8c3	-0.00020215199
141	0xbea21717	-0.3165824
142	0x3a9a385f	0.0011766067
143	0x3c60c839	0.013719612
144	0x3e2460f1	0.16052605
145	0xb7a96516	-2.0193442e-05
146	0xbf0722ed	-0.5278767
147	0x3d78d1ab	0.06074683
148	0xbbe3fbfa	-0.006957528
149	0xb9bfe22e	-0.00036598876
150	0x39644965	0.00021771116
151	0xb90ddd9c	-0.00013529364
152	0xbc65da00	-0.014029026
153	0x3e3b0dea	0.18267027
154	0x3ac3bebc	0.0014934163
155	0x3a33724e	0.0006845341
156	0xba0c566e	-0.0005353455
157	0xbcf6eb63	-0.030141538
158	0x39516841	0.00019970631
159	0x3cc0e495	0.023546496
160	0xbaa77f2e	-0.0012778991
161	0xb9f6cd2d	-0.00047073644
162	0x3e9a57f3	0.30145225
163	0x3841b091	4.6179226e-05
164	0xba2ac0f2	-0.00065137364
165	0xbeb013df	-0.3439016
166	0x3e4d194e	0.20029184
167	0xbf912f1e	-1.1342504
168	0x3bc78032	0.00608828
169	0xb9bdb837	-0.0003618614
170	0xbb08623e	-0.002081051
171	0xba49ab2f	-0.000769305
172	0x38f116c9	0.000114960196
173	0xba58dd06	-0.0008272681
174	0x3d52503b	0.051346045
175	0x3b154d00	0.0022781491
176	0xbf8fb0db	-1.1225847
177	0x3a8a4f2c	0.001055216
178	0x3a6d4c62	0.00090522144
179	0xba106aca	-0.0005509077
180	0xba8ee9d6	-0.0010903429
181	0xbcf3e6cb	-0.029773137
182	0xba4b070d	-0.0007744886
183	0xbd06559a	-0.03279648
184	0xba03d6fc	-0.00050292886
185	0x3ce9b4c6	0.028528582
186	0x3a550988	0.00081267254
187	0xb9bcd144	-0.0003601407
188	0xb7f6719a	-2.9378385e-05
189	0x3c82cfff	0.01596832
190	0x3d68156e	0.056661062
191	0x3e02f61a	0.12789193
192	0xba241617	-0.0006259395
193	0x3bd6ad4b	0.00655142
194	0xbb022fc8	-0.0019864906
195	0x39424d28	0.00018530025
196	0xbe43fda8	-0.19139731
197	0xbca13916	-0.019680541
198	0xb8b6baa5	-8.7132015e-05
199	0xb8f55c7b	-0.00011699736
200	0xbac9caa6	-0.0015395477
201	0x39173ac2	0.00014422371
202	0xbb67fc7c	-0.0035398295
203	0xbdc57c1e	-0.09642814
204	0xb9a508bf	-0.0003147777
205	0xb8e2f370	-0.000108218635
206	0x39fc3fe2	0.00048112782
207	0x3adb2e77	0.0016722222
208	0xba983ac8	-0.0011614198
209	0xba368fa3	-0.00069641526
210	0x38704dd4	5.7292942e-05
211	0xb8084375	-3.248775e-05
212	0x3c40e5f5	0.011773576
213	0x39de9009	0.00042450454
214	0xb9f30ece	-0.00046359602
215	0xba95a157	-0.0011415881
216	0xbda7612c	-0.08172831
217	0x3baeda72	0.0053360993
218	0xbb127e80	-0.0022353232
219	0xb7edbff4	-2.8341987e-05
220	0xbb0066c3	-0.00195925
221	0xba506ad4	-0.0007950489
222	0xba25a528	-0.00063188607
223	0xba126b47	-0.00055854436
224	0x3e536c63	0.20646815
225	0x401acf75	2.4189122
226	0x3a2555a7	0.00063070137
227	0xb7762aa9	-1.4672675e-05
228	0x39cbe25a	0.00038887822
229	0xba12b5a5	-0.0005596525
230	0x3ab4affe	0.001378536
231	0xbc33698b	-0.010950456
232	0x39bc8d52	0.00035963446
233	0x3d568d4a	0.052380838
234	0xba99ea78	-0.0011742851
235	0x3acbe99c	0.0015557292
236	0xba3c2882	-0.0007177667
237	0xb97c675f	-0.00024071102
238	0x380e483b	3.3922708e-05
239	0xb8cdaede	-9.807733e-05
240	0xbaf07895	-0.0018346483
241	0x3e2f5b92	0.17124775
242	0xb9a396a3	-0.00031202016
243	0x3b1b4b27	0.0023695917
244	0x3ca4a96e	0.020100322
245	0x3a0e3a26	0.0005425535
246	0xbd37c6bd	-0.044867266
247	0x3d24ae1c	0.040205106
248	0x39fe0bc9	0.00048455436
249	0xba10a7c8	-0.00055181654
250	0x3a3df28e	0.00072459213
251	0x3a61d871	0.0008615321
252	0xbb11a97f	-0.0022226272
253	0x3e5db0c8	0.21649468
254	0x3b198783	0.0023426719
255	0xba0b0104	-0.00053025805

l4.bias f4 [10]
0	0x3f519d67	0.818808
1	0x3f25cdc4	0.647671
2	0x3f8bfef0	1.0937176
3	0x3f7fa950	0.99867725
4	0xbe340f50	-0.17583966
5	0x3eb1b786	0.3471033
6	0x3db7c8f6	0.08973877
7	0x3f4dc37d	0.80376416
8	0x3f80193b	1.00077
9	0x3f6a0dad	0.9142712

momentum_buffer f4 [250, 48]
0	0x371eecce	9.472669e-06
1	0x36c4f340	5.869573e-06
2	0x36d01898	6.201746e-06
3	0x3633a0b0	2.676661e-06
4	0xb5644c24	-8.504742e-07
5	0xb4139598	-1.3744864e-07
6	0xb523f3a5	-6.107678e-07
7	0xb3076780	-3.152627e-08
8	0xb59dab35	-1.1747239e-06
9	0xb44a28b6	-1.8827527e-07
10	0x3483149a	2.441564e-07
11	0x34ddbe68	4.1302997e-07
12	0x3722f383	9.712649e-06
13	0x36824a14	3.8829257e-06
14	0x3490d4f0	2.6977023e-07
15	0x342fb4a2	1.6363859e-07
16	0x36ac3bc5	5.1329575e-06
17	0x372aa837	1.0171955e-05
18	0x37264463	9.910294e-06
19	0x370225a8	7.757371e-06
20	0xb52cfc9a	-6.4442577e-07
21	0x36c77603	5.9444005e-06
22	0x36dc4bd8	6.5653403e-06
23	0x36c1a1f7	5.7707034e-06
24	0xb54bdd33	-7.594528e-07
25	0x36dc7c9c	6.5710174e-06
26	0x36ea06e8	6.9745474e-06
27	0x36d4768e	6.331894e-06
28	0x3746c8ed	1.1848501e-05
29	0x370302be	7.808847e-06
30	0x3705a8e4	7.966741e-06
31	0x36db0c94	6.528173e-06
32	0x3732ebb0	1.0664502e-05
33	0x3651ba51	3.1251877e-06
34	0x35d5c510	1.5927089e-06
35	0x36bc9b92	5.6209474e-06
36	0x373a725a	1.11130885e-05
37	0x36e77acd	6.8986324e-06
38	0x36fb0e78	7.4820673e-06
39	0x36f5b3c5	7.322497e-06
40	0x37373d45	1.0921915e-05
41	0x370464ee	7.891313e-06
42	0x36db4c8d	6.5356203e-06
43	0x36e2a47a	6.7544725e-06
44	0x361f0fb3	2.3701984e-06
45	0x37084dba	8.124329e-06
46	0x3707da92	8.097517e-06
47	0x36e74b76	6.8931213e-06
48	0xb7d19e07	-2.4988329e-05
49	0x37d5165e	2.5401994e-05
50	0xb6546cdc	-3.1653826e-06
51	0x3700d997	7.680056e-06
52	0x38106182	3.4423087e-05
53	0xb78f9411	-1.7115877e-05
54	0xb72b2fcf	-1.0203526e-05
55	0xb5ba2184	-1.3867834e-06
56	0x36ad530c	5.1654697e-06
57	0xb506ef4c	-5.026711e-07
58	0x35821e24	9.694527e-07
59	0xb5cbb016	-1.5175926e-06
60	0x3693ef30	4.4087865e-06
61	0xb4a85ab8	-3.1358445e-07
62	0xb6895650	-4.0929663e-06
63	0xb605cf5b	-1.9939241e-06
64	0xb7773ebc	-1.4736954e-05
65	0x38686f4f	5.5416775e-05
66	0x381de6cf	3.7646674e-05
67	0x382ee8f9	4.1701805e-05
68	0x379cfb0a	1.8713548e-05
69	0x37eafbde	2.8012259e-05
70	0x380c8fbb	3.351246e-05
71	0x3811d8eb	3.4772715e-05
72	0x36100cee	2.1465198e-06
73	0x3819f644	3.6707395e-05
74	0x38253ac2	3.9393788e-05
75	0x3813b11b	3.5212473e-05
76	0x38608cac	5.3536773e-05
77	0x38027f34	3.1112882e-05
78	0x38135c2b	3.513337e-05
79	0x381fc4b9	3.8091766e-05
80	0x3887c3e6	6.4737906e-05
81	0x37e8ef5e	2.776802e-05
82	0x383385b4	4.2801446e-05
83	0x382404f1	3.910525e-05
84	0x38883063	6.493998e-05
85	0x386e35b2	5.679363e-05
86	0x384abb03	4.833472e-05
87	0x3837df24	4.3838416e-05
88	0x38874344	6.449831e-05
89	0x382ff449	4.195076e-05
90	0x38260148	3.9578677e-05
91	0x383a7afc	4.4460394e-05
92	0x381b57a4	3.70365e-05
93	0x38609a1f	5.3549298e-05
94	0x383d8b57	4.519088e-05
95	0x382f0e46	4.1736545e-05
96	0xb52f5c9d	-6.532735e-07
97	0x3602bd89	1.9481834e-06
98	0x3497b44a	2.825712e-07
99	0xb50bbbe4	-5.205495e-07
100	0xb6635f69	-3.3881172e-06
101	0x36269d82	2.482761e-06
102	0xb58b0be3	-1.0359767e-06
103	0xb57b6623	-9.3653415e-07
104	0x330f8a00	3.3420292e-08
105	0x35c451e9	1.4626977e-06
106	0x364cb8cb	3.0505933e-06
107	0x360d1bf1	2.1026901e-06
108	0xb60637a5	-1.9999945e-06
109	0xb5cf8208	-1.5460546e-06
110	0xb626bb00	-2.4844776e-06
111	0xb5a8c8e3	-1.2575441e-06
112	0xb503a1a1	-4.9036504e-07
113	0x368374f6	3.9177203e-06
114	0x3631c7fa	2.6491457e-06
115	0x35f71886	1.8410071e-06
116	0xb5f9fb24	-1.8625037e-06
117	0x369554ed	4.4504327e-06
118	0x36231fdc	2.4307437e-06
119	0x35f5ef0b	1.8323493e-06
120	0xb3608aa0	-5.2280143e-08
121	0x36701cf0	3.577963e-06
122	0x3694fd86	4.4402577e-06
123	0x368bc86e	4.165856e-06
124	0x364c87d9	3.0477443e-06
125	0x35c32f14	1.4542334e-06
126	0x359b381e	1.1564732e-06
127	0x36180e74	2.2658178e-06
128	0x36a2ebf7	4.855446e-06
129	0x35db5b2e	1.6343308e-06
130	0x36275d64	2.49393e-06
131	0x3648d2ec	2.9925095e-06
132	0x369a2199	4.593469e-06
133	0x35f7e5d7	1.8469826e-06
134	0x3668fc76	3.4717646e-06
135	0x3671940e	3.5997978e-06
136	0x36871858	4.0261475e-06
137	0x3627c465	2.4999256e-06
138	0x3534d7a6	6.7369035e-07
139	0x35f37ffe	1.8142161e-06
140	0x36786ee0	3.7019418e-06
141	0x3692e048	4.377249e-06
142	0x368fa5da	4.2810398e-06
143	0x3682a178	3.8930993e-06
144	0x352d6518	6.4594633e-07
145	0xb61a7694	-2.301681e-06
146	0xb4b87f90	-3.4365485e-07
147	0x35ae40fc	1.2982923e-06
148	0x363e84f8	2.8389604e-06
149	0x353c5460	7.015824e-07
150	0xb5585d60	-8.060215e-07
151	0x35c0ae10	1.4355774e-06
152	0x35149fa6	5.5366615e-07
153	0x358090ec	9.578921e-07
154	0xb4e3372c	-4.2322188e-07
155	0x351fdcc3	5.9553366e-07
156	0x35c4089e	1.4605646e-06
157	0xb622ab60	-2.4239635e-06
158	0x359774b0	1.1284337e-06
159	0x357a8e1e	9.3339065e-07
160	0x34aa0650	3.166956e-07
161	0xb5ae9298	-1.3006675e-06
162	0x3507b2a0	5.055135e-07
163	0x35f09348	1.7924258e-06
164	0x35dfdcd8	1.6679069e-06
165	0x358ac1b0	1.0338172e-06
166	0xb31f8c00	-3.71474e-08
167	0x35f15180	1.7979619e-06
168	0x34bf28e8	3.5606286e-07
169	0x35bd6f80	1.4114048e-06
170	0x349c1580	2.9072908e-07
171	0x35ae8690	1.3003173e-06
172	0x35d24c90	1.5668502e-06
173	0xb5512fb0	-7.792796e-07
174	0x35ee8230	1.7770271e-06
175	0x35d64c80	1.5966507e-06
176	0x351e5c40	5.899383e-07
177	0x360ddd50	2.1139458e-06
178	0x35844770	9.855557e-07
179	0x34348f00	1.681583e-07
180	0x35384a40	6.865339e-07
181	0x33f11930	1.12270186e-07
182	0x358a6c30	1.0313288e-06
183	0x30368000	6.6393113e-10
184	0x35902950	1.074086e-06
185	0x3501c8c0	4.8348375e-07
186	0x35887e40	1.0169533e-06
187	0x356be600	8.7879016e-07
188	0x34353280	1.687531e-07
189	0x3611a7a8	2.1704273e-06
190	0x34d39e00	3.9416773e-07
191	0x34aefbc0	3.2593198e-07
192	0xb637e8ec	-2.7404703e-06
193	0xb68a03a8	-4.113146e-06
194	0xb6a9f680	-5.065289e-06
195	0x34a33531	3.0399818e-07
196	0x37a77237	1.9961137e-05
197	0xb7ad3cef	-2.0651582e-05
198	0xb73705f2	-1.0909034e-05
199	0xb6bb7444	-5.5865694e-06
200	0xb7ec36c9	-2.8158904e-05
201	0x3735cdf6	1.0836395e-05
202	0xb7c20988	-2.313104e-05
203	0xb790d028	-1.7263068e-05
204	0xb4fb8676	-4.6850226e-07
205	0xb45a5210	-2.0332686e-07
206	0xb59fa06c	-1.1893112e-06
207	0x36cae0fc	6.0462608e-06
208	0xb56ac56b	-8.7459074e-07
209	0xb7ed9ca4	-2.8325543e-05
210	0xb7f8298b	-2.9583249e-05
211	0xb7c49b7d	-2.3437426e-05
212	0x3747037e	1.1862137e-05
213	0xb81ae626	-3.6930804e-05
214	0xb8111761	-3.4592467e-05
215	0xb7ec497d	-2.8167613e-05
216	0xb7802dc2	-1.5280097e-05
217	0xb79cef20	-1.8708e-05
218	0xb831e414	-4.2412503e-05
219	0xb81d67a9	-3.7528258e-05
220	0xb812a3a1	-3.4961504e-05
221	0xb7afc5f5	-2.0953807e-05
222	0xb7d8559d	-2.5789073e-05
223	0xb7c00f42	-2.2895289e-05
224	0xb838bac9	-4.4042976e-05
225	0xb7dbd38b	-2.6205342e-05
226	0xb7c54933	-2.3518316e-05
227	0xb7f6522d	-2.9363751e-05
228	0xb83517ff	-4.317611e-05
229	0xb7688c20	-1.3860903e-05
230	0xb7af0070	-2.086183e-05
231	0xb7d25f20	-2.5078247e-05
232	0xb830a400	-4.2114407e-05
233	0xb81963af	-3.657088e-05
234	0xb749f708	-1.203805e-05
235	0xb7aebb1b	-2.0829544e-05
236	0xb7d83412	-2.5773454e-05
237	0xb817f342	-3.6227757e-05
238	0xb7e4ca8f	-2.7274042e-05
239	0xb803ba9b	-3.1406624e-05
240	0xb784cc81	-1.5830856e-05
241	0xb65aae86	-3.2586117e-06
242	0xb636af11	-2.7222015e-06
243	0xb6968d6e	-4.486813e-06
244	0x363d649b	2.8221755e-06
245	0x3680b752	3.8360386e-06
246	0x3629854c	2.5260551e-06
247	0x3632e302	2.6656203e-06
248	0x3746c8d1	1.1848476e-05
249	0x3577784a	9.2189714e-07
250	0xb63eb6ef	-2.8418688e-06
251	0xb61e12fc	-2.3554885e-06
252	0x358333d0	9.77534e-07
253	0x34cc77ba	3.8085074e-07
254	0xb327d640	-3.9077577e-08
255	0xb60ff14a	-2.144911e-06
