motion_planning/NN_model/models/model_new_02.pt (torch, 535386 bytes, 24 tensors)

l1.weight f4 [250, 16]
00000000: 1658 a53c 9246 c73c af56 2fbc c0ff fabb
00000010: 2991 953b 3288 89be 18ad 883e 0207 e13e
00000020: 520f 20bc 8d96 d83b 0acd eabb ab36 403a
00000030: 728b 113d 4783 7f3b 14f6 cdbc 98a4 31bc
00000040: 5347 52bc 6440 ec3c ce9c e3bc 30b0 2e3a
00000050: 6a20 bbbc 9d0e c83c 85a3 9f3c 1272 803c
00000060: d168 a3bc 1bbd 2cbc dae2 c8bb 3c71 233b
00000070: 7042 5ebe 0af2 e4be 89d5 933e 86ff 1d3e
00000080: cf21 83bb 822f 28bc ec6f 363c 1b1a dcbb
00000090: 231c b33e 4359 223f b0d8 953e ca20 4a3d
000000a0: 4c32 083b 0848 bc3b 3652 fd39 8c8d 1b3a
000000b0: 7c4c b63e d964 0e3c fee5 093f d812 093e
000000c0: 7ba3 0a3c a935 1fbc c661 45bc d2a3 38bc
000000d0: dadb 913b 80ae 10bc 9cf9 67bc d727 40bb
000000e0: 8ee1 473c e975 4dbb 04de 8dbc a2a2 abb8
000000f0: 63bb aab8 3067 393f 8cf8 d93e ce3f 4dbe
00000100: 10b6 85bb a08f 523b 4a62 66bc 67c2 78bb
00000110: 6fcd be3e b440 aabd b960 563c b8ab b339
00000120: 9039 533f f03c 1d3e 7492 af3c e286 393c
00000130: 064f 81bb 0bfa da3c 6922 25b9 a4c7 3e3b
00000140: dc87 653c 31bc 7abc 001f fcbb 5cd3 c73a
00000150: 7bcc 4e3f a8d8 093e ef8e 2d3d 2e14 373c
00000160: 14c6 9fbe bdba 22be e3b0 01bd 6dea 183c
00000170: 9c4c 4a3a 9977 c7bb 8f4e c9bb 746b 25bb
00000180: b3bb a4bd 356c 9ebe 9378 38be d03d 183d
00000190: e905 653b dbd6 eebb 4716 353c 8a58 023c
000001a0: aacd 06bc 3c4f d7bb 9ebf 803a a938 733b
000001b0: 8a9f d8bd f816 92bd 461c 0bbe 6ac7 30be
000001c0: f97f 303a 8a4d 163b a220 59bc c8d2 6fbb
000001d0: b59c e2bc 3e67 01bb 8757 a2ba ede9 1f3c
000001e0: 3230 053e ccbd 1abf f64a 7fbe 376a 67bd
000001f0: 6c09 79bc 486d 36bc 0edc 913c edfd da3b
00000200: e1ed e0be d63b 933e d223 073e f15d 26bc
00000210: 64b9 33be 497e 87bd b03c a13d 4ad4 c23a
00000220: 1bf8 2fbb 5a58 5d3c 181a 883a 1a86 bc3b
00000230: 3bbe 18bc 1ccf 303b 49f8 d1ba f13a d1bb
00000240: ceb2 1a3d 12c2 2f3b 42cd 693d 39ab 93b9
00000250: 933d 363e ba7e 37bb 23ba 093d 9778 383c
00000260: c994 9f3d 46a5 873e 4d76 0b3e 2abe 23bd
00000270: 4901 eabc 1ae5 8abc ce0c 4abb fad3 5dbb
00000280: 92d0 bbbe 1c54 c93d 40b2 193e a45d 8b3d
00000290: 82e1 623b 1c18 3d3b fbd3 01bb b07e a13a
000002a0: 8781 dfbb 59d6 de3a b85e 87ba 2f67 033a
000002b0: 601b e0be 74e1 86be 5b5e b0be ce48 08be
000002c0: 2483 6539 b0ec 6a3a 499d ec3b 8ea6 483a
000002d0: 8584 16be 1002 b7be e2ad 22bf 5ccb 0cbe
000002e0: 091a bd3e f3db 153f 0fc2 f33d 194c bcbc
000002f0: 5c15 92bb 8cd9 d7bb 0949 04bc 97ba d33b
00000300: 4724 2fbc 899e 1d3b 3881 48bc efd4 fe3a
00000310: 808c 46be 1aa8 553e e9fb b7bc a2bf e8bb
00000320: b6cf 9abd 467c 8abb e89f da3d 786a 4c3d
00000330: 3be8 b1bc 50c0 93bc 5bf5 13bc e8eb d1bc
00000340: 6095 3c3f 86c2 823d 2670 033d 2625 a83b
00000350: 8291 cdbe 1b34 fbbd 2cd2 5f39 ea33 043c
00000360: 202a f7bc 2b09 f4bc ccd0 c63b c9b5 273c
00000370: 1b97 2a3a aa99 7d3c a63f adbb 7134 6bbb
00000380: 638b 05bf 3691 c13e 1c20 d53b b3f2 87ba
00000390: ef96 143f 3c59 b0be 248f 08be f7fb 8ebc
000003a0: f790 543c ebb6 c13b 3a72 02bc 4f5b d2ba
000003b0: dccd edb9 53ae a3bb 684f e0bb 8cc0 42bc
000003c0: a2d3 b6be 8918 be3e 3240 483e d483 ac3c
000003d0: fcac 42bb b351 863b 3df5 76bb 498b 703a
000003e0: 60ef 06bb 8e04 7bba 8cb0 3fba fe02 5cbb
000003f0: a6a6 e1be 5ee8 fbbe e726 e2be 6b1b 24be
0.020183604 0.024325643 -0.010701819 -0.0076598823 0.0045644236 -0.2686172 0.2669456 0.4395066
-0.009769278 0.006609744 -0.007165556 0.0007332365 0.035533376 0.003898816 -0.025141753 -0.010842465
-0.012834388 0.028839298 -0.027784731 0.0006663827 -0.022842605 0.02442103 0.019487152 0.015679393
-0.019947441 -0.010543133 -0.0061305584 0.002493932 -0.21705031 -0.4471591 0.28873852 0.15429506
-0.004001833 -0.010265233 0.011135083 -0.006716979 0.34982404 0.6341745 0.29266882 0.049347676
0.0020781932 0.0057458915 0.00048317172 0.0005933873 0.35605228 0.008691036 0.53866565 0.13386095
0.008461828 -0.009717383 -0.012047237 -0.011269527 0.004451257 -0.008830667 -0.014158633 -0.0029320621
0.0121997725 -0.0031350798 -0.01731778 -8.184208e-05 -8.141135e-05 0.72423077 0.4257244 -0.20043871
-0.0040805414 0.0032129064 -0.01406152 -0.003795767 0.37266108 -0.083131224 0.013084584 0.0003426948
0.8250971 0.15355277 0.021432139 0.0113236625 -0.003946188 0.026730558 -0.00015748445 0.0029110694
0.014009442 -0.015303657 -0.007694125 0.0015245485 0.8078076 0.13461554 0.04237264 0.011174245
-0.3120581 -0.15891548 -0.031662833 0.009333235 0.0007717104 -0.006087255 -0.006143398 -0.002524105
-0.08043613 -0.3094193 -0.18014745 0.037168324 0.003494615 -0.0072887964 0.011052675 0.00795568
-0.008227745 -0.006570725 0.0009822731 0.003711263 -0.10577305 -0.07133287 -0.13585004 -0.1726357
0.00067329366 0.00229344 -0.013252409 -0.0036594141 -0.027662614 -0.0019745375 -0.0012385704 0.009760362
0.13006666 -0.6044586 -0.24930939 -0.05649778 -0.0152 -0.011134453 0.017805126 0.0066831023
-0.43931487 0.2875659 0.13197258 -0.010154233 -0.1755119 -0.06615884 0.07872903 0.0014864292
-0.0026850763 0.013509834 0.0010383753 0.005753291 -0.009322698 0.0026978916 -0.0016019429 -0.0063852
0.037768178 0.0026818556 0.057080515 -0.00028165596 0.17796926 -0.002799912 0.03362478 0.01125922
0.077920504 0.2649328 0.13619347 -0.039976276 -0.028565066 -0.016954947 -0.0030830386 -0.0033848272
-0.36682564 0.09830496 0.15009403 0.0680497 0.0034619276 0.0028853482 -0.0019810188 0.0012321081
-0.006820861 0.0017001136 -0.0010327911 0.0005012629 -0.43770885 -0.26343882 -0.34446988 -0.13309023
0.00021887996 0.0008961661 0.0072208983 0.0007654213 -0.1469899 -0.3574376 -0.63546574 -0.1374945
0.36933926 0.5853874 0.11902248 -0.022985505 -0.0044581126 -0.006587213 -0.008074054 0.006461452
-0.010689802 0.0024050793 -0.012237839 0.0019442121 -0.19389534 0.20864907 -0.022458987 -0.0071029225
-0.07559149 -0.0042262403 0.10675031 0.049906224 -0.021717181 -0.018036038 -0.009030665 -0.025625184
0.7366543 0.06384759 0.032089375 0.0051313816 -0.40150076 -0.12265798 0.00021345232 0.008069018
-0.030171454 -0.029789528 0.006067371 0.010236212 0.0006507502 0.015478531 -0.0052871285 -0.0035889412
-0.5216581 0.378061 0.006504072 -0.0010372013 0.58042806 -0.3444308 -0.13335854 -0.01745413
0.012974015 0.005911698 -0.007961804 -0.0016048941 -0.0004535754 -0.0049951463 -0.0068454035 -0.011886727
-0.35708338 0.37128094 0.19555739 0.021058954 -0.0029705158 0.004099095 -0.0037682795 0.00091760285
-0.0020589456 -0.0009575569 -0.00073123793 -0.003357112 -0.44072455 -0.4920072 -0.44170305 -0.16026084

l1.bias f4 [250]
00000000: 433b 5bbd df9a 253e fd81 33be aede a7be
00000010: 9c96 ebbe ed6c 2abd b5b9 523e 4bd2 8a3d
00000020: 3e38 5cbe 8da6 463d 1934 dbbe 7529 30bf
00000030: 7e99 b13d 220d aabc 4b48 dcbe e19a 0f3e
00000040: 9b5a 663e 9867 f53d 6ce1 d7be e6dc 553e
00000050: e6c2 183e 8a8c 44bf aed4 5b3d b1fe d0be
00000060: 50c9 923e 4224 d1be ead9 f9be fbce 2ebe
00000070: 7b99 dd3d 6556 92be 66a1 20be 5274 a63e
00000080: df52 553e be43 8ebe a5a3 72bd f17e 30bf
00000090: 898c a6be 8525 183e fb4a 49ba 9078 ebbd
000000a0: 1540 a73e 14bc 333e 597c 29bf 0c50 77bf
000000b0: 247e 37bd 44ee b53e 2f48 a03e 31de b33e
000000c0: 6f14 4dbf 1acb bebe 3c00 2c3e c40e 8dbe
000000d0: fafb 163d f160 2c3e 7027 8ebe 3124 a43e
000000e0: e240 0e3e 43fb 293e 9e28 b33e 9968 74be
000000f0: a314 5b3d f787 b4be eff4 993d 06da 21bf
00000100: 27ba 9f3e 3eea 75bf 83b5 ff3d 62a0 1c3e
00000110: de19 8f3e 60fa 21bd bb15 963e 5629 543e
00000120: 9d6f d9be e423 c63c 0085 533e 2d35 8b3e
00000130: 62a4 82be 64ca 313e 1144 9fba 23a8 ec3b
00000140: 2f60 7cbe ea59 af3d 25d3 213c c8e4 8bbe
00000150: faf5 02bf 41d8 383e 536b 703d 18d3 10be
00000160: c5ef 54be 0bf9 50bc 94d8 353e 8f36 b4be
00000170: 226e 13be 4985 983e 4e5a d63d 63c3 00bf
00000180: e40b 0c3d 96f5 18be f8fa 5abe 4601 c7be
00000190: 0931 4b3e eea3 88bc a5d6 2abf ec7e 0dbe
000001a0: 895c 87bf e034 b9be ba8a c83d 1df8 f7be
000001b0: a166 c5bd efae 383e 0eba 22bf 566e 11bf
000001c0: 7270 7c3e 5fc2 4ebf 6cbc 0cbf dd11 afbe
000001d0: 5557 11bf fd28 6ebd ea75 1a3e f2ac 00bf
000001e0: 47d5 673e 0457 62be 9230 fa3d 6af4 873e
000001f0: 0697 18bf 920d edbe dd21 6bbd dc01 ffbe
00000200: a096 9d3e 326d dc3d 474c 0cbf 3784 cebe
00000210: c329 17bf d134 1bbf d0a3 c7bd 5757 75be
00000220: b3cb 85bd 330c 7cbd 4787 1f3d ec2e 14bf
00000230: cd28 2fbc 81eb a13d 415f fdbe 8e3b 37be
00000240: f918 953e be75 01bf 48f2 eabc 5869 663e
00000250: bffe 62be bb5e 253d b950 0abe f38d 0bbf
00000260: 96b5 e3be b805 f1be d2b4 babe 543f 88be
00000270: 3227 bdbe ab4f 473e 526e 4cbd e739 aebe
00000280: 17a6 77ba bef2 2bbf 7aba a4be 8186 80bd
00000290: 97b2 0abf 190c 96be 250c 95bd 1bab c2be
000002a0: 9ca9 b3bd b738 6dbe cc20 673d d422 c2bb
000002b0: 4081 9b3e e4ff e6bd e073 92be 533b 7d3e
000002c0: dd89 0abf 5405 5abe 4173 d0bd d8a8 80be
000002d0: e2ca d6be 36fe 8c3e 9c97 05bf 6b2d 11bf
000002e0: 0bc2 80be 349f c63d 8312 603e 049e 76be
000002f0: d3ea 0f3e 0fb1 103e 7ce8 023e a064 bc3e
00000300: 3014 453d b127 d33d 72b6 8fbe 36e7 f73d
00000310: 4136 c4bc 762e c1be 4712 92be 35ca 0dbd
00000320: a99c 773d 7c6b dabe bb72 9bbe bcfa e9be
00000330: 3e46 59be 24d8 eebd 0891 da3d 7938 8e3e
00000340: ffb3 d7be 82d9 e5bd 12e4 babe 7145 553e
00000350: 9457 45be 0ffb b2bd 8739 41bf 77b5 94bd
00000360: abb8 8e3e f574 b0be a7ac 8abe a6f3 11bf
00000370: 577e 23bf 8606 0abf 0e66 c03e c0a8 c1be
00000380: 24e9 55bd dd7b b5bb ef50 9dbe c9f4 2a3e
00000390: b9cc a93c b983 77be 62c4 673e 1c97 bdbe
000003a0: b24d 92be ffde 09be 58ba b1be e1e1 c6bd
000003b0: e8b2 debe 34f5 a6be e57e 353a 16a4 fe3d
000003c0: 60c4 b6be ddb4 0ebf 0c7f f83d 7117 24bc
000003d0: c346 77bd ca63 80be b264 663e fb77 6cbe
000003e0: 66b6 a9be bda5 13bf
-0.053523313 0.1617236 -0.17530055 -0.3278708 -0.46013343 -0.041607786 0.20578654 0.067783915
-0.2150583 0.04849868 -0.42813185 -0.6881326 0.086718544 -0.020758215 -0.43023905 0.14023925
0.224955 0.119826496 -0.4216417 0.20885047 0.14918098 -0.76776946 0.053669624 -0.40819314
0.28669214 -0.40847975 -0.48799068 -0.17071144 0.1082029 -0.2858154 -0.15686569 0.3251062
0.20832394 -0.27786058 -0.059238095 -0.689437 -0.32529095 0.14858063 -0.00076787145 -0.11497605
0.32666078 0.17552215 -0.66205364 -0.96606517 -0.04479803 0.35533345 0.31305072 0.35130456
-0.80109304 -0.3726433 0.16796964 -0.27550328 0.036861397 0.16833855 -0.27764463 0.32058862
0.13891938 0.16599755 0.34991926 -0.23868026 0.053486478 -0.35259983 0.075174205 -0.632233
0.3119671 -0.9606055 0.124857925 0.15295556 0.27949423 -0.039545417 0.29313454 0.20718893
-0.42467967 0.024187036 0.20656204 0.27189007 -0.2551604 0.17362362 -0.0012151023 0.007222192
-0.24646066 0.085620716 0.009877001 -0.27322984 -0.5115658 0.18051244 0.058696102 -0.14143026
-0.2079459 -0.012754689 0.17758399 -0.35197875 -0.14397481 0.29789189 0.10466443 -0.50298136
0.034191027 -0.14937434 -0.213848 -0.3886816 0.19842924 -0.01667973 -0.6673377 -0.13817948
-1.0575114 -0.36173153 0.09792085 -0.48431483 -0.096387155 0.18035482 -0.63565147 -0.56808984
0.2465227 -0.80765337 -0.5497501 -0.34193316 -0.56773883 -0.05814456 0.15084043 -0.50263894
0.22639953 -0.22103506 0.12216295 0.2655366 -0.59605443 -0.46299416 -0.05740534 -0.49806106
0.3077898 0.10763015 -0.5480389 -0.40335247 -0.590481 -0.60627466 -0.09748042 -0.23959099
-0.06532993 -0.06153507 0.03894737 -0.578841 -0.01069088 0.07906247 -0.49486735 -0.17893812
0.29120615 -0.50570285 -0.028679982 0.22501123 -0.2216749 0.040373545 -0.13507356 -0.5451347
-0.44474477 -0.47074676 -0.3646608 -0.26610816 -0.36943966 0.19463985 -0.049909897 -0.3402855
-0.00094470516 -0.6716727 -0.3217352 -0.062756546 -0.54178756 -0.29306105 -0.07277707 -0.38021168
-0.08772585 -0.23166166 0.056427762 -0.005924562 0.30372047 -0.11279276 -0.2860403 0.24729662
-0.5411661 -0.21291095 -0.10178233 -0.25128818 -0.41951662 0.27537698 -0.5218446 -0.5670993
-0.25148043 0.09698334 0.21882062 -0.24083716 0.14054422 0.14130042 0.12783998 0.3679552
0.048114955 0.10310305 -0.28068882 0.12104647 -0.023951652 -0.3773076 -0.2852957 -0.034616668
0.060452137 -0.4266013 -0.3036097 -0.45699108 -0.21218202 -0.11662319 0.10672194 0.2777746
-0.42129514 -0.11223127 -0.3650213 0.20827271 -0.1927169 -0.08739292 -0.75478405 -0.07261174
0.27875265 -0.3446423 -0.27084848 -0.57012403 -0.63864654 -0.53916204 0.37577862 -0.3782406
-0.052224293 -0.0055384473 -0.3072581 0.1669494 0.020727502 -0.24171342 0.22633508 -0.3702935
-0.28574902 -0.13463973 -0.34712481 -0.09711052 -0.4349587 -0.3260895 0.0006923511 0.12433641
-0.35696697 -0.55744725 0.12133607 -0.0100153545 -0.060370218 -0.25076133 0.2249935 -0.23092644
-0.3314697 -0.5767477

l2.weight f4 [130, 250]
00000000: a3c5 b53b 25ad 0ebd 2443 bd3b 1377 e2bd
00000010: 3726 a7be 6ede 62be f2f5 09bc 3cb7 b5bc
00000020: adca 61bd 517f 493d b7d9 c8bd 37ec 803d
00000030: bc65 753d ba8d 41bd c9b5 46be 719a 7dbd
00000040: a3c2 4cbe 1f84 c23d 06f7 0d3d a239 d93c
00000050: fb03 23bc 3f09 c43e 16ea 9b3b 6e8a afbc
00000060: 45e7 ba3d f2dd bbbc 47bb 913d 15df 92bd
00000070: bcc4 0ebd c0e8 56bc 7397 71bd 7dd0 593d
00000080: abf1 a23d 3d94 e73d 81bf e43d 79b5 653e
00000090: 0bf8 64bc f320 7f3d 4428 373d d0ae 493d
000000a0: b3b6 a73d b550 29bc 4d95 a33d 4ace 53be
000000b0: 5960 2bbe 9274 523d ea44 7c3e 4a3b fc3d
000000c0: 0352 d4bd 97ec 3fbd 169d 71bd 5faf fbbc
000000d0: c475 063d 9b43 3cbd 5d7b 5abd de06 9e3d
000000e0: 0305 25bd 246f aebc 6156 a93d 5af8 aabb
000000f0: 5102 0f3e 5535 9a3d 7ac7 6ebc 41f1 e5bd
00000100: c67f 413e 561c fe3d b038 3f3d 72b9 ecbd
00000110: 899b 8a3d 8960 9b3d 03dc 2b3e d424 be3d
00000120: 21a1 23be 6f33 d8bc 44c4 273d 5a27 c33d
00000130: 7f92 d73c 8f14 713d 02a5 5f3d d1c3 29be
00000140: 9e79 193d ab6a e2bd 9e85 95be 5b0b ab3d
00000150: 17b4 66bd 39fc 463d 7501 463d 4c47 383d
00000160: ba49 a03d 6293 633d 4d00 cebb bd7b 1abd
00000170: dca5 2a3d c0ef 253e b604 8f3b 6ff5 4b3d
00000180: 52fc 463e 86f0 163e 2587 6739 4ae9 803e
00000190: 212f ee3d 66fb 453d f4ea 48be 84c8 cabd
000001a0: cf91 b6be 7860 eebb 402f 953d 6522 503d
000001b0: 157b fcbb b196 65bc 324d c73e 2d3e 92be
000001c0: 00d7 da3d 3481 493e 6387 a13c b094 79bd
000001d0: f60e a3bd 5be1 d1bc 7a83 b53d 1206 40bd
000001e0: 61a7 d9bc 283c f03d c230 d83c edaa 5a3d
000001f0: f17c 3d3d 5370 91bc 576c 0f3d 8d3b 7e3d
00000200: c221 143e cd2e 82bc 95f2 01be 34ad 003b
00000210: 26d8 0f3e 07da e9bd 3b82 edbd 4268 2a3c
00000220: 8560 893a ca32 083b 8fbc 833d fff4 27be
00000230: 556c 14be 3f12 143d f197 f1bd d909 083d
00000240: 1d9c 933a eb16 34be 78ff 1cbe 8e7b f23d
00000250: 7300 133d e687 baba c34a cdbd 41c1 2abd
00000260: d708 acbc be34 d53c d2c6 dcbc 05e7 563e
00000270: 5df7 093e 15a4 70bd 91e5 bbbc e038 4abe
00000280: 7407 383c 6d8c 073d b737 883c 8028 2bbd
00000290: aff1 20be 7d0d 5bbe 4454 583d cf81 6abd
000002a0: b8f8 89bb fd75 aabd d102 e6bc b811 743c
000002b0: 1a6e 813c 0ab2 0abe 2d85 b8bc 4e03 81bd
000002c0: b092 e43b 85c8 b43d 6d7b f6bd b3dc 4abd
000002d0: ed2f 89bd ab3e 013e 7a5d bebd 524f d8be
000002e0: 7534 52bc e7f1 2fbe c2af ed3d c5fb a5bd
000002f0: 351e 9fbc 8df4 fe3c e0c8 5e3d 3e6f d63d
00000300: 8301 59be a385 d73d c85e 8a3d 80fa 153d
00000310: 00e2 223d 5532 ca3c 93db 02bd 0b26 d7ba
00000320: 711e 313d f253 6b3e 405f 6ebd 1ca8 b5bd
00000330: 21fa de3c 99ae 9e3b 86ad d9bd dcc8 fa3d
00000340: ed15 81be 0dff 863d 3188 043d 69b1 913d
00000350: 180e 433c ef22 bd3c 8ac1 29be 17e8 123b
00000360: 134b e33d 9382 c0bd a6f9 ca3b 7168 84be
00000370: d51f 1abe 83b7 9e3c cb56 f93d fceb debd
00000380: 28d6 9e3b 14cb 873b 79d2 eabd 1c48 2abd
00000390: 429a dabc 0448 06bd 1455 303e 078a d73d
000003a0: 2823 58bd f5a5 263d cfdf 9a3d 3f9c f03d
000003b0: 9d56 11bd b11f 2bbb 7cec bd3d 4721 173d
000003c0: 0f01 30be 0c8a 4cbb 183d 873d 5102 093d
000003d0: b184 123e ea4f 7e3c 3d8e 373e 977b cfbd
000003e0: 4300 f5bb 09d9 2ebe 8f03 813c 8b2e 373c
000003f0: bac1 41bd 5517 5c3d ff0f 08be cb53 0abd
0.005547242 -0.034833092 0.005775826 -0.11057868 -0.32646343 -0.22155163 -0.008420454 -0.0221821
-0.055124927 0.049193684 -0.09807151 0.062950544 0.059911475 -0.0472543 -0.19405283 -0.061914865
-0.19996123 0.09497856 0.034659408 0.02651674 -0.0099496795 0.38288304 0.00475813 -0.021428313
0.091261424 -0.02293298 0.071157984 -0.07171456 -0.03485559 -0.013117015 -0.058982324 0.053177346
0.07956251 0.11307571 0.11169339 0.22432508 -0.013975154 0.062287282 0.044716135 0.04923898
0.08189144 -0.010334183 0.07987461 -0.20684162 -0.16735972 0.0513807 0.24635664 0.12315996
-0.10367205 -0.04685649 -0.0589877 -0.030723272 0.032827154 -0.04596291 -0.053340305 0.077161536
-0.040287983 -0.02129323 0.082684286 -0.005217594 0.13965727 0.075297035 -0.014573926 -0.11227656
0.18896398 0.124077484 0.04668492 -0.115588084 0.06767947 0.07586772 0.16783147 0.09284368
-0.15979435 -0.026391713 0.040958658 0.0952899 0.026314972 0.058857497 0.054600723 -0.16578604
0.0374695 -0.110555016 -0.29203504 0.08351775 -0.05632409 0.048580382 0.048341233 0.04498987
0.07826562 0.055560477 -0.006286657 -0.037715662 0.041662082 0.16204739 0.0043645753 0.04979461
0.1943219 0.1474019 0.00022080222 0.25177985 0.11630083 0.048335455 -0.19620878 -0.099015266
-0.35658118 -0.0072746836 0.07284403 0.05081405 -0.007705102 -0.014012978 0.38926083 -0.2856306
0.10685539 0.19678193 0.019717878 -0.060932815 -0.07961838 -0.025620153 0.08862968 -0.04688079
-0.02656907 0.11730224 0.026390437 0.053385664 0.04626173 -0.017753756 0.03501543 0.06206851
0.14466003 -0.015891457 -0.12690194 0.0019634487 0.14047298 -0.114185385 -0.11597105 0.010400834
0.0010481036 0.0020782226 0.06432449 -0.16402052 -0.1449445 0.036150213 -0.11796559 0.033212516
0.0011261735 -0.17586868 -0.15331829 0.118399724 0.0358891 -0.0014231175 -0.10024025 -0.041688208
-0.021000309 0.026026126 -0.026950274 0.20986564 0.13473268 -0.05875023 -0.022936614 -0.19748259
0.011232246 0.033092905 0.01662813 -0.04178667 -0.15717195 -0.21391864 0.052814737 -0.0572527
-0.004210558 -0.08323286 -0.028077515 0.014896803 0.01579957 -0.13544479 -0.02252444 -0.062994584
0.0069754943 0.088273086 -0.1203526 -0.04952688 -0.06698594 0.12621562 -0.09295173 -0.42248017
-0.01282989 -0.17182122 0.11605789 -0.08104662 -0.019423584 0.03112247 0.054390788 0.104704365
-0.21191983 0.10523536 0.06756359 0.03661585 0.03976631 0.024682203 -0.031947684 -0.0016414536
0.04324192 0.22981241 -0.058196306 -0.08869955 0.02721888 0.004842591 -0.106288 0.12245342
-0.2521204 0.06591616 0.032356445 0.071139164 0.011905216 0.023087947 -0.16577736 0.0022416168
0.11098304 -0.09399905 0.006194311 -0.25860932 -0.15051205 0.019374615 0.121747576 -0.10884854
0.0048473068 0.004144082 -0.11465926 -0.041572675 -0.026684884 -0.032783523 0.17219955 0.105243735
-0.052767903 0.040685613 0.07562219 0.117485516 -0.03548299 -0.002611142 0.092736214 0.03689697
-0.17187904 -0.0031210212 0.066034496 0.033449475 0.1430843 0.015521983 0.17925353 -0.10130995
-0.007476838 -0.1707498 0.015748767 0.01118053 -0.047303893 0.05373319 -0.13287352 -0.033771317

l2.bias f4 [130]
00000000: cac8 f93d 6935 2f3e 3552 2a3c 2141 b8bc
00000010: 33ad 173e 8020 b93c efcb c23c a658 0bbd
00000020: 0f4f c23d d935 c6bd f44a 92bd 02b3 283d
00000030: adba 57bd ee14 653e e6fc 84bc 78f2 98bd
00000040: 5b3a 4b3d 5ebe 9cbd bb21 8b3d 77e0 1cbd
00000050: 8a2b 1e3d 288c 6abd 958f a3bd c5ee a93d
00000060: a771 7639 5107 69bd fb8c e63d 3d95 bf3d
00000070: b43e 4fbd 5e26 54bd 794b b2bd 491c 09bd
00000080: 7fc2 80bd 4730 cabd 2b30 b6bd 00ab 043d
00000090: e6b0 0ebd 2e1d 90bc 9937 c1bd ef99 c2bd
000000a0: 7bb7 983d 32f1 a8bd 4910 0a3e 1af7 80bd
000000b0: 0ae6 49bd 0187 b8bc d052 abbd 8590 0b3e
000000c0: 6eba 3b3e 751d 9ebc be96 30bd 170d 8ebc
000000d0: 60dd 85bc 0740 f9bc 8505 073e 24bb 14bd
000000e0: 242c 413d a45e 00be 7059 7fbd dd17 343e
000000f0: 80cb 10bd b739 dc3d 45f6 3fbd b9ab 983d
00000100: e365 acbd 21ea c93d f78c b0bd 8909 cabb
00000110: 4e77 0e3e bb80 15bd 6e66 38bd b88b 90bd
00000120: 99e9 cdbc 809d d3bd 0ff4 82bc ce1b f1bd
00000130: 722e b13c 1b12 53bd 94ba 75bd 494f f0bd
00000140: c5eb 54bd 5329 efbd ce80 d7bd cb26 55bd
00000150: 739f 25bd ae8e efbd c31c 94bd b4e6 ddbd
00000160: ac81 a2bd bfab f6bd 597d 183e 6c39 bbbd
00000170: af6f 88bc e354 c6bd 14f0 0fbd ca69 c63d
00000180: cc54 8ebd 092e 8c3e e424 a13d 3f94 633d
00000190: dd71 bfbc a8d4 1cbd 21b2 64bd 31fc bebd
000001a0: cb11 bebd 6498 f3bd cb35 97bd 9904 f2bd
000001b0: 5349 183e 1f91 25bd 631a acbd 88e9 10bc
000001c0: 2595 66bd 6598 e0bd 6aa1 36bd ecb1 383e
000001d0: 8168 ae3d dde3 8bbd 4c67 dbbc 7f13 8fbd
000001e0: 6782 3d3e 6600 7abd cf41 89bd 44bc c9bd
000001f0: 7836 d4bd 4684 e5bd ac05 99bd 0ebc 4c3b
00000200: 03d5 ad3d f2a9 e0bd
0.121965006 0.17110218 0.010395576 -0.022491993 0.14812164 0.022598505 0.023778884 -0.03402009
0.094877355 -0.096782394 -0.071432024 0.04118634 -0.052668262 0.22371265 -0.016233873 -0.07468122
0.0496162 -0.07653497 0.06793543 -0.038300004 0.03861574 -0.05726257 -0.079863705 0.08297495
0.00023502727 -0.056891743 0.11257359 0.09354637 -0.050596908 -0.051794402 -0.087058015 -0.03347424
-0.06287097 -0.098724894 -0.08895906 0.03238964 -0.034836672 -0.017592039 -0.094344325 -0.09502017
0.07456871 -0.08249129 0.13482775 -0.06297131 -0.049291648 -0.022525312 -0.083654046 0.13629349
0.18332836 -0.019301156 -0.04311251 -0.017340226 -0.016340911 -0.030426038 0.131857 -0.036311284
0.047161236 -0.12536103 -0.062341154 0.17587228 -0.035350323 0.10753196 -0.04686572 0.074546285
-0.08417871 0.0985911 -0.08620637 -0.0061656875 0.13912699 -0.03649972 -0.04501956 -0.07057899
-0.025135802 -0.10332775 -0.015985517 -0.117728814 0.021628592 -0.05153094 -0.059992388 -0.117338724
-0.05198266 -0.11677804 -0.105226144 -0.05203895 -0.040435266 -0.11697136 -0.07232048 -0.10835019
-0.07934889 -0.12044477 0.14891566 -0.09141812 -0.016654817 -0.096841596 -0.035141066 0.096881464
-0.069497675 0.27378872 0.078683645 0.0555613 -0.023369724 -0.038288742 -0.05583394 -0.093254454
-0.092807375 -0.118943006 -0.07383307 -0.11817283 0.14871721 -0.0404216 -0.0840347 -0.008844741
-0.05629458 -0.10966567 -0.04458753 0.18036622 0.08516026 -0.06830571 -0.026782654 -0.069861405
0.18506776 -0.061035536 -0.06702005 -0.09850362 -0.103619516 -0.1120687 -0.07471785 0.003124002
0.084878944 -0.109699145

l3.weight f4 [50, 130]
00000000: 934f 04be 41f5 06be 11f0 7dbd bd52 893c
00000010: 93c2 12bc 6488 ccbc 5482 b1bd 780c 993c
00000020: d449 e1bc ebe8 f23b 2dde 0ebe 1e0a 11be
00000030: c3cb df3b b72e 9cbd 962f 493c 8d85 ccbd
00000040: f012 0bbe a1d6 b73c f31b 633c 669a 10bd
00000050: b873 12bc 50b5 873c 7eb7 debb 9fd0 debd
00000060: e1d2 d43c 052a d33b 7380 04bd a326 fbbd
00000070: 31ea cdbd c731 b13a 3873 1d3c 8d9d aebd
00000080: f592 12be c9f0 c43b 0c45 893a 4640 88bc
00000090: f502 b1bd 3065 65bd d943 9dbd a5ea bbbc
000000a0: 4ec7 89bd 6ce4 fdbc 60c1 1eba 80ea 88bd
000000b0: 9a9f 04be dfa2 e5bd d443 89bc 0c69 f7bc
000000c0: 8b3e 43bd 7627 dfbd 2da9 82bd aebe 98bd
000000d0: a71c b9bd 230e 0cbc 6d88 34bd 4de5 8abc
000000e0: ea3b f6bd 35ff 12be d67c 4c3b c198 07be
000000f0: 1a09 adbd 216b 00be 6472 e2bc 0e70 d0bd
00000100: ed7e 0cbc 8b20 4bbd eba1 c7bd 8894 edbd
00000110: f81d eabc c609 70bc 4542 87bb dfb0 073c
00000120: 2387 dcbc 5ec2 d3bb 1f0f b0bd 4c2b b5bc
00000130: d200 0dbe 9097 13bc 3651 5dbb c7d4 b7bd
00000140: b1f3 7abc fe40 4c3c 9fe4 8dbd 7ba4 0bbe
00000150: b69c aebc 3804 95bd 3052 6d3a 9ed9 4cbd
00000160: 77ab 60bd 057b 8dbc 24be 08be 44a0 e8bd
00000170: d7cc 87bd 4450 deba 30fd 463c 3eb8 f2bd
00000180: 9749 2cbc fc0d 0fbd 938e 0ebe 9dc7 04bd
00000190: 033b 13be 858a f4bd 902c ba3c e11d d9bd
000001a0: c482 09be 1b68 a23c e5d2 0cbe 82d5 82bd
000001b0: c5dd 8fbd f8f7 bfbd 8cc1 12be 0977 523c
000001c0: 588a f8bb 0441 483c e500 72bc 46f4 12be
000001d0: b070 c9bd e67a f5bd f029 bcbd 7300 d0bd
000001e0: 585a 74bd cab3 8e3c 4459 dfbd 2616 523b
000001f0: 4f65 103a 0490 bbbd 19c5 db3c 555e 03be
00000200: 3f80 573b 88e5 bebb b14c 82bd c8c2 0e3b
00000210: 802f a7bd 6fad 45bc 8799 debd e47d c3bd
00000220: 1ffb 6d3c c690 253c 1309 abbc 7a1b ab3b
00000230: 4e81 62bc 7464 71bd 8da2 44bc b08e 05bc
00000240: 9d33 f8bd 17c8 603c 1c2b e6bc febc 73bd
00000250: c842 bfbd 5f87 8dbd 2c35 78bd ddfc 69bd
00000260: 3e7a efbd 4d12 ff3b f6ce d2bc 1016 5abd
00000270: a30b c2bd 2ac5 bbbd 5e83 f9bd a46f febc
00000280: e2f1 8abd f9b2 b2bd 0125 ecbd 8ed7 8b3c
00000290: 2875 8abc cae5 67bd aaff 40bd f0d4 d6bd
000002a0: e8f4 3ebd 3aa4 eabd 8e0b 70bd e06e c7bd
000002b0: 1bb3 cabd 6b03 bebd 2e2b 3ebd da06 a53c
000002c0: 7ea4 2f3a 0665 403c 8d70 6bbd ab7a 84bd
000002d0: 608c 0fbd 1229 08be 682f b3bd 371e d03c
000002e0: 86b2 e8bc e7b3 bdbd d290 13be 3b91 c5bc
000002f0: 3500 f5bd 4fb4 dfbd e2ea dfbd a96c 9fbd
00000300: 10c5 92bd 3f1d 90bd 4234 c83c 949e f8bb
00000310: 6cce d5bc 9928 00be fd40 d6bd 1dca 85bc
00000320: 33ef e1bd 5e8c 70bd 92ef dabd 3db0 43bc
00000330: ac2d 41bd 8bd1 e839 9ec2 febd 0616 c2bd
00000340: 79cb a8bd e7f1 7ebd db8c b43c a670 c9bd
00000350: dff6 61bd 532b 19bd b85f 67bd 7048 10be
00000360: 4825 0b3c 2242 83bd 539b 05bd bff0 44bd
00000370: 0d53 dabd 524d bdbb f47c e0bd 6dc1 cb3c
00000380: 0a18 20bb da7e aa3b a736 37bc c103 c33c
00000390: 787b 2bbd 81b0 fbbc 8c4d 0fbe e97f 7dbc
000003a0: 6904 983c 391a d9bd 85b2 6b3c 2324 75bd
000003b0: 8dd6 f3bd 0585 12be 5849 83bd 2a9e aa3a
000003c0: 8ca8 bdbd 7cc3 03bd d3bc 04be 65e9 e13c
000003d0: cdae 773c 93cb 30bd b3f4 01be cf14 0ebd
000003e0: cd7e e5bd 90bd 15bd 32ea 30bd 6829 34bb
000003f0: fb57 5abc 81d5 84bd b95f 04be eb4a 0e3b
-0.1292098 -0.13179494 -0.061996523 0.016763085 -0.008957523 -0.02496738 -0.08667436 0.018682703
-0.027501024 0.00741302 -0.13951941 -0.14164016 0.00682971 -0.07626098 0.012279412 -0.0998641
-0.13581443 0.02244121 0.013861644 -0.035303496 -0.008938722 0.016565949 -0.0067967763 -0.10879635
0.025979461 0.006444218 -0.03234906 -0.12263229 -0.10054434 0.0013518863 0.00960999 -0.08526144
-0.14313872 0.006010149 0.0010472848 -0.01663221 -0.08643142 -0.056004703 -0.076789565 -0.022939036
-0.067274675 -0.03099271 -0.0006056037 -0.06685352 -0.12951508 -0.11212706 -0.016755976 -0.030201457
-0.047667067 -0.108961985 -0.06379924 -0.07458244 -0.09038668 -0.008548292 -0.04407542 -0.016955042
-0.120231465 -0.14355166 0.0031202338 -0.13241865 -0.084490016 -0.12540866 -0.027642436 -0.10177623
-0.008575183 -0.049591582 -0.0974768 -0.11600596 -0.028578743 -0.014650768 -0.004127773 0.008281915
-0.026919907 -0.0064623794 -0.08596634 -0.022115372 -0.13769844 -0.009008303 -0.003377033 -0.08976131
-0.01531689 0.012466667 -0.06928372 -0.13636963 -0.02131496 -0.07276195 0.00090530794 -0.050012223
-0.05485102 -0.017270574 -0.13353783 -0.11358693 -0.06630867 -0.0016961177 0.012145326 -0.11851548
-0.010515592 -0.034925446 -0.13921575 -0.03241693 -0.1437798 -0.11940483 0.022726327 -0.10601402
-0.1342879 0.019825032 -0.13752325 -0.0638838 -0.07024721 -0.09373468 -0.14331645 0.012845763
-0.0075848512 0.012222532 -0.014770721 -0.14350995 -0.098359466 -0.11986332 -0.091876864 -0.10156336
-0.05965647 0.017419714 -0.10905698 0.0032056659 0.000550826 -0.09158328 0.026827382 -0.12828954
0.0032882837 -0.005825702 -0.06362284 0.002178358 -0.08163357 -0.012065276 -0.10869127 -0.09545496
0.014525204 0.010105317 -0.02087835 0.0052217813 -0.013824774 -0.05893369 -0.012001646 -0.008151695
-0.121192195 0.01371958 -0.028096728 -0.05950641 -0.093389094 -0.069105856 -0.060597584 -0.057125915
-0.11693238 0.007784164 -0.025733452 -0.053243697 -0.09474876 -0.091684654 -0.121832594 -0.031059094
-0.06784417 -0.087255426 -0.115304954 0.017070558 -0.016901568 -0.05661563 -0.04711882 -0.10489833
-0.04662028 -0.11457105 -0.05860477 -0.097379446 -0.09897443 -0.09277996 -0.046427898 0.020144869
0.00067002315 0.011742836 -0.057480384 -0.064687096 -0.03504598 -0.13296917 -0.087492764 0.025405033
-0.02840544 -0.09262829 -0.14410713 -0.024117103 -0.1196293 -0.10923063 -0.10933472 -0.07784397
-0.07166493 -0.07036828 0.024438981 -0.0075872634 -0.026099406 -0.12515487 -0.10461614 -0.016331727
-0.11031952 -0.058727615 -0.10690226 -0.011943874 -0.047162697 0.0004440661 -0.12439464 -0.09476857
-0.08241934 -0.062242415 0.022039821 -0.09835939 -0.055167075 -0.037394833 -0.05648777 -0.14090133
0.008492775 -0.06409098 -0.03261883 -0.048081156 -0.10660372 -0.0057770396 -0.10961333 0.024872506
-0.002442839 0.00520311 -0.011182464 0.023805501 -0.041865796 -0.030723812 -0.13994426 -0.015472391
0.01855679 -0.10600705 0.014385824 -0.059848916 -0.11906157 -0.14308555 -0.064104736 0.0013017107
-0.092606634 -0.03216885 -0.12962656 0.027577111 0.015117359 -0.043162894 -0.12691002 -0.034687813
-0.11205826 -0.036557734 -0.043192096 -0.00274905 -0.01332664 -0.06486035 -0.1292714 0.0021712135

l3.bias f4 [50]
00000000: f86d bdbc fa76 15be e023 6d3c 0a14 463e
00000010: 7a79 b33c ab52 a3bc b99a 3cbd 4409 0e3e
00000020: 36d9 103d c678 c73d 8f70 153e 9872 7e3b
00000030: c516 723d b399 033c 18d7 11be 4cc6 f0bd
00000040: e6c1 3cbd 2eac 3fbc 139e 70bd 4ca0 abbd
00000050: 12b0 debd c6ab 16be a9fc b2bd 0852 c9bc
00000060: 166d 4ebd 6734 153d fe93 acbc 53e6 ccbd
00000070: 4217 563d e653 7fbc f496 db3d c1aa fd3d
00000080: 5147 8cbd 2f28 91bd f0fb 2e3e 520b 8dbd
00000090: 4b56 8ebd 0cb1 e9bd cf0b 77bd d06e c73d
000000a0: 17bf 05bd 400f 83bd f83f 04be 60be e9bd
000000b0: cb62 9b3c 03d2 063d 5fc4 0e3e 4be6 00bc
000000c0: f1ed 6e3e 638d 8c3d
-0.023123726 -0.14596167 0.014473885 0.19343582 0.02190851 -0.01993688 -0.046045993 0.13870722
0.0353634 0.097398326 0.14593719 0.0038825627 0.059103746 0.00803225 -0.14242208 -0.11756572
-0.046083353 -0.011698766 -0.0587445 -0.083801836 -0.108734265 -0.14713964 -0.08739597 -0.024575248
-0.050397 0.036426928 -0.021066662 -0.10004868 0.052268274 -0.015583968 0.107221514 0.12386084
-0.0684954 -0.070877425 0.17088294 -0.06886925 -0.06950053 -0.11410722 -0.060313996 0.09737933
-0.03265294 -0.06399393 -0.12915027 -0.11413264 0.018968007 0.032915127 0.13942097 -0.007867406
0.23332955 0.06862905

l4.weight f4 [10, 50]
00000000: 5d8a 48bd 7f3b d5bc c9af 48bd 508f 213e
00000010: de6a 91bd 60f3 e43d cbe8 13bc d6dd fd3d
00000020: 2b36 dabd dc72 a1be 12f6 873d 0e2d eebc
00000030: 3a09 4fbe 9abc 373e 4baf a3bd 8634 45bd
00000040: 32b5 03bd 9c98 413e 9a6a 4a3c 06da c33c
00000050: 2623 0b3e 84bb 233e e8d1 843d 851c 833b
00000060: bd6e 433c 14f3 173e a997 1cbb b510 653d
00000070: 5df3 1a3e 69bf 0e3d 5806 d13d 9e06 96bd
00000080: 4bce 60bd a0f6 603d 9efe ea3d 173f 5abd
00000090: 8c93 423e 64ad 3b3e ddeb a33c 502c 583e
000000a0: 69a5 933d 5cf0 0fbd e5fe bd3d 34d8 f2bc
000000b0: 6160 04bd 3608 b1bd b89d 8b3d 71ff 97bb
000000c0: c85f fabb e804 3fbd 5672 eabc 161d df3d
000000d0: e4ae 9f3d d54c 823e d938 35bc a3f7 a1bc
000000e0: 4abd b6bc 200f f03b 5e7a 843c ce60 c5bd
000000f0: 1f28 f0bd ecee 123e 7782 023e 29c6 34bd
00000100: 85bc fe3d c940 cc3d 0421 72bc e171 61bd
00000110: 3301 82bc b5b0 a23d bc78 2e3e 5576 063e
00000120: 6ea4 93bd a624 4a3e c17b 233c fcd1 eabd
00000130: 7aa3 f83d a27c 2b3e 6b17 0dbd 7d56 fcb9
00000140: 9a55 71bc 808f 673d 18e4 0f3d e27b 233e
00000150: 2f77 453e 39f1 083c 7629 1c3d 55b8 1c3d
00000160: 7101 b5bd 3589 823d 05f8 c1be b509 503d
00000170: dfbf 383d dc4c a63c 4fe2 64bd 7347 433e
00000180: 0384 20bb ec8e 22bd b5b6 06bc 87fc 3d3e
00000190: 3a3b 34bc 0138 d03c 4e8f 03be e67c 85bd
000001a0: 9cc5 c63c daa0 2e3e 9a17 5cbd b0b9 043e
000001b0: ae20 1d3e 04fd 803d 3f23 923e 24c1 713c
000001c0: 3b79 263e 309a 28bc c439 313c 4adb bfbb
000001d0: e539 443e 2122 4a3e b3b2 233e bd7b 063e
000001e0: 8c1d 33be 698a a03d bbf6 2e3e 9e6d 9e3d
000001f0: 4628 c53a 0afd 093e 2458 c2ba b069 d93d
00000200: 7904 87be eeb8 c63c 1536 5c3d c24e 27bd
00000210: 16c1 203d 12a6 9abb 61c7 873e 82b5 0c3c
00000220: b6ac 283d d5d2 1fbd 0af2 2d3e c823 0e3e
00000230: d211 42bd 3d1b 27bd c0e9 933c c2e0 123e
00000240: c734 5f3d c150 febd 09f8 423e de20 063e
00000250: ee07 76b9 dcd6 15be 300b 2e3e c544 85bd
00000260: 05f7 913e 2350 3b3e 05fb 2c3e 46e2 343e
00000270: a41e 293e 6c9c 9fbe a385 153e f8e5 4f3d
00000280: b0e3 383d 96e5 373c 1f8c 37be eb2d fb3d
00000290: e0e5 6fbd ad93 5b3d 68f7 08bd 7c26 8e3d
000002a0: 4da8 e53c 9cbf efbd 18a9 4d3d 801b 6fbd
000002b0: 9278 0dbc e76d 2ebd 3534 b13c 685a 4c3e
000002c0: bec2 07be 35f1 8fbd 1d19 48be bccd 243e
000002d0: 655e 6d3d 9bdf d3bd 7d63 ed3d 2bac 61bd
000002e0: 8653 35bc 61ae 473c f41e bbbd 6e8b 0d3e
000002f0: fff4 603c 83f8 9b3b 0fa3 083d 8ee8 633c
00000300: 2dff 9cbd 8ff3 353d e8fd 46bd 5cc7 21be
00000310: 6333 7cbc 2949 b43d b17f 74b9 75b5 a13d
00000320: 20c3 5b3d 6a30 95bd fe0b 53bd be38 e53d
00000330: ad16 9f3c 20af 95bd 8d54 c03d 5da9 753d
00000340: 71aa c13d 812a 2a3e 6b37 20bd 6229 543d
00000350: 9f6a ebbd 08e8 00bc d2d8 903d 658e 153e
00000360: 3a18 bd3d 7324 a63d 9b9b 1d3e 5721 c03d
00000370: 5129 4e3c b0b0 5ebd 19df 063e 7b64 d03d
00000380: 9baf 6f3c 45a1 0cbe 00d1 dd3d 1ae2 333c
00000390: dc18 9a3d 0825 ff3b 9fe0 4a3e 8fd8 783d
000003a0: 595b 083d d85e 273e 8602 533e 3d78 99bd
000003b0: bba3 3b3d 401a 5f3b fd4d ae3d c5b9 8fbd
000003c0: e9f4 f73d fa68 dcbc 3f96 b03c 3349 2f3d
000003d0: 3465 d83d 3ffe 313d 7cb4 3c3d 88ce 2f3e
000003e0: f147 34bf c417 c13d 4bcc 303e 2fd8 07bd
000003f0: c70a 08be 5e27 063e 4ca2 2cbb f722 edbc
-0.04896008 -0.026029347 -0.048995767 0.15777326 -0.071004614 0.111792326 -0.00902767 0.123958275
-0.10654863 -0.31532943 0.06638731 -0.029074218 -0.20218363 0.1794304 -0.07992419 -0.048145793
-0.032155223 0.18905872 0.012354517 0.023907673 0.13587627 0.159895 0.06485349 0.0040012025
0.0119282575 0.1483882 -0.0023894107 0.055924136 0.15131898 0.03485051 0.10206288 -0.07325481
-0.054884236 0.0549227 0.114743456 -0.053282823 0.19001597 0.18327862 0.02000993 0.21110654
0.07209284 -0.035141334 0.09277133 -0.02964411 -0.032318477 -0.08644144 0.06817192 -0.0046386053
-0.0076408125 -0.04663554 -0.028618973 0.108942196 0.077970296 0.25449243 -0.011060917 -0.019771403
-0.022307057 0.007326022 0.01617163 -0.09637605 -0.117264025 0.14348954 0.12745081 -0.044134293
0.12438301 0.09973294 -0.014778379 -0.055040244 -0.015869712 0.079438604 0.17038244 0.13131078
-0.07209097 0.19740543 0.009978236 -0.114658326 0.12140556 0.16746762 -0.03444616 -0.00048129624
-0.014729882 0.056533337 0.035129637 0.15965226 0.19283746 0.008358293 0.038125478 0.03826173
-0.088381656 0.063738264 -0.37884536 0.050790507 0.045104858 0.020300321 -0.055879887 0.19070224
-0.0024492748 -0.039687082 -0.008222272 0.18553363 -0.011000449 0.02541733 -0.12847635 -0.06517963
0.02426415 0.17053548 -0.053733446 0.12961459 0.15344498 0.06298259 0.28542516 0.014755521
0.16257183 -0.010290667 0.010816995 -0.0058549987 0.1916271 0.19739582 0.15986137 0.1313314
-0.1749174 0.078389 0.17086308 0.077357516 0.001504191 0.13475433 -0.0014827293 0.106158614
-0.263706 0.024258103 0.053762514 -0.040846594 0.03924664 -0.004719504 0.26519302 0.008588197
0.041180335 -0.039019424 0.16986862 0.13880837 -0.047380276 -0.04079746 0.018055797 0.14343551
0.05449369 -0.12417746 0.1903993 0.13098475 -0.00023463342 -0.14632744 0.16996455 -0.06507257
0.28508773 0.18292288 0.16892631 0.17664441 0.16515595 -0.31174028 0.1460176 0.050756425
0.045139015 0.011224171 -0.17924546 0.122646175 -0.058568835 0.05360763 -0.03343907 0.06940934
0.028034354 -0.117064685 0.05021009 -0.058375835 -0.008634703 -0.04258528 0.02163134 0.19956362
-0.13257882 -0.070284285 -0.1954083 0.16094106 0.05795135 -0.10345384 0.115912415 -0.055095833
-0.011067277 0.012187571 -0.09136763 0.1382272 0.013730287 0.0047598495 0.03335863 0.013910426
-0.076658584 0.04442173 -0.048581988 -0.15798706 -0.015393111 0.08803017 -0.00023317222 0.07895938
0.053652883 -0.07284625 -0.05152511 0.11192463 0.019419992 -0.07308793 0.09391127 0.05997597
0.09456337 0.16617776 -0.03911535 0.05179728 -0.11494946 -0.007867821 0.07072605 0.146051
0.092331365 0.08112421 0.1539139 0.09381359 0.012583093 -0.05436772 0.13171043 0.10175415
0.01462927 -0.13733394 0.10830879 0.0109792 0.07524273 0.007786397 0.19812249 0.0607534
0.03329024 0.16344774 0.20606431 -0.07493637 0.045810442 0.0034042746 0.08510969 -0.070178546
0.1210726 -0.026905525 0.021556018 0.042794418 0.10566178 0.04345536 0.04607056 0.17168629
-0.70422274 0.09428361 0.17265432 -0.033165153 -0.13285361 0.13100955 -0.0026341854 -0.028947337

l4.bias f4 [10]
00000000: a780 9f3e f5d7 d63d 66d8 7a3d da44 a23d
00000010: 9b87 6c3b 804a 7f3c 1af8 843e 001d 2d3e
00000020: 4f91 0d3e c935 213e
0.3115284 0.10490409 0.06124153 0.07923289 0.003609157 0.015581727 0.25970536 0.16905594
0.13824962 0.15743174

exp_avg f4 [250, 16]
00000000: 5d00 c534 98ae cb34 5466 27b4 4c7c 7932
00000010: 606a 86b5 82fe 2135 e7c7 85b5 8360 c8b5
00000020: 4623 9235 cab0 f534 4aff 6534 f0c5 4133
00000030: e47b 79b3 4142 2134 9b97 0e35 1bce efb3
00000040: f20b af33 66c7 e6b5 3128 8bb5 6ae5 5cb3
00000050: c267 e233 ff60 9cb5 7b1b d3b2 151e 8e33
00000060: b072 5eb4 7d69 6434 d1ae edb4 ec25 50b5
00000070: 7b70 c035 ef7f 1036 9277 6ab6 66d1 0934
00000080: 3706 4d34 2f08 6fb5 9d45 1a32 7a97 70b4
00000090: d622 eb33 d055 ad35 1ecb 85b5 588c 8bb4
000000a0: 919d 19b5 6869 c434 2213 85b4 3572 79b4
000000b0: 0212 0634 96cc 1bb3 5135 8534 44f4 c9b4
000000c0: 5a45 b934 e0e4 8eb2 7c8d 63b4 feee a833
000000d0: d0d6 c334 3445 9834 3bc3 87b2 1785 cbb3
000000e0: 5c5b ab34 dda5 2c34 481d 6d34 0bc8 47b3
000000f0: 4556 9d32 69fb 1135 ecff 0635 2279 3cb5
00000100: 4e66 d9b5 df15 5735 bb83 4634 9985 9134
00000110: def4 eb35 9f3f 0235 06a7 4c35 1cd8 1833
00000120: 9704 bd36 1c65 3336 cb0d 4b35 c25e 5934
00000130: dac5 e9b3 c96d 2e33 b729 7a34 8fc7 c233
00000140: 829f 60b5 03b8 e734 18df 0d34 bce6 efb1
00000150: fc26 2b36 5b63 14b4 ef5b 4734 b750 9eb3
00000160: 841f 26b5 816d bbb3 c42c 2934 4b5e b133
00000170: cc66 d6b3 4aa7 f7b4 dc85 2135 b97b 9c34
00000180: 50d6 4cb5 a8ff 0a35 68eb 8535 ddfd 8f35
00000190: 74d2 c334 a78e a934 a10a f334 8ccf 4b33
000001a0: db87 1b35 31dc 2835 409a 4435 e293 4035
000001b0: 7c45 22b6 b10a 18b5 b247 ee33 4d10 27b5
000001c0: 4d9e c135 5cc5 e0b5 10ad 2cb5 25be 00b5
000001d0: d060 9d35 d287 9db4 21f1 40b5 f542 aab4
000001e0: e45f 51b6 6459 bd36 5fe9 cb35 dadf a934
000001f0: b92b e7b4 bd81 ae34 120f f6b5 438a 97b4
00000200: 371b 4336 9fc5 2ab5 adea 2ab5 5d63 43b4
00000210: 03b1 37b4 4057 76b5 12c0 a2b5 003b f1b4
00000220: cfe4 6935 06d5 6a35 0c75 1433 614c 39b4
00000230: e426 2e34 df21 1834 1edd b4b4 e05b 54b4
00000240: a2b5 1034 557b d4b4 ab9f 35b4 1abb a034
00000250: 0882 61b6 bfa6 9135 04ef 0c35 8106 0034
00000260: 205f 0236 e959 71b5 6666 1635 0df7 9634
00000270: c171 fdb2 9049 8a34 bd52 b3b4 7a50 af32
00000280: cd74 0335 1b4d eab6 0411 a1b6 5fd6 d1b5
00000290: 6e93 38b5 0e20 b334 4e8d 64b5 7776 4234
000002a0: 0272 3ab5 626f 56b4 617b 27b5 6786 36b5
000002b0: db96 5b36 1e05 a436 5097 3636 f298 ff35
000002c0: 61b4 01b4 c35f b334 27d4 d1b3 a330 0c35
000002d0: 4ab7 18b6 5624 1e35 291e 81b6 001e 18b5
000002e0: 6b1f 8236 f660 1b36 0948 b435 538e 8734
000002f0: f199 81b2 29c6 7133 ca9c cd34 888e deb2
00000300: 4770 be33 82d2 45b5 cab9 a1b4 0d86 be34
00000310: 2eeb 72b5 7acf 5935 4102 6935 79a7 fe34
00000320: 6cc9 3236 b91c ab34 6101 b734 a3fd da34
00000330: b591 38b4 65f5 cd34 64bb 54b5 8ae8 8eb4
00000340: beeb ee35 7455 d6b4 187e b8b3 6796 6e34
00000350: 72f3 10b6 a29f d7b4 6c2b 92b4 87d2 87b0
00000360: e97b 3935 b336 7f34 9d07 7033 852a 3b34
00000370: f7b1 0ab5 0748 9db5 dadf cd35 8795 8d33
00000380: e46b 4eb6 afcf 4235 bab3 0534 421b a634
00000390: 30c1 c335 c821 7fb5 e0ad fd35 ce8d c434
000003a0: ba92 bc33 9036 0a35 b151 a7b4 868f 76b4
000003b0: b377 a934 fa7e 4e35 96de 88b5 242e ea34
000003c0: 17c2 e435 0a5a cfb6 e17a 37b6 65b9 0333
000003d0: 677c 7bb4 1670 36b3 f736 70b5 55b4 9bb4
000003e0: bced 77b5 c15f 8db5 4df9 b3b5 d12c f7b5
000003f0: 9935 7a36 4f1e a036 3a56 0db6 9001 9cb5
3.6694374e-07 3.793873e-07 -1.5590314e-07 1.4521969e-08 -1.0014737e-06 6.034753e-07 -9.967451e-07 -1.492925e-06
1.0888114e-06 4.5763437e-07 2.142016e-07 4.5116337e-08 -5.8087508e-08 1.5018396e-07 5.311974e-07 -1.1166795e-07
8.1512454e-08 -1.7194368e-06 -1.0368004e-06 -5.1431392e-08 1.05428185e-07 -1.1651135e-06 -2.457613e-08 6.617862e-08
-2.0717084e-07 2.1272531e-07 -4.4271886e-07 -7.754122e-07 1.4337851e-06 2.153214e-06 -3.4938316e-06 1.2835298e-07
1.9094374e-07 -8.9046347e-07 8.979808e-09 -2.2406849e-07 1.0949377e-07 1.2914479e-06 -9.968387e-07 -2.599288e-07
-5.722623e-07 3.6584538e-07 -2.4787101e-07 -2.323148e-07 1.2486274e-07 -3.627482e-08 2.4811973e-07 -3.7616894e-07
3.4509395e-07 -1.6635056e-08 -2.1192494e-07 7.866582e-08 3.6477877e-07 2.8362558e-07 -1.5804849e-08 -9.477133e-08
3.1917705e-07 1.6079089e-07 2.2082997e-07 -4.6515236e-08 1.8316436e-08 5.438256e-07 5.0291305e-07 -7.021173e-07
-1.6197534e-06 8.012557e-07 1.848811e-07 2.710556e-07 1.758013e-06 4.8521355e-07 7.6238973e-07 3.5586808e-08
5.6331733e-06 2.6731932e-06 7.5643464e-07 2.0244173e-07 -1.0885897e-07 4.061238e-08 2.329824e-07 9.0701285e-08
-8.3678617e-07 4.316099e-07 1.321281e-07 -6.982047e-09 2.5503678e-06 -1.381972e-07 1.8566764e-07 -7.37213e-08
-6.188568e-07 -8.727785e-08 1.5755637e-07 8.2593566e-08 -9.98385e-08 -4.6129054e-07 6.0171965e-07 2.9147284e-07
-7.630779e-07 5.1781035e-07 9.977784e-07 1.0728214e-06 3.6474705e-07 3.1582496e-07 4.527001e-07 4.7453383e-08
5.7939695e-07 6.29053e-07 7.3240153e-07 7.174077e-07 -2.4180326e-06 -5.663997e-07 1.109578e-07 -6.223607e-07
1.4425692e-06 -1.674674e-06 -6.432683e-07 -4.796041e-07 1.1725588e-06 -2.934235e-07 -7.187646e-07 -3.1713685e-07
-3.1199243e-06 5.6430454e-06 1.5192599e-06 3.1641576e-07 -4.3058915e-07 3.2504423e-07 -1.8332814e-06 -2.822654e-07
2.9073105e-06 -6.361751e-07 -6.3671433e-07 -1.8196938e-07 -1.71076e-07 -9.1769107e-07 -1.212584e-06 -4.4932676e-07
8.7132224e-07 8.7481783e-07 3.456539e-08 -1.7257254e-07 1.6219161e-07 1.4168425e-07 -3.3688497e-07 -1.9777463e-07
1.3477123e-07 -3.9577813e-07 -1.6915025e-07 2.9938457e-07 -3.36033e-06 1.0851871e-06 5.250188e-07 1.1923295e-07
1.942688e-06 -8.991033e-07 5.6028364e-07 2.811943e-07 -2.9504806e-08 2.5758027e-07 -3.3401548e-07 2.0409278e-08
4.897127e-07 -6.9827197e-06 -4.800155e-06 -1.5634104e-06 -6.875988e-07 3.336467e-07 -8.5142244e-07 1.8110755e-07
-6.94563e-07 -1.9970824e-07 -6.239189e-07 -6.7995865e-07 3.2721352e-06 4.8881766e-06 2.7208189e-06 1.9043493e-06
-1.2079683e-07 3.3411024e-07 -9.770911e-08 5.222484e-07 -2.2756453e-06 5.891246e-07 -3.8480107e-06 -5.666807e-07
3.8779594e-06 2.3153239e-06 1.343201e-06 2.5249264e-07 -1.5087581e-08 5.629241e-08 3.8298305e-07 -2.5909017e-08
8.8679876e-08 -7.369455e-07 -3.0123766e-07 3.5487793e-07 -9.0494257e-07 8.114072e-07 8.6802544e-07 4.743304e-07
2.664131e-06 3.187213e-07 3.408741e-07 4.079021e-07 -1.7189343e-07 3.8362774e-07 -7.9248844e-07 -2.6618756e-07
1.7800992e-06 -3.9922782e-07 -8.591104e-08 2.2220193e-07 -2.1599376e-06 -4.016302e-07 -2.7226213e-07 -9.882378e-10
6.9098184e-07 2.3768625e-07 5.588628e-08 1.74312e-07 -5.166798e-07 -1.1718374e-06 1.533884e-06 6.593023e-08
-3.0759193e-06 7.257285e-07 1.2451974e-07 3.0939742e-07 1.4584857e-06 -9.504406e-07 1.8900573e-06 3.661102e-07
8.7811216e-08 5.1488405e-07 -3.1165612e-07 -2.2962749e-07 3.1565796e-07 7.6925755e-07 -1.0197571e-06 4.3619468e-07
1.7043811e-06 -6.1795627e-06 -2.734065e-06 3.066943e-08 -2.3421454e-07 -4.247712e-08 -8.948695e-07 -2.900221e-07
-9.236062e-07 -1.0533187e-06 -1.3409095e-06 -1.8415977e-06 3.72841e-06 4.7719e-06 -2.1060828e-06 -1.162336e-06

exp_avg_sq f4 [250, 16]
00000000: 5509 5a30 4483 9430 1da3 762f a6b6 a32e
00000010: 6dd4 b731 ea6b 1531 185a 9431 6584 ad31
00000020: 8350 9531 d745 0c30 c160 fb2f b339 842e
00000030: d049 8330 97e8 0331 0c8d 8031 f45f 0330
00000040: c18b 0131 de4d 9a32 aa04 8531 624b 1630
00000050: a6a7 a631 24e5 9532 1c8e a531 efd8 8230
00000060: 2fd4 b830 d759 5530 bdb3 0b30 19df ef2f
00000070: a74b 7c31 770a 1233 9184 9d32 cfa5 bd30
00000080: 5523 dd30 b8be 6d30 5d95 db2f be91 fa2f
00000090: 9130 bd32 cc93 3334 2c19 ee32 0514 6030
000000a0: 0b22 6c30 97ff 4230 4949 0e30 e2cd bf2f
000000b0: 097c 9432 963a 0331 4ba3 f332 03eb 3a30
000000c0: b9d4 812f 9ce3 902f fd8d ee2e 812c d82d
000000d0: f7a5 442f 9998 bd30 2054 222f 51df 042e
000000e0: babf 8c2f b2c7 a42f ba68 5e2e b4f8 b02e
000000f0: 52b8 d530 7453 7b31 951a 1c32 a646 0d30
00000100: 8007 4231 6cf7 2030 7d80 742f ed57 e92e
00000110: b8f1 d030 7154 cc2f 8e90 ab2f 5413 192f
00000120: 29c7 6e33 32bc 0f32 d3d4 6730 6cc7 f32e
00000130: a775 2f2f d7cf 872f aa92 932f 43ef 392f
00000140: b7b2 5f30 43be 902f 4fc8 2e2f be37 402e
00000150: a20e 7f32 4a8e 7730 fb0b c02f c7ec 792e
00000160: b2d5 fc2f 2801 1e2f e0aa 202e 1fdf ca2d
00000170: a25e 112f 2146 472f c0b0 2e30 972c 462f
00000180: f0fa 2531 0fa6 af32 4a0e 7430 df8b 8531
00000190: 5f2b 0331 5ef3 d930 892e fb30 fe49 9b30
000001a0: b3a3 a230 74d5 7630 ec90 5d30 0325 4730
000001b0: b7dc 0832 2ab0 5f33 e444 ff31 6f2f 4a32
000001c0: 8ebd ac30 eadc 0031 5699 0b30 63bc 322f
000001d0: d34b 3d31 c39d e02f 88b3 b42f d9d2 b92e
000001e0: 4cd5 d931 a0fe 3c32 1d88 ca30 375b 1a2f
000001f0: f23c e42f f7f0 e52f b557 a930 297a 8e2f
00000200: e9dd 8832 7ea7 ef31 c9bf 3730 00c3 392f
00000210: 27c3 0131 43c2 7930 f7fb e130 3484 242f
00000220: 8c8b 942f 73b4 882f 9fd2 b62e 30ae 082f
00000230: dcfc 062f 12e1 1e30 794a cb30 2413 932f
00000240: 79c9 e22f 11d2 2530 48a9 c92f 7745 382f
00000250: a513 c731 c520 5931 e401 7b30 36fd 252f
00000260: 9d63 4d32 fd85 fb31 b263 4c31 77a7 ec2e
00000270: ae0e 622f b4ed e62f 609f 8d30 527c c82f
00000280: a0d9 b333 027d 6d33 2891 6933 5b99 ea31
00000290: f0bd 4a30 e82a 2b30 166f 3530 1dcf 2730
000002a0: 53a8 0030 6842 0d30 e0be 0430 8540 1030
000002b0: f71d e933 8881 8e33 19b4 5432 7054 0631
000002c0: 7ae6 792f 51fc 5c2f 843d 602f ac38 472f
000002d0: a029 5f32 790c 1831 1139 e432 86fe df30
000002e0: 8074 0633 cc58 9d32 0d4c 2631 e6c1 fa2e
000002f0: b2e0 5e2f f559 9a2f 63f3 b02f 7f41 772f
00000300: 0d92 8030 e34c ce2f 79de ed2f 34cd 7d2f
00000310: bf9e d332 3781 3d32 8735 f930 dc23 8f2f
00000320: f9fb 9b32 ad69 8531 9867 7731 6007 0630
00000330: ea10 8230 b243 1430 3e20 6731 a484 1830
00000340: 9823 4d32 6489 8a30 5eb8 862f 6d98 b52e
00000350: eb82 2e31 3cf1 8f2f f02e 8f2f 46e2 c02e
00000360: 81bf 1230 bdf2 ce2e 346e 872e 909c 0c2e
00000370: c40d 2b2f db7a 922f 13ab d02f 353b bb2e
00000380: c162 2134 4531 d032 0169 8530 c9b4 1630
00000390: 6e7f 2b34 571d 5632 b445 a430 d3bc 6f30
000003a0: b460 1b30 dda8 1c30 d6e6 ee2f 79f2 dc2f
000003b0: 8134 8230 37e5 1a30 1519 9230 a990 4b30
000003c0: a537 b432 c03b bc34 9d7d 8c33 3587 7331
000003d0: cc45 8131 6f2c a831 399d a031 1b9e af31
000003e0: ef40 9231 0106 8c31 841c 7731 6c24 7031
000003f0: 0418 8033 7a91 4b34 b38c a233 fb09 1131
7.93212e-10 1.0805725e-09 2.2431519e-10 7.444827e-11 5.350151e-09 2.1743696e-09 4.3176094e-09 5.050014e-09
4.345624e-09 5.103095e-10 4.5725382e-10 6.0129145e-11 9.552483e-10 1.919522e-09 3.7413255e-09 4.779388e-10
1.8851412e-09 1.796337e-08 3.8713397e-09 5.467681e-10 4.8502953e-09 1.7450084e-08 4.818288e-09 9.520401e-10
1.3448068e-09 7.761662e-10 5.082333e-10 4.3632367e-10 3.671383e-09 3.400279e-08 1.833749e-08 1.3798686e-09
1.6089908e-09 8.6491125e-10 3.9941997e-10 4.557829e-10 2.2024581e-08 1.6724442e-07 2.7718293e-08 8.1519175e-10
8.590468e-10 7.0940004e-10 5.1763444e-10 3.4888986e-10 1.7285872e-08 1.9096311e-09 2.836318e-08 6.800038e-10
2.3616112e-10 2.6355174e-10 1.0848209e-10 2.457612e-11 1.7885059e-10 1.3794931e-09 1.4763701e-10 3.021167e-11
2.5602082e-10 2.9973318e-10 5.0569972e-11 8.047732e-11 1.5550177e-09 3.6572745e-09 9.086439e-09 5.13959e-10
2.8234979e-09 5.855927e-10 2.2237319e-10 1.0611232e-10 1.5202692e-09 3.7167383e-10 3.120743e-10 1.3922136e-10
5.559483e-08 8.366486e-09 8.433975e-10 1.1085785e-10 1.5957956e-10 2.4704036e-10 2.6843355e-10 1.6910655e-10
8.1380896e-10 2.6328636e-10 1.5896372e-10 4.3705255e-11 1.4846281e-08 9.006028e-10 3.493311e-10 5.6826346e-11
4.5990373e-10 1.4370427e-10 3.6531556e-11 2.3063827e-11 1.3221294e-10 1.812386e-10 6.355201e-10 1.8023837e-10
2.4153302e-09 2.0448196e-08 8.878699e-10 3.886711e-09 1.9087663e-09 1.5857997e-09 1.827588e-09 1.1298764e-09
1.1833577e-09 8.9797614e-10 8.060528e-10 7.2448375e-10 7.966427e-09 5.2081454e-08 7.4293087e-09 1.1768733e-08
1.2568522e-09 1.8752027e-09 5.078581e-10 1.6255934e-10 2.754622e-09 4.085746e-10 3.2869374e-10 8.45028e-11
6.3397803e-09 1.1000935e-08 1.473612e-09 1.4038624e-10 4.1516263e-10 4.1826073e-10 1.2321296e-09 2.591645e-10
1.5933397e-08 6.974857e-09 6.6847555e-10 1.689493e-10 1.8882902e-09 9.0861735e-10 1.6442517e-09 1.4962681e-10
2.7020197e-10 2.4866473e-10 8.3138156e-11 1.2431012e-10 1.2277063e-10 5.779991e-10 1.479136e-09 2.6752744e-10
4.1252315e-10 6.032517e-10 3.6681969e-10 1.6759381e-10 5.7938956e-09 3.1596283e-09 9.1315955e-10 1.5096621e-10
1.195522e-08 7.320294e-09 2.9742577e-09 1.0761785e-10 2.0559796e-10 4.2005655e-10 1.0304397e-09 3.6468123e-10
8.374923e-08 5.5294556e-08 5.438156e-08 6.827731e-09 7.375709e-10 6.227041e-10 6.600528e-10 6.104857e-10
4.680533e-10 5.138987e-10 4.829257e-10 5.247858e-10 1.08553586e-07 6.635952e-08 1.2380974e-08 1.9547564e-09
2.27283e-10 2.0098524e-10 2.0394536e-10 1.8119078e-10 1.2989773e-08 2.2126e-09 2.6568644e-08 1.6297725e-09
3.1305262e-08 1.8317586e-08 2.419941e-09 1.1403127e-10 2.027061e-10 2.8076355e-10 3.218715e-10 2.2487788e-10
9.354736e-10 3.7525813e-10 4.3268125e-10 2.3083119e-10 2.4635822e-08 1.1030628e-08 1.8132348e-09 2.6037028e-10
1.8158959e-08 3.8828234e-09 3.6002117e-09 4.8759397e-10 9.463552e-10 5.3938287e-10 3.3633252e-09 5.548577e-10
1.1940664e-08 1.007987e-09 2.450546e-10 8.258003e-11 2.539475e-09 2.6182956e-10 2.60449e-10 8.7713434e-11
5.3386634e-10 9.4109144e-11 6.158665e-11 3.197137e-11 1.555725e-10 2.664454e-10 3.7956535e-10 8.514293e-11
1.503022e-07 2.4236792e-08 9.706868e-10 5.4826593e-10 1.5971975e-07 1.24631105e-08 1.1952381e-09 8.721603e-10
5.6526095e-10 5.699244e-10 4.3455967e-10 4.0190054e-10 9.473667e-10 5.635061e-10 1.0630027e-09 7.4056544e-10
2.0980062e-08 3.5061203e-07 6.542107e-08 3.543801e-09 3.762329e-09 4.894495e-09 4.674487e-09 5.111145e-09
4.2565413e-09 4.075219e-09 3.595944e-09 3.49453e-09 5.964833e-08 1.8958772e-07 7.569306e-08 2.110595e-09
