motion_planning/NN_model/models/model_02.pt (torch, 420530 bytes, 16 tensors)

l1.weight f4 [250, 48]
000000 cb 67 3f 3c 16 ff 5e 3d 3b a8 04 3c 5d 4e 55 3d
       0.011682461 0.054442488 0.00809675 0.052076686
000010 b7 ac 50 bd cd 9d b9 bc 5d b5 72 3e 93 bf c6 3d
       -0.050945964 -0.022658253 0.23701997 0.09704509
000020 2c a5 0a be 2b 13 17 be e7 92 2a 3d 60 0f 8d 3a
       -0.1353957 -0.14753406 0.041644003 0.0010762028
000030 65 fb f0 bb b4 f0 23 3d b5 a6 5a bb b6 72 b9 3d
       -0.0073541873 0.040024474 -0.0033363525 0.090550825
000040 ad 4a 22 bd f5 1d 6b bd 36 f4 3b bc 03 a0 5d bd
       -0.039621998 -0.057401616 -0.011471799 -0.054107677
000050 22 02 bb ba a6 31 0c 3d 21 20 a4 3d 82 b5 bc 3d
       -0.0014267603 0.034227036 0.080139406 0.09214307
000060 11 e3 2b be d0 a1 4b 3d 9a 2c cc 3d d4 ef 70 bb
       -0.16785838 0.049714863 0.099694446 -0.0036764042
000070 c2 ee 18 3d 14 03 81 bd 5a d8 4e bc 13 af b5 bd
       0.037337072 -0.06299415 -0.012624824 -0.088712834
000080 87 0b 31 3c c7 e7 c6 bc 81 24 99 3c a4 87 7e 38
       0.010805971 -0.024280442 0.018694164 6.0684644e-05
000090 f4 fd d8 bc 63 d6 fe 3c 33 09 54 be 5e ae bb bc
       -0.026488282 0.031108087 -0.20706634 -0.022910293
0000a0 85 02 8b 3c e7 74 a9 3d c7 3e d7 3d 61 d9 85 bc
       0.016968975 0.082742505 0.10510021 -0.016339006
0000b0 8f 58 c1 bc 2b 8c d4 3c 23 a8 28 bd e8 21 50 3d
       -0.023601798 0.025945744 -0.041175973 0.050813586
0000c0 4d a8 52 3c 36 37 56 3b 4e 85 b1 3c 06 d6 90 bd
       0.012857509 0.0032686717 0.02167001 -0.07072072
0000d0 29 7b 96 bc 50 fc 1d 3d fb 69 dc bd b5 7d 49 bd
       -0.018369274 0.038570702 -0.10762402 -0.04919215
0000e0 33 d3 09 3d 44 cd 04 bd 40 7a 7a bd 75 3f cf bc
       0.03364868 -0.03242232 -0.061151743 -0.025298813
0000f0 73 e2 cd bd c7 87 b5 3d 06 6b 01 be 85 45 03 3d
       -0.100529574 0.08863788 -0.12638482 0.03204872
000100 ec 29 7a bd 8b 83 a5 bd 42 38 92 bd 35 8f f1 3c
       -0.061075136 -0.080817305 -0.071396366 0.029487232
000110 bb 9b 95 3d c1 56 4f 3d 01 9d da 3d d9 32 27 bd
       0.07305094 0.050619844 0.10674477 -0.040819976
000120 c5 94 83 bd 1b 1b 37 3d 87 eb 3e 3d be 53 f8 3b
       -0.0642486 0.044703584 0.046611335 0.007578342
000130 ef 45 39 3c d0 23 47 bb 48 00 b3 3c 2e f0 4b 3c
       0.011308177 -0.0030386336 0.02185072 0.0124474
000140 ac c3 87 3d ef ec 02 bc 7e d4 01 3e 49 0b 89 bc
       0.06629118 -0.00799106 0.12678716 -0.016729014
000150 bc a6 c0 3d 0f 7d 46 3d 0e 8e bf 3b 47 ea 1c bd
       0.09406802 0.04845911 0.0058457917 -0.03830936
000160 bf a0 65 bc 25 e0 99 bd 4c 2a a6 bd 02 ca 64 bd
       -0.014015376 -0.07513455 -0.08113536 -0.055856712
000170 ce ab fb 3d bd 35 70 bd b8 0d b8 3d 12 0f d9 bd
       0.122886285 -0.058645 0.08986992 -0.105985776
000180 99 35 8b bd b3 68 2b bd 2d ac c6 bd 23 b2 2f 3d
       -0.06797332 -0.041847896 -0.09700809 0.042894494
000190 cb 4c a7 be 15 bc 68 3e 0f 57 1c 3d 89 b7 2c bd
       -0.32675776 0.22727998 0.038168963 -0.04216722
0001a0 fb db be 3e ef 53 95 3e 68 29 2c 3d 4a ef 12 3d
       0.37277207 0.291656 0.042031676 0.035872735
0001b0 9a 3e 4d 3c 25 0e 1b 3d 8c ba 64 3a d9 a6 22 3c
       0.012527132 0.037855286 0.00087253074 0.009927475
0001c0 65 b3 a2 3c a6 2e f3 3d 2f d7 91 3d c8 5b 0e bc
       0.019860933 0.11874132 0.07121121 -0.008688875
0001d0 02 6f 16 be 76 23 02 3e f5 b0 ff 3b 71 79 78 3d
       -0.14690784 0.1270884 0.0078030773 0.06066269
0001e0 85 d3 4f 3e 9c 42 52 3e 98 b7 22 3e 6d 8b 6d bd
       0.20295532 0.20533222 0.15890348 -0.057994295
0001f0 12 93 51 3c d8 db fc bc b5 dd af 3d 09 87 ee 3a
       0.012791412 -0.030866548 0.08587209 0.0018198203
000200 a1 7c 23 bd b2 22 19 3d d2 4a 91 bc c8 0c 9b 3d
       -0.039913777 0.037386604 -0.017735872 0.07570797
000210 bc e5 56 3c 43 f2 de bc e7 bf 69 3d 5c 71 cf bc
       0.013116296 -0.027215129 0.057067778 -0.025322609
000220 c4 ce 1a bd a2 af 91 bd 75 ca 03 bd d7 5d 64 bc
       -0.037794843 -0.071135774 -0.0321755 -0.013938389
000230 89 79 1d bd 92 11 38 3d 5c f4 a6 3d e6 09 3c 3d
       -0.038445983 0.04493863 0.081520766 0.045907877
000240 f0 c9 04 be 39 61 71 bd e9 aa 4a bd 77 e7 ad 3d
       -0.12967658 -0.05893061 -0.0494794 0.08491414
000250 a9 25 f7 bd cc 8f 00 bd 88 13 47 3d 9b d0 7b bd
       -0.1206773 -0.031387135 0.04860261 -0.06147824
000260 4f 6c ab 3c 79 61 2b bd 56 f9 60 bd e9 6e b3 3d
       0.020925669 -0.041841004 -0.054925285 0.08761389
000270 3d c0 ec bd b8 96 ad bd 5c 22 5b 3d 40 60 c8 bc
       -0.11560104 -0.08476013 0.053499565 -0.024459958
000280 1d b5 5a bd e4 63 54 3d bb e8 38 3d f4 09 38 bc
       -0.05339538 0.051853076 0.045143824 -0.011232842
000290 f4 80 f9 bc d2 07 3d 3d a4 0e a8 3d 88 5e e4 3c
       -0.030456997 0.046150036 0.082059175 0.027877107
0002a0 97 0e 85 bc c9 60 e9 3d a9 a5 c1 ba 69 a2 6a 3d
       -0.016242309 0.113954134 -0.0014774102 0.057283793
0002b0 6b 93 d0 bc 38 49 22 bd 1c cd 9d 3d de 58 b8 bd
       -0.02546092 -0.039620608 0.07705137 -0.09001325
0002c0 b6 4f b4 3d c2 0c d6 3d da 32 cb 3c 7f 3f 04 3d
       0.08804266 0.10451652 0.024804521 0.032287117
0002d0 0b ab da bb d9 da 8d 39 b8 28 60 bd b6 b2 ac 3d
       -0.006673222 0.0002705667 -0.054726332 0.08432524
0002e0 90 e8 2f 3c f4 a8 de bc e5 63 fd 3d 97 12 e1 3d
       0.0107366 -0.027180173 0.12372569 0.10989874
0002f0 4b 8a 5c bd 6e 93 61 bd 72 5f 2f 3e 29 c1 13 bd
       -0.053842824 -0.05507224 0.17126253 -0.036072884
000300 84 d5 c5 3d a2 81 be 3d 04 56 e6 3d 21 53 b8 3d
       0.096598655 0.09302069 0.11246875 0.090002306
000310 1c b8 9c 3d f3 ce 3f bd be 0c 99 b9 f1 8d 98 bd
       0.076523036 -0.04682822 -0.00029191928 -0.07448948
000320 4a b0 51 bd 68 ec fa bd 40 a0 a1 bd b3 92 f3 3d
       -0.051193513 -0.12252122 -0.078918934 0.11893215
000330 9d ac b6 3d 52 39 cb 3b f5 c7 a0 3d 39 df d2 3d
       0.08919642 0.0062019015 0.07850639 0.102964826
000340 87 ac 76 bd d5 ac ff bc 5b 6b 9d bd be ab 78 3d
       -0.06022313 -0.031210342 -0.07686492 0.06071066
000350 93 69 ee bc 02 ea b7 3d c8 e7 c6 bc c3 6c 93 bd
       -0.029103076 0.0898018 -0.024280444 -0.07198479
000360 ce 54 51 3d 34 1e 9c 3c f5 2a 0b 3e b6 05 3a bd
       0.051106267 0.01905737 0.13590606 -0.045415603
000370 8f e6 33 3d 6a 6e 35 bd 4c 8f 05 3c c2 46 be bc
       0.04392105 -0.044294752 0.00815184 -0.0232271
000380 eb 88 d1 3d 8c 2a d0 bd 07 2c 33 bb 29 c4 80 3d
       0.10231193 -0.10164365 -0.0027339475 0.062874146
000390 83 88 87 3c 77 20 49 3d a9 e8 0c 3e 7a 1a 2b 3d
       0.016544586 0.049103227 0.13760628 0.041773297
0003a0 a5 d1 4a 3e 90 9c 84 bd 9e d5 ec 3c 9f a6 a3 bd
       0.19806536 -0.064751744 0.028910454 -0.07990765
0003b0 8f 94 69 3d 6a f4 6d bd 3b 02 eb bd ae 7f ce ba
       0.057026442 -0.05809442 -0.11475035 -0.0015754604
0003c0 ee 91 c4 bc b8 13 ee 3b fa bd 5d 3c be 34 58 bd
       -0.023995366 0.0072655343 0.0135340635 -0.052784674
0003d0 ce 20 97 be bc df 52 3e 8b aa 35 3e 3b 3f 5f bd
       -0.29517215 0.2059316 0.17740838 -0.05450366
0003e0 5b 12 7d 3e f3 75 ae bd 00 22 d5 bd ef 08 8e bb
       0.24714033 -0.08518591 -0.104068756 -0.004334561
0003f0 1a 94 22 3c 88 d2 93 3d 39 ab 71 3c 2d 52 51 bd
       0.0099230055 0.0721789 0.014750295 -0.05110376

l1.bias f4 [250]
000000 38 ac 7d bc 9d 60 51 3d 6a e9 e6 bb f2 76 d4 3d
       -0.015482955 0.05111753 -0.007046868 0.103742495
000010 bf 6b 02 3e ad a9 70 3d 65 dc a2 bd 19 00 00 bd
       0.12736414 0.058755565 -0.07952193 -0.031250093
000020 41 8c ee 3d 31 82 ca bd f3 f8 c1 bd f2 41 0b 3e
       0.11647845 -0.09888113 -0.094713114 0.13599375
000030 dd 24 aa bc 54 35 28 3e 74 49 13 3e 02 3d 09 be
       -0.02076953 0.16426593 0.14383489 -0.13402179
000040 18 e5 1c 3e a1 13 10 3e 83 c9 44 bb f0 16 81 3d
       0.15321767 0.14069988 -0.0030027337 0.06303203
000050 c9 c8 3f 3e 9d 02 1c 3e 10 6c e0 3d e0 06 f3 3d
       0.18728937 0.15235372 0.10958111 0.11866546
000060 f0 ea 05 bc c6 81 ab 3d 65 62 0c 3e 55 19 bd 3d
       -0.008173689 0.08374362 0.1370941 0.09233347
000070 aa 12 5a bd a5 7a c0 bd 7a 68 da 3d ac bd 02 3c
       -0.053240456 -0.093983926 0.106644586 0.007979792
000080 50 24 a5 bd f4 8d 03 3e eb 9d 17 3e 05 8b 22 bb
       -0.08063567 0.1284712 0.14806335 -0.00248021
000090 c3 8c d6 bb e6 03 b3 bd 26 e8 41 3d 9e 3e 20 3e
       -0.006547542 -0.08740978 0.047340535 0.15648887
0000a0 04 01 84 bd 76 da 22 bc fc fd 61 3d 87 80 27 3e
       -0.06445506 -0.00993978 0.05517386 0.16357623
0000b0 c7 d0 ae 3d 0a d1 e6 3d bc e1 e0 bd d8 9c e3 bc
       0.08535915 0.1127034 -0.109805554 -0.02778475
0000c0 ae e7 05 3e 15 cc 08 bd 3a 4e 84 3d bd a6 ca 3c
       0.1307666 -0.033397753 0.06460233 0.02473771
0000d0 db 6d a2 3d a8 21 35 3e db 04 fe bd fa 41 18 3d
       0.079311095 0.1768862 -0.1240327 0.037172295
0000e0 98 c3 a3 3c 6c 1b e3 bd 0f 28 7b bd b7 3e 61 3d
       0.019990727 -0.11089215 -0.0613175 0.05499145
0000f0 59 c8 0e 3d 51 1a 94 bd 45 99 63 bc d4 d7 2c 3d
       0.034859035 -0.07231582 -0.013891523 0.042198017
000100 c3 e6 27 3d 51 8d b2 bd b8 e9 2b bd c1 32 df bd
       0.040991556 -0.0871836 -0.04197094 -0.108983524
000110 29 49 f2 3c 9c 76 83 3d 9c 8b 9c 3d b3 3a 35 3d
       0.029575901 0.06419107 0.07643816 0.044245433
000120 a3 5a 13 3e 03 ab a0 3d 6d f0 95 bc 30 b7 09 bd
       0.14390044 0.07845118 -0.01830312 -0.033621967
000130 24 69 d9 bd ee ec 1c 3e 4f 7b 47 bd 3e a6 43 bd
       -0.10615757 0.15324757 -0.04870158 -0.047765963
000140 86 b6 e4 3d 81 22 23 3d 30 6a 02 be 68 c1 da 3d
       0.11167626 0.039827827 -0.1273582 0.106814206
000150 49 19 5e 3d 7b 4e 0c 3e 1e d7 c5 3d 5f b9 11 3e
       0.054223333 0.13701813 0.09660171 0.1423087
000160 3b 6e dd bb 6f 0e 94 3d c3 52 2d 3a 91 7a 35 bd
       -0.0067575253 0.072293155 0.0006611759 -0.04430634
000170 12 8a 42 3e 16 1a 8f 3d 3d 78 f3 3d 87 12 89 3d
       0.18997982 0.069873974 0.11888168 0.06692987
000180 ec 44 0a 3e d5 5c 19 3b d6 8b a1 3d 9c a6 ad bd
       0.13502854 0.002340128 0.07888 -0.08479044
000190 d4 de 3b 3d 1b 81 18 3e 94 91 d7 bc 31 a8 9b 3c
       0.045866802 0.14893 -0.026314534 0.019001098
0001a0 3d a9 87 bd 38 19 7a 3d d7 f7 12 3e 21 c1 8e 3d
       -0.066240765 0.061059207 0.14352356 0.0697043
0001b0 1a 4a 92 3b e7 85 64 3c 79 b2 4b 3c 27 93 2a 3b
       0.0044644 0.01394794 0.012432688 0.002602765
0001c0 a6 bf ba 3a ac 42 3a bd b3 a9 98 3d 86 3a df bd
       0.001424779 -0.04547374 0.074542426 -0.10899834
0001d0 30 f1 0f 3e b3 aa 2a 3e f0 d4 7b 3c c8 97 9a 3d
       0.1405685 0.16666679 0.0153705925 0.07548481
0001e0 ab 1d 6e bc 0e 95 82 bd 1a ec 5d bd 81 c5 cf 3c
       -0.014533441 -0.06376086 -0.054180242 0.025362732
0001f0 b0 40 06 3d 44 2a e4 3c c6 b3 2d 3c 99 9c 19 3d
       0.032776535 0.027852185 0.010601943 0.03750286
000200 97 b1 0c 3e ce 27 ec bd fc 12 54 3d 55 e6 20 3d
       0.1373962 -0.1153103 0.051775917 0.03928216
000210 73 ae ee bd 55 a9 11 3d 90 53 08 be 8e 45 75 bd
       -0.11654367 0.03556188 -0.13313127 -0.059880786
000220 f1 c4 d7 3c 13 4e b0 3d 64 0e a3 bd f6 ad e8 3d
       0.026339026 0.086086415 -0.07961729 0.113613054
000230 55 b7 d6 bc 69 a0 e4 bd f7 e7 bd 3d a5 3b d0 bc
       -0.026210466 -0.11163408 0.092727594 -0.025419066
000240 1c 35 d1 bc b3 35 fc 3c 80 28 97 bb 0f ab 56 3d
       -0.02553802 0.030787325 -0.0046129823 0.052409228
000250 41 a3 2c 3e 63 50 00 3d 09 4b 0a bd c0 31 fc 3d
       0.16859151 0.031326663 -0.033762965 0.123141766
000260 32 b0 c5 bd fc de 08 3e bb 40 28 3e b1 35 0a bd
       -0.09652747 0.13366312 0.16430943 -0.03374261
000270 a7 94 5f bc b8 52 a8 bd 6d e0 04 3e 58 d7 19 3e
       -0.013646281 -0.08218902 0.12976237 0.15023553
000280 8c f2 09 3e 0e 3e 1c 3e e4 a5 c0 3d 59 fd 96 bd
       0.1347143 0.15258047 0.09406641 -0.07372541
000290 0c 98 be bd 2e ad 98 bd e7 ea 17 3e 8f 2b 8c 3d
       -0.093063444 -0.074549064 0.14835702 0.06844246
0002a0 81 dc e9 3d e0 86 99 3c f2 e5 ce 3d c7 45 98 3c
       0.11419011 0.018741071 0.10102452 0.01858796
0002b0 8a a6 32 3d 78 97 9c 3d 72 51 e9 3d c8 f1 bb 3d
       0.043615855 0.07646078 0.113924876 0.091769755
0002c0 e2 cc 01 3c 74 43 a1 bd a5 40 b3 3d 28 b4 f5 3d
       0.007922383 -0.07874194 0.08752564 0.11997253
0002d0 28 88 1d 3e 0c 72 02 be fe 58 ec bd 00 b4 26 3d
       0.1538397 -0.12738818 -0.115404114 0.040699005
0002e0 18 c9 e8 bd 0d 33 18 be 21 8a 9f bd 73 13 29 bc
       -0.113664806 -0.14863224 -0.07790018 -0.010319578
0002f0 d4 08 0a 3e 66 74 2c 3e bf e8 41 3d ba a0 bb bd
       0.1347993 0.16841277 0.047341105 -0.091615155
000300 56 c1 8e bd 09 7e da bc 7e a7 e8 3c 83 c6 cb bd
       -0.0697047 -0.026671426 0.028400179 -0.099499725
000310 af fc 43 38 82 ff 7d 3d 79 22 d8 3c 54 68 ec bd
       4.6726953e-05 0.06201125 0.026383625 -0.115433365
000320 52 af 7e 3d b0 79 49 bd 75 c2 06 3b 55 2e dc bc
       0.062178917 -0.049188316 0.0020562683 -0.026877562
000330 a4 b4 5c 3e 6d 88 2e ba 16 c8 b0 3d 45 48 8c 3c
       0.21553284 -0.0006657902 0.08631913 0.017124305
000340 f9 db b7 3d 50 ed 6a bd 27 99 85 3d 0e ab bf 3d
       0.08977503 -0.057355225 0.06523352 0.09358798
000350 82 3f d9 3b 4b 92 c6 bd 6e 11 0f 3e f2 b4 e5 bd
       0.006629885 -0.09695872 0.13971493 -0.11216153
000360 ad 74 b8 3d 91 a5 0b be af cd 03 be fb df aa bd
       0.09006629 -0.13637377 -0.12871431 -0.08343502
000370 52 f2 5f 3c 89 f1 02 3e e5 52 1e be 15 7d 41 bd
       0.0136686135 0.12787451 -0.15461309 -0.04723843
000380 c2 b4 f5 3c fd 0d e4 3b 0f e3 06 be 81 9e 98 3d
       0.029993419 0.0069596753 -0.13172553 0.07452107
000390 83 30 a7 bc 8e 53 a5 bb 3b 4e 84 bd b2 98 f5 3d
       -0.020408874 -0.005045361 -0.06460234 0.11992015
0003a0 09 76 1b 3d dd 6c 69 bd 81 5d 88 bd 00 03 b9 3c
       0.037954364 -0.056988586 -0.066584595 0.022584438
0003b0 8a 60 49 bd ae 10 85 3d 9a 22 0e 3e 46 23 a5 3d
       -0.049164332 0.06497322 0.13880387 0.080633685
0003c0 05 e4 e7 3b fa 9d 8f 3d eb a7 bb 3d 4f ff 6c bd
       0.0070767426 0.070125535 0.09162887 -0.05786067
0003d0 48 d6 f5 bd 3f d4 5e 3e a7 ae cf bd 6a 3d da 3d
       -0.120037615 0.21760653 -0.10140734 0.10656245
0003e0 97 6c a9 3c f0 7d 8b bd
       0.020681662 -0.0681113

l2.weight f4 [130, 250]
000000 fb 4c 02 3c d7 5b b5 bc e5 8c fe 3c 0c 72 96 bd
       0.007952924 -0.02213852 0.031073043 -0.073459715
000010 48 c1 ab bc bb df 9a bc d3 50 3c 3e b3 27 1c 3d
       -0.020966187 -0.018905511 0.18390207 0.038123798
000020 14 ed 56 bc 2e 21 a8 3d fb 17 bb 3b e5 15 3b bc
       -0.013118047 0.082094535 0.005709646 -0.011418794
000030 68 c6 b0 bb e3 28 6a 3c 59 6f 1c bd 00 59 a9 bc
       -0.0053947456 0.014291975 -0.038192127 -0.020672321
000040 3a bb bd 3d a0 b8 a0 bd 58 70 ac bc 31 da e5 bc
       0.09264226 -0.078477144 -0.021049663 -0.028058143
000050 5e 65 d3 3d 73 76 48 3d eb c0 67 bc 73 84 85 3d
       0.10322069 0.048941087 -0.014145116 0.06519403
000060 22 d8 11 3d 05 a8 01 be 18 d0 a8 bd e0 f4 24 39
       0.03560651 -0.1266175 -0.08242816 0.00015731482
000070 92 6e a0 bc 42 7b c6 bc 41 63 dd 3c cc ec 43 bc
       -0.019583974 -0.024228696 0.027024867 -0.011958312
000080 cf 59 32 3c 13 97 26 3d 5b 8f 44 bd fa de 75 bd
       0.01088567 0.04067142 -0.047988277 -0.0600271
000090 ce 27 a8 bb e1 fa 8f bb 70 b1 f9 3c 4a 09 63 3d
       -0.005131698 -0.004393921 0.030480117 0.05542878
0000a0 df ba 2d bc 7a 18 76 3c 7a 6b e3 bc 29 57 bd 3c
       -0.010603636 0.015020484 -0.02776121 0.02311285
0000b0 2e a5 d3 3c 07 70 ac 3c 70 ea 84 3d ab a8 c0 bc
       0.0258356 0.021049513 0.06490028 -0.023517927
0000c0 de eb 42 3c 87 fa 3b 3c b7 ec 54 bc b1 35 26 3c
       0.011897055 0.011473305 -0.01299589 0.010144637
0000d0 e4 94 33 bc 7b b4 37 bc d3 c6 ac bc f8 d8 4f bc
       -0.010960791 -0.0112124635 -0.0210909 -0.012686007
0000e0 15 1c 2b 3d ee 86 ee bb af bb 0d 3b 51 c3 a5 bc
       0.041774828 -0.0072792685 0.002162676 -0.020234736
0000f0 df 10 a6 b8 16 7b a0 3c d1 15 21 3c 6b 1a 5d 3d
       -7.918639e-05 0.019589942 0.009831862 0.053980272
000100 21 89 c6 3c ba 00 d4 3c f9 dd c5 b9 a8 c3 9d bb
       0.02423531 0.025879253 -0.0003774015 -0.004814584
000110 30 92 a0 bd 9d a9 1b bd fc be 14 bd 93 a7 b6 3a
       -0.07840383 -0.038003553 -0.03631495 0.0013935439
000120 18 8f 98 3b 34 9f 47 3d c6 7c e2 bd 9b 19 d0 3c
       0.00465573 0.048735812 -0.11058955 0.025402835
000130 4e ae 43 bd 60 61 cc 3c 42 cd ca 3d ac 0c 2b bc
       -0.04777365 0.024948776 0.09902431 -0.010440033
000140 26 39 4e 3c ab 3b 90 3d d7 b4 bb bc d3 96 d3 bc
       0.012586867 0.07042631 -0.02291338 -0.025828755
000150 0a cf 22 bd d4 ed 1c bc f4 40 4e bc 75 b4 84 bc
       -0.03974823 -0.009578187 -0.012588728 -0.01619933
000160 a4 08 a1 3c a5 fc ba bc bc cb fc bc b1 cf d2 bc
       0.01965744 -0.022825548 -0.030858867 -0.0257338
000170 dc 3a 6f bd 3c ca 00 bd 52 ce 20 3d c8 14 3f be
       -0.058405742 -0.031442866 0.039259262 -0.18660271
000180 d6 9a 19 3d 09 51 10 bd 81 23 00 3d 88 5c 82 bd
       0.03750118 -0.03523353 0.03128386 -0.06365305
000190 12 f1 6e 3b f9 53 82 3d 52 56 92 bc a0 bc 83 3c
       0.0036459607 0.06363673 -0.017863426 0.016081154
0001a0 f0 9f 34 3c 37 d5 12 3e fa c3 f2 3c 74 a7 dc 3b
       0.01102446 0.14339148 0.029634465 0.006733829
0001b0 83 d8 90 bd 02 d7 11 3c a7 52 ec bb de a0 2b bd
       -0.07072546 0.0089013595 -0.0072120014 -0.04190146
0001c0 fc 14 1a 3d 7f 1f ba bc 2e 3d e0 bc 44 0d 29 3d
       0.03761767 -0.022720097 -0.027372923 0.041272417
0001d0 6c c9 3f 3d 9b 99 bf 3c 0d 1e ee 3c 7e f2 87 be
       0.04682295 0.023388674 0.029067064 -0.26552194
0001e0 d2 16 9d bc 41 3c 1a 3d cd 2b 0e 3d e5 a5 d6 bc
       -0.01917592 0.03765512 0.03470974 -0.026202152
0001f0 13 b1 79 bd 2e 2a 5f 3c da b2 95 bb d9 e2 2b bb
       -0.060959887 0.013620896 -0.00456844 -0.002622774
000200 15 43 16 3d d9 2a 8b 3d fb bc 05 3d bd 0c 02 be
       0.03668507 0.06795282 0.03265093 -0.12700172
000210 53 5b a1 bd 40 ce dc 38 a9 20 b0 bd ad ea ff bc
       -0.07878747 0.000105288345 -0.085999794 -0.031239832
000220 04 01 fa ba 4e 4b 69 3d 6a 99 30 3d d3 38 3c bc
       -0.0019073789 0.05695658 0.043115057 -0.011488157
000230 d8 97 36 3d 96 4d be bc 9e cd 8f 3d 1b 81 5f 3d
       0.044578403 -0.023230355 0.0702164 0.054566484
000240 d8 37 57 bd 5c 34 2f bc 33 20 1a 3d 68 03 9d 3c
       -0.05254349 -0.010693636 0.037628364 0.019166663
000250 25 e2 fb bb b5 df f8 3d 82 18 7c 3c 9e b2 be 3b
       -0.0076868706 0.12152044 0.0153867025 0.0058196327
000260 8a 86 ed bd d6 37 d3 bc 22 f0 43 be 61 57 15 3d
       -0.11597927 -0.02578346 -0.19134572 0.036460284
000270 6d e8 8a 3c 75 f4 41 bc b6 06 9b 3d b4 98 20 3c
       0.016956532 -0.011838068 0.075696394 0.009802032
000280 1d 19 cf bc d0 ee 61 bd c2 ce 5d bc 3e fa bc 3c
       -0.02528053 -0.05515939 -0.013538064 0.023068544
000290 c9 71 0c bc a3 67 f9 3c 84 b6 8c bd 90 8c b1 bd
       -0.00857205 0.030444926 -0.068707496 -0.08669388
0002a0 4e 26 c8 3c 3e 4c 93 3c 2c 76 da 3c d0 42 aa 3c
       0.024432328 0.017980691 0.026667677 0.020783812
0002b0 44 51 68 3b 7e 12 23 bd 31 e2 af 3c 09 e6 1d bc
       0.0035448829 -0.039812557 0.021470161 -0.009637364
0002c0 3b d2 f5 3c 07 4d 3a bd fb 26 3a bd 19 63 09 bd
       0.030007472 -0.045483615 -0.04544733 -0.033541773
0002d0 ce 18 60 bd ec 54 a8 bd 36 ac 04 3e bd 55 1a 3b
       -0.054711156 -0.082193226 0.12956318 0.002354964
0002e0 a0 0b c2 3c dd 04 11 3c 95 e1 04 3c 28 24 03 bd
       0.023687184 0.008851257 0.008110424 -0.032016903
0002f0 a6 31 e4 bd f2 06 b4 bc 09 d2 2a bd fe c5 19 bb
       -0.11142282 -0.021975968 -0.04170421 -0.002346396
000300 3e cb 1f 3b 9a 63 12 bb c2 d7 cc bc f8 6b ae bc
       0.0024382616 -0.00223372 -0.025005225 -0.021291718
000310 c8 e0 ae bd 96 cd 8d 3c 4f 7f b8 bb 42 80 4e 3b
       -0.08538967 0.017309945 -0.0056304107 0.0031509553
000320 74 7e 26 3c 5e 8d e7 3c 4d c4 4d bc 24 0d 1e bb
       0.010161985 0.028265651 -0.012559009 -0.002411672
000330 61 b4 9a 3d f2 4a fe bc b2 45 e3 bb 10 79 a7 3c
       0.07553936 -0.031041596 -0.0069357986 0.02044347
000340 ef ea 5b 3d b5 d1 cb bc 3b fb fa bc 7c 4f f2 3c
       0.053690847 -0.02488027 -0.030637374 0.029578917
000350 c6 36 69 bb e0 ca 87 3d 39 e3 02 3d 14 47 a4 bc
       -0.0035585626 0.06630492 0.031954978 -0.020053424
000360 d2 29 da bb bb 97 9d 3c d9 80 cb 3a 17 ef 13 3c
       -0.0066578174 0.01923739 0.001552607 0.009029171
000370 af c9 fb 3d d4 af 0a bd 46 d0 1e 3d 5f d0 1b 3d
       0.122943275 -0.03385909 0.038772844 0.038040515
000380 62 45 c9 3c cc 96 58 3d 79 83 e0 bc 95 fd da 3d
       0.024569217 0.052878186 -0.027406441 0.10692898
000390 90 a5 dd bc 67 68 96 3c 8c de 5b 3e 65 8e 59 bd
       -0.027056485 0.01836033 0.21471614 -0.053114314
0003a0 70 32 ab 3d d6 d0 9f 3b ea d0 34 bc 24 3f ca bc
       0.083592296 0.00487719 -0.011036137 -0.02468831
0003b0 12 90 bf 39 f9 c1 f8 bc 51 ed f7 bc b9 ad 68 3a
       0.000365377 -0.03036593 -0.030264528 0.00088759843
0003c0 22 7f 5f 3b 5b 18 29 bb d8 fe 4d 3c 9f ac 13 3d
       0.0034102877 -0.002580187 0.0125729665 0.036053296
0003d0 fa 9e 8f bd e2 50 2e bd 16 1b 0a 3d c4 47 e6 bc
       -0.07012744 -0.042557605 0.033717237 -0.028110392
0003e0 3f 04 b2 3c 16 23 67 3a 92 e7 01 3d e6 33 03 bb
       0.02173054 0.0008817179 0.031714983 -0.0020019948
0003f0 0c 26 25 bd 7e 5c 42 ba e3 f4 3b 3d 1c 9c 40 3d
       -0.040319487 -0.0007414295 0.04588784 0.047023878

l2.bias f4 [130]
000000 a3 f4 a7 3d 0e e3 f2 bc b2 e3 ad 3d 70 af ab bc
       0.082009576 -0.029649284 0.08490695 -0.020957679
000010 fe 56 8c bb f3 71 53 39 90 ee 38 bd 26 72 35 3c
       -0.004282831 0.00020164977 -0.045149386 0.011074578
000020 88 f5 f4 bc e6 47 00 bc 93 6d ce 3c 70 ee 0b 3c
       -0.029902235 -0.007829642 0.025198733 0.008540735
000030 bd 27 31 bc 27 f9 1f bb 20 70 5a 3d 1e 58 a2 3d
       -0.010812697 -0.002440998 0.053329587 0.07926963
000040 0f 29 c2 3c 6c fa cd 3c a6 08 e2 3c de 43 98 3d
       0.023701219 0.025143825 0.027592015 0.0743482
000050 86 00 2d bc 4a ec 25 bd f3 06 c5 3d 49 dc 67 3d
       -0.010559207 -0.040508546 0.09620466 0.056606565
000060 a1 dc 42 bd d2 09 00 bd 94 4c 47 3d a3 b6 23 bd
       -0.04757369 -0.031259365 0.048657015 -0.039969098
000070 bf b2 c3 3d 5a 1c 84 3a 7c 4f b3 3c 31 2a 5d bd
       0.095555775 0.001007925 0.021888487 -0.053995315
000080 d7 7b 8c bc 47 34 03 39 b3 18 00 3c fe 6b dd 3c
       -0.017148895 0.00012512608 0.007818389 0.027029034
000090 8d e7 18 bc 26 95 33 3d bd cc df ba ea cb 61 bc
       -0.00933255 0.04384341 -0.0017074567 -0.013781527
0000a0 aa cc f1 3b cf cc 0f bd e2 9d 81 3c a7 bc 80 3b
       0.007379134 -0.03510743 0.015822355 0.003928739
0000b0 e7 48 66 3d 74 03 58 bc b2 2c 58 3c aa 71 56 bd
       0.05622187 -0.013184417 0.01319425 -0.052354492
0000c0 fa 90 0b bd be b7 83 3c e0 b9 cb 3d f6 a0 51 bd
       -0.034073807 0.016078826 0.09947562 -0.051178895
0000d0 74 88 f7 3d 36 a5 de bc 46 b8 8f bc 96 40 22 bc
       0.12086573 -0.027178388 -0.017543923 -0.009903094
0000e0 9c ad 62 3c f5 78 46 3d f3 ea 3d bd 02 e1 2e 3d
       0.013835337 0.048455197 -0.046366643 0.042695053
0000f0 66 37 f7 3b 52 86 b1 3d e8 c7 e7 3b 07 44 16 bd
       0.007544446 0.08668198 0.007073391 -0.03668597
000100 7c 47 3c 3c 33 fd e6 bb b8 95 8e bd 79 6a e0 bb
       0.011491653 -0.0070492267 -0.0696215 -0.00684863
000110 16 e2 ee bc d1 0f 6e bc 74 7f c5 bc 73 94 3a 3c
       -0.02916054 -0.014530138 -0.024108626 0.011387932
000120 e3 78 21 3d 4e 6d 6d bc 2f 84 35 bd f5 a1 07 3c
       0.039421927 -0.014491392 -0.044315513 0.00827836
000130 01 7c 4f bb 43 0c b5 3d 57 fb 06 3c 2e 6f 33 bd
       -0.0031659605 0.08840229 0.008238635 -0.0438072
000140 c9 40 8a 3c 47 82 df ba a9 a9 90 3d 3a 99 f5 bc
       0.016876595 -0.0017052375 0.0706361 -0.02998029
000150 9b d5 fa bc 42 6c 4d bd 73 20 2b 3d b7 a4 c9 3c
       -0.030619433 -0.05015207 0.041778993 0.024614675
000160 3f 3e 79 bc 67 47 81 bc 0c 55 f6 3c 16 52 5c 3d
       -0.0152125945 -0.015781118 0.03006985 0.05378922
000170 c5 28 73 bd 08 46 b2 3c 35 8b 54 3c 0d 5b 9b 3d
       -0.059365053 0.02176191 0.012972643 0.07585726
000180 99 06 81 bc 62 1e ab bc 7e 7a c3 3c 30 bb c0 ba
       -0.015750216 -0.020888511 0.02386212 -0.0014704224
000190 72 fb 8a 3d 42 39 e0 3c 74 ea 99 3d f6 f0 99 bc
       0.06786241 0.027371053 0.075154215 -0.018791657
0001a0 0a bc 6a bd 8c 6f 19 bd 55 bb 8f bc 33 9b f3 bc
       -0.057308234 -0.037459895 -0.017545382 -0.02973709
0001b0 16 07 74 3d d1 be 45 3d 26 70 95 3d 02 a2 48 3d
       0.05957707 0.04827768 0.07296781 0.048982628
0001c0 f9 f8 9d bb e9 05 77 bc d0 9d ef 3b cd 2b 16 3d
       -0.0048209396 -0.015077093 0.007312514 0.036662865
0001d0 72 5e 87 3d 56 ee c1 bb 08 c8 68 3d 61 69 2c bd
       0.06609811 -0.0059183044 0.05683139 -0.042092685
0001e0 66 2d 28 3d aa 9d 7a 3d 0b 34 8f bc 88 cc 3c 3d
       0.04105892 0.061185516 -0.01748087 0.046093494
0001f0 2c 18 38 bd 3b 3f 47 3d 4c 5e 62 bd e2 9f f1 3b
       -0.044944927 0.048644286 -0.05526571 0.007373796
000200 32 47 e2 3c 16 8b c2 3a
       0.02762184 0.0014842476

l3.weight f4 [50, 130]
000000 84 f4 a5 3c 3f 0f b6 3d ee c4 80 3c a7 12 a4 bc
       0.020258196 0.08889627 0.015718903 -0.020028425
000010 f0 00 3a 3d fe aa d4 3d 7c f4 8b 3c c8 ac 45 bc
       0.04541105 0.10384177 0.017084353 -0.01206512
000020 e3 d0 bb 3a 67 37 96 bd b0 db 99 3d 5e ae 8a bc
       0.0014329221 -0.07334786 0.07512605 -0.016928848
000030 e3 e8 f6 3c 18 fe 0e bc 78 8a 12 be 05 35 49 3d
       0.030140346 -0.008727573 -0.14310634 0.04912283
000040 b5 ec d7 3d c2 46 bd 3c 00 8e 8d 3d 77 07 89 bd
       0.10543195 0.023105029 0.0691185 -0.06690877
000050 dd ca 42 bd 0d 1e ad 3d 3b a7 10 3d 99 42 0c 3e
       -0.047556747 0.08452997 0.035315733 0.1369728
000060 4e 98 3f bd 84 d5 86 bd ac 7b 6f bc aa c3 7c bd
       -0.04677611 -0.065836936 -0.014616888 -0.061710037
000070 5f 3a 59 bc 42 d9 66 3d 39 17 4a 3d 9d b2 06 bd
       -0.013258546 0.056359537 0.049338553 -0.032885183
000080 a0 73 65 3d 25 9c 03 3d 22 18 a1 3b 72 87 62 3c
       0.05601847 0.032131333 0.004916207 0.013826238
000090 7e bb 52 3d bb 74 02 bd d8 47 0b 3d 40 e3 8d 3c
       0.051448338 -0.031849604 0.034004062 0.017320275
0000a0 52 cf 06 3d 5d 06 b2 bc 52 b5 52 bd 9e 46 57 3d
       0.03291256 -0.02173155 -0.05144245 0.05255758
0000b0 14 6a cd bd 2f f3 ad bd 62 8a 7d 3c a7 b2 06 bc
       -0.100299984 -0.08493649 0.015474888 -0.008221305
0000c0 a8 16 a3 bb 72 45 1f bd e8 cd e5 3d 43 12 20 3b
       -0.004977066 -0.038884588 0.11220914 0.0024424947
0000d0 2c 72 90 3d fe 51 bb bd 5c bd df bc b6 d8 6d 3d
       0.070530266 -0.09146498 -0.027311973 0.058068
0000e0 63 30 3a 3d 92 66 65 bc 98 8d aa bd 25 1e 96 3d
       0.0454563 -0.014001505 -0.08327788 0.07329968
0000f0 80 04 b2 bc 63 4e 74 be a6 78 00 bd 84 2f aa bc
       -0.021730661 -0.23858027 -0.03136506 -0.02077461
000100 fa c8 87 3d 48 bc 48 3d 1f af 17 3b b8 ca 86 bc
       0.0663013 0.049007684 0.0023145152 -0.016454086
000110 e2 6a f7 bb b0 c1 af 3b b0 62 8d bd b9 30 e6 bc
       -0.007550583 0.0053636655 -0.06903589 -0.028099405
000120 8a a9 a3 bd db 27 ba bc 5f 4b 66 3d 99 19 89 bc
       -0.079913214 -0.022724083 0.056224223 -0.016735839
000130 15 7a cb bc 1a e2 51 3d 31 38 50 3c 9b 87 f9 3c
       -0.024838487 0.051241018 0.01270871 0.03046017
000140 bd 37 a5 bd 45 d3 c0 3d 8f 4e 5a bd b9 3f d9 bc
       -0.08067272 0.094152965 -0.053297576 -0.026519643
000150 ec 36 5e 3d d7 22 2f be 69 4a a2 bc 35 6e 38 bd
       0.054251596 -0.17103134 -0.019810872 -0.045026977
000160 af 7a 90 bb ff 8b 9b 3c 79 b1 7a 3c da a2 e1 bc
       -0.0044091563 0.018987654 0.015301102 -0.027543474
000170 34 24 93 3c 61 52 33 bd 22 dd bb 3c fa 7f 06 3e
       0.017961599 -0.043779735 0.022932593 0.13134757
000180 19 c3 4c bd 40 ec c5 bc ea 79 a7 bb 4a 63 74 3d
       -0.049990747 -0.024160504 -0.005110969 0.059665002
000190 41 95 97 3d bb d3 3a bd a7 cf b6 3b e7 89 b8 3d
       0.07401515 -0.04561208 0.0055789533 0.09010678
0001a0 39 49 33 bd 85 c3 8b bd b1 00 89 bd 61 0c 9f 3b
       -0.043771002 -0.06824402 -0.06689585 0.0048537706
0001b0 29 6d 73 bc ff b9 78 bd b0 00 87 bd bb 68 20 bc
       -0.014857569 -0.060724255 -0.06591928 -0.009790595
0001c0 0e b7 90 bc 2e 92 68 3b a8 c5 55 bd b6 40 48 bc
       -0.017665412 0.003548752 -0.052190453 -0.01222246
0001d0 51 56 92 3d 38 c5 46 bd a3 44 18 bd e0 38 3e bd
       0.0714537 -0.048527926 -0.037174832 -0.04644096
0001e0 6e aa 54 3c 7a c9 81 bd f1 a3 be 3d 53 d4 72 bd
       0.012980087 -0.06337257 0.09308613 -0.05928452
0001f0 3e 08 7c bd 29 7f fd 3c e1 90 64 bd e6 f1 eb 3d
       -0.061531298 0.030944424 -0.05580223 0.11520748
000200 6d 58 1c 3e 8b 27 08 3d 5b db 7e 3e 8d 65 4d 3d
       0.15268107 0.033240836 0.24888365 0.050145674
000210 b3 bc ec 3d dc 3b 42 bc ca dc ce bd dd 61 14 be
       0.11559429 -0.011855092 -0.10100706 -0.14490457
000220 a6 2c c7 3c 59 35 74 be 44 be d4 bc 12 70 33 bb
       0.024313282 -0.23848476 -0.025969632 -0.0027380032
000230 4d bc e5 bd 18 89 db bc fe d5 92 3b fa 7b ef bc
       -0.11217556 -0.02679877 0.0044810763 -0.029233921
000240 cf 4f 29 3e 70 dd 34 be bb d8 35 3e 2b dc 06 3e
       0.16534351 -0.17662597 0.17758457 0.13169925
000250 05 97 a4 bc 9b 9a 9b bd 64 ca a6 bb 11 0c 31 bc
       -0.020091543 -0.07597848 -0.005090045 -0.0108060995
000260 f5 40 12 be b3 04 09 bd 14 e7 13 3d e5 36 0e 3d
       -0.14282592 -0.033451747 0.036109045 0.03472032
000270 86 be 13 3b b7 9c 83 bc d2 36 a7 bd 59 93 2f be
       0.002254398 -0.016065938 -0.08164753 -0.17146052
000280 ef 1d bb 3d 92 3d 3a 3e a3 59 11 3e 50 c2 8b 3d
       0.09136569 0.1818755 0.1419435 0.068241715
000290 89 8d 1a bd b7 d8 59 bd 8a ce fb 3d 12 fb f0 3d
       -0.037732635 -0.05318519 0.122952536 0.11766638
0002a0 99 66 14 bd ba dc ed 3d 0d 36 89 bc 64 51 2b bd
       -0.036230657 0.11614366 -0.016749406 -0.041825667
0002b0 b4 2a 0c 3c 2b 12 8c bd 97 94 3c 3d a5 77 27 be
       0.008555103 -0.06839403 0.046040144 -0.16354235
0002c0 16 c6 b1 bc 1c d3 aa bd e0 f4 1a bd 48 ef e8 bd
       -0.0217009 -0.08341047 -0.037831187 -0.11373764
0002d0 67 88 11 bc 12 4b 04 3c 84 e4 a2 be 06 04 f8 3d
       -0.0088826185 0.008074539 -0.3181497 0.121101424
0002e0 50 d3 d8 bc c8 24 97 3d a2 14 0c bd 73 54 00 be
       -0.02646795 0.07380062 -0.034199364 -0.12532215
0002f0 d7 25 07 3e 85 2f b2 bc 3b 32 9d 3c c5 85 ee bd
       0.13198029 -0.021751175 0.01918899 -0.11646608
000300 ec ad 51 bd 32 7a 3f 3e 2e d3 55 3d e6 f8 36 3d
       -0.051191255 0.18698958 0.05220335 0.04467096
000310 86 8d 5f 3c 83 21 63 3e b7 2b 39 bd 79 ec b3 bc
       0.013644582 0.22180752 -0.045207705 -0.021963345
000320 ab ce 7c bd a1 11 a1 bc 2f c2 4c bc d8 78 47 3c
       -0.06172053 -0.019661726 -0.012497469 0.0121748075
000330 0b 63 7e 3b 3e 3b 41 3e 07 bc 83 bd de ee ec 3b
       0.0038816358 0.18870255 -0.06432348 0.0072306236
000340 b4 98 3e 3d 8c 12 00 3d 61 db f9 3c 7a 00 20 3e
       0.046532348 0.031267688 0.030500116 0.15625182
000350 ab 46 b1 3d 8c 31 2e 3c c5 10 79 bd 5a c9 52 3d
       0.08656057 0.01063193 -0.06080701 0.051461555
000360 50 88 93 ba 0d 19 34 bd 44 59 e0 bc 70 25 b8 bd
       -0.0011255834 -0.043969203 -0.027386315 -0.08991516
000370 74 15 23 bd e4 f7 0b 3d 60 3c 38 bd 43 37 01 be
       -0.03981538 0.034171954 -0.044979453 -0.12618737
000380 4a 7b 09 3d eb 72 b2 bd 6a 43 9a bb 99 0f 14 3e
       0.033564843 -0.08713325 -0.0047077434 0.14459075
000390 7e 39 fd 3c 9c 72 7b bd 9e ff 6a be 57 ab 0f be
       0.030911203 -0.061388597 -0.22949073 -0.14030205
0003a0 94 00 82 bb 74 b1 70 bd 5a 6a 7f 3d 2d ce 34 bd
       -0.003967354 -0.058762982 0.062357284 -0.044141937
0003b0 be 9e 2c bd 55 8d 80 bd 8a cc 0a bd 09 3d 94 bd
       -0.042143576 -0.06276957 -0.03388647 -0.07238204
0003c0 ce 12 36 bc 6d a0 dc 3d 0d f4 1d 3d 07 17 8b 3c
       -0.011112882 0.10772786 0.038562823 0.016978754
0003d0 7d 1c 9b bd 78 f3 91 3d bd 64 a8 3c a6 bc 92 3d
       -0.07573793 0.07126516 0.020555848 0.07164888
0003e0 f2 ed 51 bc 2d c7 ec bc 95 1d 90 3d 68 2a 8b 3d
       -0.012813078 -0.028903568 0.07036892 0.06795198
0003f0 db 61 f0 bc 95 43 d5 bc 7c 3d 86 3d 74 a8 80 bd
       -0.029343536 -0.026033202 0.06554696 -0.0628213

l3.bias f4 [50]
000000 1a 82 9a bc 7d e4 fa 3c 8c 9c c0 3a ca b0 97 3d
       -0.018860865 0.03062653 0.0014695092 0.07406767
000010 13 34 87 bc 58 4d 18 bd 2b b9 bd bc df 7e f7 bc
       -0.016504323 -0.037183136 -0.023159584 -0.030211864
000020 7f 03 d5 3d 35 69 a3 bd f7 80 e1 bb 9b af aa 3d
       0.104010575 -0.07979051 -0.006881829 0.08334275
000030 c2 5d 8e 3c a7 9e 13 bd 91 05 8e 3d 55 61 12 bd
       0.017378692 -0.036039975 0.069346555 -0.035737354
000040 af 82 32 bc 7f 0c 40 bb 66 0b c5 3c 77 3d a0 3d
       -0.010895415 -0.0029304323 0.024053287 0.078242235
000050 e9 f4 ee 3d 90 9e 8d 3c 67 fc 19 3e c7 9b 72 3d
       0.11667807 0.017287523 0.1503769 0.059230592
000060 65 d2 42 3d de 4a d7 3d 9b 78 c9 bc 33 60 80 3d
       0.04756393 0.10512327 -0.024593642 0.062683485
000070 32 5e 1d 3e 0e a9 04 3e 62 0a 17 3e 0d cf 88 3c
       0.15367964 0.12955114 0.14750054 0.016700292
000080 55 6b 21 bd 21 66 09 bd df f2 0b 3a b5 0d 19 bd
       -0.039409 -0.033544663 0.000533862 -0.037366588
000090 a0 23 90 bd 9a 59 a1 bb b8 c8 63 3d 09 78 a1 3c
       -0.07038045 -0.0049240114 0.055611342 0.019710558
0000a0 13 87 25 3d be 6d 43 bd 61 ea 08 3d f8 bb 4b 3c
       0.04041202 -0.04771208 0.033426646 0.012434952
0000b0 33 ca 41 3d 53 cf ad 3d cb cd fe 3c 65 e5 32 bd
       0.047311973 0.084868096 0.03110399 -0.0436758
0000c0 a2 c2 69 3d 24 aa 3b bc
       0.057070382 -0.011454139

l4.weight f4 [10, 50]
000000 af ab ca 3d e0 eb 9e 3c f3 85 61 3c 01 7c 0e ba
       0.09896027 0.019399583 0.013764846 -0.0005435348
000010 0e fe 73 3c be 85 1c be a4 49 d4 bd c9 d6 0e 3d
       0.014892114 -0.15285394 -0.10365608 0.034872804
000020 09 07 47 3e 05 69 9c 3d 37 23 7f 3b ad 17 3d 3d
       0.19436277 0.076372184 0.0038930902 0.046165157
000030 50 7d 97 3e d3 40 b9 3c f9 db 13 bd eb 0f 6c bd
       0.29587793 0.022613918 -0.036098454 -0.057632368
000040 0e a4 b3 bd d8 be f9 3c 69 1c ee 3d 44 db 11 3e
       -0.08771525 0.03048651 0.116265126 0.142438
000050 4a 59 a2 be 16 b6 2b 3e a3 b7 fb 3d 3a 93 4c 3e
       -0.31708747 0.16768679 0.12290885 0.19978037
000060 04 e2 6f bd 08 6d 47 3e f0 c4 2c be 3b 90 c7 bc
       -0.058565155 0.19475186 -0.16872 -0.024360767
000070 a9 67 59 be 9b 6e 36 bd f2 56 dd bd bc 38 b6 3d
       -0.2123095 -0.044539075 -0.10807599 0.0889754
000080 35 06 8e bc 32 3a 58 3e 2c d1 1f be 51 09 c6 bc
       -0.017336944 0.2111595 -0.15607136 -0.024174364
000090 1b 1e b4 bd 81 06 24 be a5 d1 33 3c 97 2f b6 bd
       -0.08794805 -0.16018106 0.010975276 -0.08895796
0000a0 27 cb be 3d 79 e4 ca ba 17 3a d9 ba 67 bd d2 3c
       0.09316092 -0.0015479467 -0.0016573098 0.02572508
0000b0 e2 4d 60 3e af f2 97 3c e7 01 8b be 45 7e 21 3d
       0.2190471 0.018548338 -0.2714989 0.03942706
0000c0 00 22 ec bb ad c3 8b 3e 74 b6 1a 3d 34 b1 34 3c
       -0.0072062016 0.27297726 0.037771657 0.011028577
0000d0 59 02 91 3e 63 ec e8 bb 12 3a ca bc e1 cc aa 3d
       0.28322104 -0.0071082576 -0.024685893 0.08339859
0000e0 77 c7 ba bd 81 df 93 bd a3 11 ce bd ed 47 12 3d
       -0.09120076 -0.07220364 -0.10061958 0.035713125
0000f0 a3 4b 36 bc d1 18 43 be 71 82 16 be 5a 66 a2 3b
       -0.011126432 -0.19052435 -0.14698197 0.004956049
000100 23 ba de 3d 3b 8e 9c 3d 18 61 84 be 42 d1 4a bd
       0.108753465 0.07644316 -0.25855327 -0.04951597
000110 62 f5 8f 3d 16 83 2b 3e cb 78 e9 3d 6d 26 98 bd
       0.07029225 0.16749224 0.113999926 -0.07429204
000120 18 e7 f6 3d e7 72 2a bd 9e 27 0d bc ec 83 8e 3e
       0.120557964 -0.041613486 -0.0086154025 0.27835023
000130 8b d8 5a 3d bb c8 67 bc ec b1 3f be 67 a5 24 bd
       0.053429168 -0.014146979 -0.18720216 -0.040196802
000140 35 4d d7 3d de 85 b7 3d 79 45 c7 bc 30 7c 0b 3e
       0.10512773 0.0896108 -0.02432512 0.13621593
000150 05 af 7c 3e 56 18 f8 3d 1a 2e 91 bd d6 43 c8 3d
       0.2467614 0.12114017 -0.07088871 0.09778564
000160 a0 37 b2 bd 0b 46 10 3d 27 de 08 be 83 30 e6 be
       -0.08702016 0.03522305 -0.13365994 -0.44958887
000170 f9 a0 c2 bd b9 24 bf bd 09 f6 c3 bc 59 10 c0 3d
       -0.09503359 -0.09333176 -0.02392103 0.09378118
000180 05 09 2d bc 0a 8c 3f 3c 1b af ae bc e9 18 8f bd
       -0.010561232 0.011691103 -0.021323731 -0.06987173
000190 03 3f 4c 3d ec 1d 38 3c 7d 27 82 3e 75 89 70 3c
       0.04986478 0.011237603 0.25420752 0.01468121
0001a0 b9 df 55 be 9f 3f 8c bd 15 ff 9f bd c0 e7 cb bd
       -0.20886125 -0.06848072 -0.07812325 -0.09956312
0001b0 3e 16 4c 3e 59 13 2d bc bd 58 10 bd a6 78 4e be
       0.1993036 -0.010563695 -0.035240877 -0.20163211
0001c0 3f 1c de 3c b1 49 aa bd de 4d ea 3e e6 3f 55 3e
       0.027113078 -0.08314837 0.45762533 0.20825157
0001d0 c2 bf dd 3c cc 88 e9 3c 32 54 84 bd 59 18 39 be
       0.027068976 0.028507613 -0.064613715 -0.18075694
0001e0 c3 7a c8 3c c5 2e 88 3e 76 31 29 be f4 05 58 be
       0.0244726 0.26598182 -0.16522774 -0.21096021
0001f0 f8 65 db bb b8 10 18 bc b5 d5 11 bc ac da 60 bd
       -0.006695505 -0.00928133 -0.008901049 -0.05489604
000200 ac 26 a3 3e 6f 9a 1e bd 3d 1f 2f be 02 f8 a0 bc
       0.31865442 -0.038721498 -0.1710176 -0.01964951
000210 8f 8e 13 b9 36 b5 8c bd 74 27 ca bc a6 d5 5b bd
       -0.0001407212 -0.06870501 -0.024677016 -0.053670548
000220 2b 68 76 bd 5d 0f 62 3e 81 04 ab bd e4 a3 f2 bd
       -0.060157936 0.22076173 -0.083504684 -0.11847666
000230 51 e0 96 3d e3 5d 18 3c 12 23 41 bc 7f 3f da 3c
       0.07367004 0.009299728 -0.011788147 0.026641605
000240 bf 44 34 3c 72 88 7d bc 13 18 8a bd 10 a8 01 3e
       0.0110027185 -0.015474426 -0.06742873 0.12661767
000250 c3 c0 1c bc 71 e1 2d 3e d9 99 13 3d 25 e5 6a bf
       -0.009567442 0.1698053 0.036035392 -0.91755897
000260 d8 c1 ac be 75 9f d8 bc d5 18 f3 bc 13 16 89 be
       -0.3374164 -0.026443223 -0.029674927 -0.26774654
000270 49 69 be bd f2 78 e4 bc 4b 81 5c 3e 89 4b 4d bd
       -0.09297425 -0.027889702 0.21533696 -0.050120864
000280 d1 65 c6 bc bc 7d 81 3e 30 cd 10 be cb c0 2d bd
       -0.024218472 0.2529124 -0.14140773 -0.04242019
000290 97 34 65 3e 41 30 d3 bd 6d 36 92 bd 92 1a 32 ba
       0.22383343 -0.10311938 -0.07139287 -0.00067941204
0002a0 7d 05 e0 be a4 38 7d bd 5d dc 68 3d 04 b1 b6 ba
       -0.43754187 -0.061821595 0.05685078 -0.0013938253
0002b0 eb b7 da 3e 0f 58 9d 3e 6f c4 8e 3c 29 f5 84 3e
       0.42718443 0.30731246 0.017427651 0.25968292
0002c0 f9 c4 39 3c e8 2f b9 3c 3f dd a8 3e 7d 24 65 3d
       0.011338466 0.022605851 0.32981297 0.055943
0002d0 e1 0c 9b 3e a5 8e 2e 3c de 74 07 bd 02 70 d9 3c
       0.30283263 0.010654126 -0.033070438 0.026542667
0002e0 a0 3f 85 3e a6 ac e3 be 04 72 ce 3d b1 08 30 3a
       0.26025105 -0.44467658 0.100803405 0.00067151623
0002f0 ad 66 8a 3d 0c 27 09 3e 84 2d 2a be 32 18 a8 3b
       0.06757865 0.13393801 -0.16618925 0.0051298374
000300 27 01 c5 bd 1a 58 c0 bd 8c 98 26 3e fb e9 0d 3b
       -0.096193604 -0.09391804 0.1626913 0.0021654356
000310 de af 5b bd 62 6d 86 3e 21 0f cb bc c1 f6 34 be
       -0.053634517 0.26255327 -0.024787487 -0.17672254
000320 d0 05 63 3d 52 d7 99 3c 8a a0 b1 3e 4c 2b f5 3c
       0.055425465 0.01877943 0.34692794 0.029927872
000330 14 1f b6 3d a6 b3 a5 bd f0 eb 9d bc 21 d8 f2 ba
       0.088926464 -0.08090906 -0.019277543 -0.0018527546
000340 eb 23 4a 3f c8 a6 bc 3d 1e b6 cc 3c 57 98 b2 be
       0.78961056 0.092114985 0.024989184 -0.3488185
000350 97 3c 08 bd ad 37 69 bd 30 82 8a be cd 57 81 be
       -0.033260908 -0.056937862 -0.2705245 -0.252623
000360 ca 5d 39 3e d1 3d 28 3d af 76 a3 3e 35 51 34 bf
       0.18102184 0.041074578 0.31926486 -0.7043641
000370 8e 7a 8e 3e 55 fe bc 3e f0 a5 2d 3e a4 c3 bb 3e
       0.27827877 0.3691279 0.16957831 0.366727
000380 52 88 83 bc c3 09 63 be 5b 43 6c 3f ac 9e 12 bd
       -0.016056214 -0.22171693 0.92290276 -0.035795853
000390 89 e0 f3 be 35 10 07 3e b0 6f e1 3e 44 0a d3 bd
       -0.47632244 0.13189776 0.44030523 -0.103046924
0003a0 68 ce 15 3c 14 dc d9 bc a1 d0 c2 be 54 dc 50 3e
       0.009143449 -0.0265942 -0.38049796 0.20396549
0003b0 0b f1 cb bd 4a d2 0a be a2 17 94 3d f7 ec 90 be
       -0.09958085 -0.13556781 0.0723107 -0.2830579
0003c0 cf b6 ec be 31 78 56 3e f6 ed c0 3d 27 85 e2 3a
       -0.46233222 0.20944287 0.094203874 0.0017282114
0003d0 da 30 ee 3e 42 49 2f 3f af b7 e1 3d 2f 91 90 3e
       0.46521646 0.6847116 0.11021363 0.28235766
0003e0 eb 2f e5 bd e4 26 90 be d6 09 af bb c3 7f f0 bc
       -0.1119078 -0.2815467 -0.0053417487 -0.029357797
0003f0 bd 20 18 3e 7e f6 8c bc 14 ee 90 3c 58 29 a9 be
       0.14856239 -0.01720738 0.01769165 -0.33039355

l4.bias f4 [10]
000000 96 a2 fa 3d d6 11 58 3e b1 d7 48 3e f8 bc 8e 3d
       0.12238042 0.21100554 0.1961353 0.06969637
000010 b7 20 67 3d 77 91 b0 3d 51 58 8d bd b3 a7 4e 3d
       0.056427684 0.08621495 -0.06901611 0.0504529
000020 34 e8 8f 3e 44 bc 23 3e
       0.28106844 0.15989786

momentum_buffer f4 [250, 48]
000000 a3 2b f8 36 e2 4c bd 37 d3 80 b6 b5 62 8a 02 37
       7.396056e-06 2.2566357e-05 -1.359755e-06 7.780824e-06
000010 ef 3b 1a 38 36 78 87 b7 0e af f5 b5 44 bc 41 b7
       3.677228e-05 -1.6149232e-05 -1.830487e-06 -1.154753e-05
000020 99 52 23 37 d9 c1 3b b8 ba 34 3b b8 28 32 d9 b6
       9.734788e-06 -4.476481e-05 -4.463338e-05 -6.472943e-06
000030 ba ff 35 36 20 8f 28 37 19 0b 77 36 73 ff cd 37
       2.7119954e-06 1.0046904e-05 3.6812328e-06 2.4556857e-05
000040 21 5c 6f b5 8a 2c 46 37 32 c3 0a 37 02 2f 55 b6
       -8.9168503e-07 1.181209e-05 8.270888e-06 -3.1766835e-06
000050 3d 39 bf 37 7d b7 95 36 9e 17 18 37 87 aa 10 b7
       2.2795628e-05 4.461907e-06 9.065405e-06 -8.622773e-06
000060 96 4e 40 b6 e7 8f 55 b7 09 f4 1d b8 88 6a 65 36
       -2.8655973e-06 -1.2729294e-05 -3.7658992e-05 3.4185668e-06
000070 60 30 98 37 5c 67 ef 36 5c 4d 8f b6 d0 04 8a 36
       1.8142338e-05 7.1347877e-06 -4.270738e-06 4.1132807e-06
000080 58 d5 9b 37 28 d0 d5 b6 8d db 92 37 0b 0b 85 b5
       1.8576786e-05 -6.3721272e-06 1.7506793e-05 -9.912486e-07
000090 06 fc b7 37 70 ec 14 37 e3 b7 85 37 6b 23 87 37
       2.1932658e-05 8.876537e-06 1.5940464e-05 1.6109747e-05
0000a0 d9 63 d1 36 c4 0f 22 38 e9 e4 0d 38 43 41 cb 36
       6.240309e-06 3.8638493e-05 3.383021e-05 6.057469e-06
0000b0 32 b8 c8 36 d5 74 89 37 8c c1 8e b7 46 a9 1e 36
       5.9819076e-06 1.6386077e-05 -1.7017846e-05 2.3642365e-06
0000c0 7b 25 8e 37 d1 a2 09 37 0a 50 af b6 9c c5 ae b7
       1.6945172e-05 8.203745e-06 -5.224724e-06 -2.0834435e-05
0000d0 08 17 81 37 60 25 b0 37 1c 42 86 b6 2c a5 31 b7
       1.5388723e-05 2.0998239e-05 -4.0012073e-06 -1.0588479e-05
0000e0 19 8c a3 36 27 e5 36 b7 79 ce b8 b6 21 e8 c5 b6
       4.874088e-06 -1.0901399e-05 -5.507664e-06 -5.898081e-06
0000f0 c8 24 b8 36 a3 50 78 35 1b b9 02 b5 7c 62 27 b7
       5.487909e-06 9.250454e-07 -4.869814e-07 -9.976906e-06
000100 99 f3 59 36 9c 35 6d b5 ba 90 8b b7 57 bb 72 b7
       3.2477312e-06 -8.836739e-07 -1.6637485e-05 -1.44679425e-05
000110 5d 6b 91 37 3b db 9f 37 0d 55 19 37 56 96 2a b7
       1.7335342e-05 1.9056364e-05 9.139313e-06 -1.0167792e-05
000120 cd e4 b5 b6 64 ef 21 36 f9 c9 1f 37 cd 17 b9 b5
       -5.4208563e-06 2.4130213e-06 9.524164e-06 -1.3790501e-06
000130 c4 c8 d8 b5 8a a3 37 b7 92 4f e0 35 a7 10 a9 b6
       -1.6151685e-06 -1.0945727e-05 1.6712459e-06 -5.038531e-06
000140 e6 cf 84 b6 5a db 26 b6 da 0b 14 37 03 68 37 35
       -3.958109e-06 -2.4863607e-06 8.824247e-06 6.832417e-07
000150 e0 79 5f b5 ce 31 bc 35 0a 70 40 b7 93 f5 ab b6
       -8.3251325e-07 1.4021587e-06 -1.1470178e-05 -5.1247857e-06
000160 4c 5f bf b3 78 83 d8 b6 91 35 04 b7 92 3f 84 b6
       -8.911465e-08 -6.4526066e-06 -7.880285e-06 -3.941307e-06
000170 31 a5 fe 34 b5 ac 15 b7 64 5e 72 b6 a0 d3 fc 34
       4.743138e-07 -8.921304e-06 -3.6115753e-06 4.7092635e-07
000180 ae 5e 8c b6 f2 d7 17 37 ec be 7e b6 13 68 5d 37
       -4.1833473e-06 9.05058e-06 -3.796008e-06 1.3196858e-05
000190 f2 49 84 b7 20 cf 5d 37 03 17 88 37 ae 78 54 37
       -1.577006e-05 1.32208515e-05 1.6223179e-05 1.2664283e-05
0001a0 c4 a6 88 35 17 f4 84 b6 18 f0 f7 b6 ae e8 02 36
       1.0181325e-06 -3.9623224e-06 -7.389124e-06 1.9506947e-06
0001b0 1d 13 50 37 53 69 21 36 4a 61 9d b7 ba 7e 95 37
       1.2402216e-05 2.4052176e-06 -1.8761162e-05 1.7821196e-05
0001c0 0f b2 6a 36 6a 72 85 37 97 c9 dc 36 d5 e8 ab 37
       3.497236e-06 1.5908114e-05 6.579979e-06 2.049321e-05
0001d0 78 22 44 b7 9c 11 47 37 96 d9 3f b7 b9 e4 e0 36
       -1.1690536e-05 1.1865424e-05 -1.1435148e-05 6.702347e-06
0001e0 7d 9a ac 36 11 52 97 36 a7 77 bc b7 98 3f 2b b7
       5.1439843e-06 4.5097045e-06 -2.2467064e-05 -1.0207201e-05
0001f0 ac 16 bb b6 a8 29 b0 b5 6c a3 12 36 80 de 89 b5
       -5.5756736e-06 -1.3125145e-06 2.185082e-06 -1.0272051e-06
000200 9c 7c 93 b5 e1 e7 2a b6 22 b1 ae 36 bd 70 9d b6
       -1.098862e-06 -2.5466945e-06 5.206225e-06 -4.692089e-06
000210 6d 04 e4 36 9d a3 26 b6 7e 08 8b b7 bc 8b 10 b7
       6.7954447e-06 -2.4831163e-06 -1.6574046e-05 -8.615603e-06
000220 10 4d 47 b6 b8 a8 7d 37 23 e4 5a b7 fa 8c e0 b6
       -2.9698167e-06 1.5119258e-05 -1.304693e-05 -6.692132e-06
000230 15 b9 96 b7 03 f6 30 37 80 61 4c 37 ea bd f3 35
       -1.7967579e-05 1.0547697e-05 1.21820485e-05 1.8160183e-06
000240 f0 9c 08 b6 b9 40 ee b5 d8 7a f5 b6 b8 dd 77 37
       -2.035693e-06 -1.7751219e-06 -7.31587e-06 1.477397e-05
000250 45 59 62 b6 36 22 98 b6 53 20 0d 36 56 39 32 b7
       -3.3728586e-06 -4.5339357e-06 2.1029452e-06 -1.0622976e-05
000260 e4 19 2c b6 bc b7 d0 35 94 59 bc b6 a2 da 5f 37
       -2.5645068e-06 1.5550681e-06 -5.613265e-06 1.334274e-05
000270 ff 6e 2b b7 00 d1 09 b6 8e e8 46 37 3e 98 20 b6
       -1.0218238e-05 -2.0536245e-06 1.18558655e-05 -2.3930475e-06
000280 ad 4f 4f 35 64 30 dc b5 60 c8 64 b3 82 c2 9e 36
       7.722945e-07 -1.6405361e-06 -5.3267627e-08 4.7314106e-06
000290 8d 68 25 35 73 c7 00 36 2f a1 58 37 5c 86 b6 35
       6.161943e-07 1.918958e-06 1.2912132e-05 1.359916e-06
0002a0 e1 17 99 b6 4e 00 56 37 f4 67 89 b5 cc 3b 49 37
       -4.562535e-06 1.2755465e-05 -1.023755e-06 1.1994456e-05
0002b0 f5 8c f8 b6 23 07 05 36 a1 5f 0d 37 6c 7e 4e b7
       -7.4073855e-06 1.9822699e-06 8.42652e-06 -1.2307992e-05
0002c0 8c d0 0d 37 65 3d bb 36 b8 cc d2 36 44 da 0a 36
       8.452811e-06 5.5801816e-06 6.28232e-06 2.069065e-06
0002d0 4e 2f 2d 35 33 2f 26 b6 87 fb 57 b6 81 f5 1a 37
       6.451636e-07 -2.4763401e-06 -3.2183905e-06 9.236276e-06
0002e0 34 7d 03 b7 66 f5 b1 35 62 3c 47 37 55 2c 1a 37
       -7.83736e-06 1.3258948e-06 1.1875383e-05 9.189437e-06
0002f0 c2 51 1b b7 b6 d1 5f b6 1d 15 9f 37 fd b4 54 b6
       -9.257756e-06 -3.3351657e-06 1.8964109e-05 -3.169581e-06
000300 c8 08 11 37 bb a0 16 b6 6b fb 7e 36 f2 88 37 36
       8.644718e-06 -2.24453e-06 3.7995294e-06 2.7348838e-06
000310 b9 94 dd b6 63 1a d0 b5 8d cc 6d 36 5d 47 8d b6
       -6.603627e-06 -1.5504887e-06 3.5434816e-06 -4.2104352e-06
000320 68 c0 68 b6 53 7e b5 b6 8a e8 cf b7 ff 87 05 37
       -3.468269e-06 -5.4089264e-06 -2.4784607e-05 7.959082e-06
000330 95 75 84 37 1e ae 00 b6 c5 8b 5e 37 9c e8 14 37
       1.579038e-05 -1.9174836e-06 1.3264774e-05 8.875646e-06
000340 32 56 c2 b6 22 e6 99 b5 5f 05 73 b7 40 02 c9 32
       -5.791685e-06 -1.1466366e-06 -1.4485179e-05 2.3400503e-08
000350 94 ac 2a b7 e6 23 3d 36 5a 41 ef b6 6c ec 5c b7
       -1.0172971e-05 2.818409e-06 -7.130363e-06 -1.3168068e-05
000360 4c cf 9a 36 4c 3f a5 b5 62 af 2c b5 ca d3 02 b7
       4.61369e-06 -1.231188e-06 -6.433021e-07 -7.797915e-06
000370 39 df f7 36 42 93 d0 b6 34 08 44 37 48 f7 f3 36
       7.38716e-06 -6.216026e-06 1.168442e-05 7.2707517e-06
000380 c7 0a 08 37 60 57 28 b7 7b 55 31 b6 f4 53 39 37
       8.108741e-06 -1.0033924e-05 -2.6424811e-06 1.1046406e-05
000390 fe 8e af 35 34 89 5b b6 40 24 25 37 cd e3 2f b7
       1.3080132e-06 -3.2713406e-06 9.8432065e-06 -1.0483852e-05
0003a0 18 8e 66 36 89 86 92 b6 bc c6 34 37 c3 af 3c b7
       3.435538e-06 -4.366801e-06 1.07751075e-05 -1.1246596e-05
0003b0 c1 39 1a 36 78 bc c0 b6 22 ad 5f b7 ba c0 13 35
       2.2981405e-06 -5.7439865e-06 -1.3332146e-05 5.504222e-07
0003c0 14 1c b3 b6 66 29 4c 37 f8 f2 35 37 38 d2 45 b6
       -5.3378844e-06 1.2168986e-05 1.0845011e-05 -2.947765e-06
0003d0 76 81 07 b8 23 69 8c b7 9c 3a 82 36 82 51 a1 36
       -3.2307078e-05 -1.6738259e-05 3.881125e-06 4.8076627e-06
0003e0 18 e9 56 37 e6 08 1e 36 16 1f 2f 36 d2 05 e1 b6
       1.2809665e-05 2.3549014e-06 2.6095126e-06 -6.7062e-06
0003f0 e7 fe 38 b6 2b 18 36 36 30 64 38 b7 88 33 34 37
       -2.756651e-06 2.713418e-06 -1.0990581e-05 1.0740834e-05
