motion_planning/NN_model/models/single_002_left.pt (torch, 491546 bytes, 24 tensors)

l1.weight f4 [250, 3]
0	0xbe1577db	-0.14596502
1	0xbedb947b	-0.4288672
2	0xbe91f770	-0.28509092
3	0x3ccd7341	0.025079371
4	0xbeae4bde	-0.34042257
5	0xbde2d420	-0.11075616
6	0xbdc3f84c	-0.09568843
7	0x3eee0af5	0.46492735
8	0xbf24dbef	-0.6439809
9	0xbf06276a	-0.5240389
10	0x3d16566e	0.03670352
11	0xbe086fb4	-0.13323861
12	0xbf39a493	-0.72516745
13	0xbf0c094a	-0.54701674
14	0x3e0e4688	0.13894093
15	0xbd70b109	-0.058762584
16	0xbf0395c9	-0.5140043
17	0xbef7fe9a	-0.48436433
18	0xbe57696f	-0.21036313
19	0x3f0b50de	0.5442027
20	0x3f003f27	0.5009636
21	0x3eba373c	0.36370265
22	0x3e2a9d45	0.16661556
23	0x3e073e13	0.13207273
24	0xbd78f0fd	-0.0607767
25	0x3efebdd3	0.497542
26	0x3eab6d60	0.33481884
27	0x3f392835	0.72326976
28	0x3e807cda	0.25095254
29	0x3f13221e	0.57473934
30	0x3e687529	0.22700943
31	0xbf14018f	-0.5781488
32	0xbe855889	-0.2604411
33	0x3e99b66f	0.30021998
34	0x3f0b4e05	0.54415923
35	0xbef9ee86	-0.4881479
36	0x3f0a0894	0.5391934
37	0x3eb6ba7e	0.35689157
38	0xbe126f11	-0.14300181
39	0x3e0a9d9a	0.13536683
40	0xbeddaf34	-0.43297732
41	0xbef2c9e8	-0.47419667
42	0xbe94f6f4	-0.2909466
43	0x3e56d44c	0.20979422
44	0x3ec528ca	0.38507682
45	0x3e7d3688	0.24727833
46	0x3f2418e6	0.6410049
47	0x3ef8554d	0.4850258
48	0x3e99e5ff	0.30058286
49	0xbc3931d0	-0.01130338
50	0x3e4e98f3	0.20175533
51	0x3c896aff	0.016774653
52	0xbe8367ae	-0.2566504
53	0xbf250dcc	-0.6447418
54	0xbef38b83	-0.47567376
55	0x3f03165d	0.51206
56	0xbf11a404	-0.56890893
57	0xbf0a071e	-0.5391711
58	0x3f0dd88f	0.5540857
59	0x3e767483	0.24067883
60	0x3e2a31c8	0.16620553
61	0xbf3350b2	-0.70045006
62	0xbeb551f4	-0.35414088
63	0xbf63eccd	-0.89033204
64	0x3e741c04	0.23838812
65	0x3ecf2121	0.40454963
66	0x3db9af06	0.09066586
67	0xbefc9def	-0.49339244
68	0xbefa7eb2	-0.48924786
69	0x3efc5862	0.4928618
70	0xbf2e71fa	-0.68142664
71	0xbe5b2888	-0.2140218
72	0xbdc78491	-0.09742082
73	0xbe847510	-0.25870562
74	0x3eee7dd0	0.46580362
75	0xbe3d75ce	-0.1850197
76	0xbf0ff1df	-0.5622844
77	0xbf036c25	-0.5133689
78	0x3d8651cc	0.0655857
79	0xbd4ec7b2	-0.050483413
80	0xbf04449a	-0.5166718
81	0xbf162f40	-0.5866585
82	0x3e83daaf	0.2575278
83	0x3e8aacde	0.27085012
84	0x3eaa1dcc	0.33225858
85	0x3e069b2c	0.13145131
86	0xbf0e6a2d	-0.5563076
87	0x3e0b05d6	0.13576445
88	0x3e659e9e	0.22423789
89	0xbefff83f	-0.49994084
90	0xbee9fab1	-0.45699075
91	0xbc805ba9	-0.015668707
92	0x3e8201e3	0.25392064
93	0xbc1a8529	-0.009431162
94	0x3e63ac59	0.22233714
95	0x3f06bb5d	0.52629644
96	0xbeb754d9	-0.3580692
97	0xbf180f23	-0.59398097
98	0x3e9caa99	0.30598906
99	0xbe84ee38	-0.25962996
100	0xbeb2124c	-0.34779584
101	0x3f17aba7	0.59246296
102	0x3eb3c316	0.35109776
103	0x3d33035c	0.043704376
104	0x3e06f0d6	0.13177809
105	0xbf0272b1	-0.50956255
106	0xbf26ea0c	-0.6520088
107	0xbf15fba9	-0.5858713
108	0x3ea214f1	0.31656602
109	0xbd6849b5	-0.056710918
110	0xbec3b715	-0.38225618
111	0xbd6f50ec	-0.058426782
112	0xbea80688	-0.32817483
113	0x3eb72919	0.35773543
114	0xbed0e5cc	-0.4080032
115	0xbec29be7	-0.3800957
116	0x3f0ae820	0.54260445
117	0xbd7dd1cd	-0.06196766
118	0xbf11e80f	-0.5699472
119	0x3f22ab46	0.6354259
120	0xbe8aaabd	-0.27083388
121	0x3f380dda	0.71896136
122	0xbf0ab567	-0.5418305
123	0x3d63459d	0.05548631
124	0xbeb588f8	-0.3545606
125	0x3e6d7f84	0.23193175
126	0x3eb48ec3	0.3526517
127	0xbe616ddf	-0.22014569
128	0x3d803f36	0.062620565
129	0x3eefef95	0.46862474
130	0x3ec1e25a	0.37868005
131	0x3f0b5010	0.5441904
132	0xbf24b6b1	-0.64341265
133	0xbf0cc0a3	-0.5498144
134	0xbea96567	-0.33085176
135	0x3cc50444	0.024049886
136	0x3f070655	0.52744037
137	0x3f041668	0.5159669
138	0x3ed2c91e	0.41169065
139	0x3f0bb9a6	0.5458015
140	0xbda71bcb	-0.08159598
141	0x3e210aa6	0.15726718
142	0x3f358487	0.70905346
143	0xbd8cae12	-0.06869139
144	0x3e960334	0.2929932
145	0x3ea0055c	0.3125409
146	0x3e69e900	0.22842789
147	0xbf12923d	-0.5725439
148	0x3e93aaeb	0.28841338
149	0xbedd350a	-0.43204528
150	0xbe399314	-0.18122512
151	0xbe904d58	-0.2818401
152	0xbeac4bca	-0.33651572
153	0xbebf626f	-0.37379786
154	0xbddc03b2	-0.10742892
155	0x3ef83e9a	0.4848526
156	0xbe66a22c	-0.22522801
157	0x3da13d1f	0.07872986
158	0x3eaa97ad	0.33318844
159	0xbe41ef2d	-0.18938895
160	0x3f3a8373	0.72856826
161	0xbf2f52a5	-0.6848548
162	0x3e59f5b5	0.21285136
163	0x3eb48a4b	0.3526176
164	0xbd0c1c17	-0.034206476
165	0xbe49c579	-0.19704236
166	0xbd8c9f79	-0.068663545
167	0xbee4c5d9	-0.44682196
168	0x3f0fcd4a	0.5617262
169	0x3f0bf213	0.5466625
170	0x3dc8bcd0	0.09801638
171	0xbe7aa01f	-0.24475144
172	0x3e4c64b5	0.19960292
173	0xbeeb9827	-0.4601452
174	0xbdde5dcd	-0.10857735
175	0x3ea00c31	0.312593
176	0xbf312cf7	-0.69209236
177	0x3de76c62	0.11299969
178	0xbede90bb	-0.43469796
179	0x3e9e31de	0.3089742
180	0xbea309ff	-0.31843564
181	0x3eb48ae2	0.3526221
182	0xbf169f1d	-0.5883654
183	0x3d86f3fe	0.065895066
184	0xbed146e9	-0.40874413
185	0xbf29690a	-0.661759
186	0xbf0dc12b	-0.55372876
187	0xbf247e4b	-0.6425521
188	0x3f2380e9	0.63868576
189	0x3e915af1	0.28389695
190	0x3f24bb02	0.6434785
191	0xbead00c2	-0.3378964
192	0xbf10a6f7	-0.5650477
193	0xbdcb8347	-0.099371485
194	0x3f0ba7f5	0.5455316
195	0x3ef848e9	0.48493126
196	0xbe217c52	-0.1577008
197	0xbecd98c8	-0.40155625
198	0x3dcd936b	0.10037883
199	0xbe84c9d1	-0.25935224
200	0xbe9c1949	-0.3048804
201	0x3e8d9afc	0.27657306
202	0x3e7f666e	0.24941418
203	0xbe9c9431	-0.3058181
204	0x3e8039af	0.2504401
205	0xbee1f8d1	-0.44135144
206	0xbe49591f	-0.19662903
207	0xbe791ca7	-0.24327336
208	0x3e920893	0.28522167
209	0xbd5032a6	-0.050829552
210	0xbed137a1	-0.40862754
211	0xbea28c07	-0.31747457
212	0xbe650fe1	-0.22369339
213	0x3e51c0a9	0.2048365
214	0x3f310a79	0.69156605
215	0xbeaa75dc	-0.33293045
216	0xbeb36ab2	-0.3504234
217	0x3f0d4b96	0.5519346
218	0x3ef3567a	0.47526914
219	0x3e9c7961	0.30561355
220	0x3dc3987b	0.09550568
221	0x3e34a07d	0.17639346
222	0x3c4f1253	0.012638646
223	0xbe36c078	-0.17846859
224	0xbe822512	-0.25418907
225	0xbf030376	-0.51177156
226	0xbf2b09bf	-0.66811746
227	0x3e693d33	0.22777252
228	0x3f039635	0.5140107
229	0xbf05c367	-0.52251285
230	0xbe93781f	-0.28802583
231	0x3e1794ff	0.14802931
232	0xbe99b7da	-0.3002308
233	0xbf0f6db7	-0.56026787
234	0x3f0c6fa1	0.5485783
235	0xbf1588cd	-0.58411866
236	0xbe33ddf1	-0.17565133
237	0xbcf49ac0	-0.029858947
238	0x3eca4069	0.39502266
239	0xbe449817	-0.19198643
240	0xbf0c1106	-0.54713476
241	0xbf17d1bf	-0.5930442
242	0x3ecf9d9b	0.4054993
243	0x3ee981ab	0.4560674
244	0xbef8397e	-0.48481363
245	0xbe436c9c	-0.190844
246	0x3ec33929	0.38129547
247	0x3dfaa4d2	0.12238468
248	0x3f0faf05	0.56126434
249	0x3e2da0a7	0.16955815
250	0xbe481a04	-0.19541174
251	0x3e46af70	0.19402862
252	0xbe96716d	-0.29383412
253	0xbf052fec	-0.5202625
254	0xbe8a2a80	-0.2698555
255	0xbe07c6b6	-0.13259396

l1.bias f4 [250]
0	0xbe50a01a	-0.20373574
1	0xbddacb2e	-0.10683285
2	0x3d5adf17	0.05343541
3	0x3edcd318	0.43129802
4	0x3dd9c4a4	0.10633209
5	0xbe1a3d08	-0.15062344
6	0x3ea497af	0.32146975
7	0x3eb9af07	0.36266348
8	0xbd306909	-0.04306892
9	0x3e254bc4	0.16142184
10	0x3ed21144	0.41028798
11	0x3e65fd32	0.22459868
12	0x3eaa9c48	0.33322358
13	0x3ec4ea4b	0.3846
14	0x3ec6b952	0.38813263
15	0x3f1a4624	0.60263276
16	0xbede1664	-0.43376458
17	0xbe85076d	-0.25982228
18	0xbd9d85c1	-0.07691527
19	0xbecccfc9	-0.40002277
20	0x3c6c7647	0.014432496
21	0x3e1441e4	0.1447826
22	0x3e3441aa	0.17603174
23	0xbdd99cb5	-0.106255926
24	0xbec4f433	-0.3846756
25	0x3f010d69	0.5041109
26	0xbed40fa5	-0.41418186
27	0xbee72104	-0.45142376
28	0xbecf1457	-0.40445206
29	0xbde1f1fd	-0.11032484
30	0xbd45e359	-0.04831252
31	0xbec27ff4	-0.37988245
32	0xbca9212e	-0.020645704
33	0x3effbfaa	0.49950916
34	0xbe54fbbf	-0.20799159
35	0x3e37c472	0.17946032
36	0x3e07d274	0.13263875
37	0x3edff74b	0.43743357
38	0x3ec0786b	0.37591872
39	0x3e9a0c2d	0.30087414
40	0x3da3aaec	0.07991585
41	0xbec1ef4b	-0.3787788
42	0xbf076da5	-0.5290168
43	0x3e450f6f	0.19244169
44	0x3cacee17	0.021109624
45	0x3e9843af	0.29739138
46	0xbed156dc	-0.4088658
47	0xbdfeebe7	-0.124473386
48	0xbc152d0c	-0.009104978
49	0x3ee2a570	0.44266844
50	0xbef42a20	-0.4768839
51	0x3ea8367b	0.32854065
52	0xbf018814	-0.50598264
53	0xbe2e1a5b	-0.17002241
54	0xbef7342f	-0.48282
55	0xbf0c64b4	-0.5484116
56	0x3ea8649b	0.32889256
57	0xbc7772d0	-0.015103057
58	0x3ee49775	0.44646803
59	0x3d839da2	0.064265504
60	0xbeba38c0	-0.36371422
61	0xba22ef68	-0.0006215484
62	0xbe75b2c9	-0.23993982
63	0xbbe69594	-0.007036874
64	0x3d414867	0.04718819
65	0xbf003b4c	-0.5009048
66	0x3daa64f0	0.083200336
67	0x3dc90897	0.098160915
68	0x3efe6d30	0.49692678
69	0xbe5abf14	-0.21361953
70	0x3d62ba68	0.055353552
71	0xbc838e02	-0.016058926
72	0x3ed74ff1	0.42053178
73	0x3ec03810	0.37542772
74	0xbe5c1ac8	-0.21494591
75	0xbdda4fdf	-0.106597655
76	0x3e853018	0.26013255
77	0x3eb0979e	0.34490675
78	0x3e0f7c62	0.14012292
79	0x3ee32d52	0.44370514
80	0x3ee77727	0.45208094
81	0xbe2f999f	-0.17148446
82	0x3eb7e6e1	0.35918334
83	0x3ee64491	0.44974187
84	0x3c0f3857	0.00874146
85	0xbe7f2b6a	-0.24918905
86	0x3ec8d004	0.39221203
87	0x3e9452b5	0.2896935
88	0x3eab925f	0.3351011
89	0x3f07c8d0	0.5304079
90	0x3d4e0855	0.050300915
91	0xbe816408	-0.2527163
92	0xbe64524c	-0.22297019
93	0xbeb88b26	-0.36043662
94	0xbe7a3d3c	-0.24437422
95	0xbead72d5	-0.33876672
96	0x3e4ff20f	0.20307182
97	0x3e9fa9c6	0.31184214
98	0xbe9db41e	-0.3080148
99	0xbe1b7d0a	-0.15184417
100	0xbeb32e04	-0.34996045
101	0x3ed35040	0.41272163
102	0x3f0fdfd5	0.56200916
103	0xbe98502d	-0.2974867
104	0x3e3b37ca	0.18283
105	0xbee1a780	-0.44073105
106	0xbee9437f	-0.45559308
107	0x3e9c8d9c	0.3057679
108	0xbe5f0e17	-0.21782719
109	0xbd9ad4d2	-0.075601235
110	0xbe986f4a	-0.29772407
111	0xbe50e3db	-0.2039942
112	0x3e8fd077	0.28088734
113	0xbe8f629c	-0.2800492
114	0x3e16b32f	0.1471679
115	0x3ef35575	0.47526136
116	0xbee88c37	-0.45419475
117	0x3d3ee1c4	0.046602026
118	0xbe33d9d4	-0.17563564
119	0xbea08bc2	-0.31356627
120	0xbef35da2	-0.47532374
121	0xbe2dfb6d	-0.16990443
122	0xbe8b3f0b	-0.27196535
123	0x3f00580a	0.50134337
124	0xbef69be1	-0.481658
125	0xbe948ab6	-0.29012078
126	0xbe62637a	-0.2210826
127	0x3f19848e	0.5996789
128	0xbe967d12	-0.29392296
129	0x3d0173af	0.031604465
130	0x3eea41b6	0.45753258
131	0xbe939dcf	-0.28831336
132	0xbe9f132a	-0.3106931
133	0x3ef10c1d	0.47079554
134	0x3e1543da	0.14576665
135	0x3f124985	0.5714343
136	0x3e73486a	0.23758093
137	0xbe9ceac2	-0.30647856
138	0x3e99fdd7	0.30076477
139	0xbd850bc5	-0.064963855
140	0x3e880d16	0.26572484
141	0x3f063b50	0.52434254
142	0xbe65d72a	-0.2244536
143	0x3eb62c5f	0.35580727
144	0x3ea4de3a	0.32200795
145	0x3e006c8f	0.12541412
146	0xbd8254a8	-0.06363803
147	0x3cfb62c6	0.030686747
148	0xbc1931d3	-0.009350258
149	0xbdb8418a	-0.089968756
150	0xbe02decb	-0.12780301
151	0x3e7d6cac	0.24748486
152	0x3ee27bbe	0.44235033
153	0xbec53568	-0.38517308
154	0xbede277e	-0.43389505
155	0x3f02a61a	0.510347
156	0x3ef86798	0.48516536
157	0xbda68c26	-0.081322
158	0x3ec11a3f	0.37715337
159	0x3ed19f91	0.40942052
160	0xbefb244b	-0.49051127
161	0xbd1968ba	-0.03745339
162	0x3eea8907	0.4580767
163	0x3f12df56	0.57372034
164	0xbe1505c8	-0.14552987
165	0x3f0323d4	0.51226544
166	0xbdca6fe7	-0.09884625
167	0x3f0d42bd	0.5517996
168	0x3e2de7e2	0.16982988
169	0x3ea2bb38	0.31783462
170	0xbefa353e	-0.48868746
171	0x3dfbc065	0.12292556
172	0xbed9b368	-0.4251969
173	0x3ea65c54	0.32492316
174	0xbf0635f6	-0.5242609
175	0xbe8f32dd	-0.27968493
176	0xbef09aba	-0.46993047
177	0xbde28d3b	-0.11062094
178	0x3dab4ab2	0.083638564
179	0xbef56677	-0.47929737
180	0xbefe9d23	-0.4972926
181	0x3ebffb83	0.37496576
182	0xbf0d8d86	-0.5529407
183	0xbe873363	-0.26406392
184	0x3e82ffc8	0.2558577
185	0x3e3d87ac	0.18508786
186	0xbdfe6016	-0.12420671
187	0x3d4aa33c	0.04947208
188	0xbe390dc1	-0.18071653
189	0x3f05d144	0.5227244
190	0xbefb8132	-0.49122006
191	0x3dd97849	0.10618646
192	0xbec230a9	-0.3792775
193	0x3ee99f4d	0.4562935
194	0xbec70412	-0.38870293
195	0x3e627825	0.22116144
196	0x3ec1c128	0.3784268
197	0xbe7ed6d5	-0.2488664
198	0xbefb763f	-0.49113652
199	0xbea22709	-0.31670406
200	0x3efdc5af	0.49564883
201	0x3cb8100d	0.022468591
202	0xbdb68dfb	-0.089137994
203	0x3ed6556a	0.4186204
204	0xbf028f4f	-0.5099992
205	0xbeddd9a1	-0.433301
206	0x3ecda4d9	0.4016483
207	0x3f149258	0.580358
208	0xbcb29450	-0.021799237
209	0xbeb94d19	-0.36191633
210	0xbe0f39b7	-0.1398686
211	0xbef6129e	-0.4806108
212	0xbdf144d5	-0.11780707
213	0xbd87053d	-0.06592796
214	0xbe736f73	-0.23772983
215	0x3f152df3	0.5827324
216	0xbe811bbb	-0.2521647
217	0x3e1e4094	0.15454322
218	0xbe733766	-0.23751602
219	0x3eb1040a	0.34573394
220	0x3e92d765	0.28679958
221	0xbe0ceefa	-0.13763037
222	0xbedf72aa	-0.4364217
223	0xbebbc3da	-0.3667286
224	0x3ed0d762	0.40789324
225	0xbe981be9	-0.29708794
226	0x3f02104f	0.50806135
227	0xbe121b00	-0.14268112
228	0xbef69089	-0.48157147
229	0x3e8bbb97	0.27291557
230	0xbe980f69	-0.29699257
231	0x3eb9be94	0.36278212
232	0xbe838f4b	-0.2569526
233	0x3e9d0e48	0.30674958
234	0xbe4de002	-0.20104983
235	0xbee89e55	-0.45433298
236	0x3ec38b03	0.38191995
237	0xbef64c1b	-0.4810494
238	0xbf084957	-0.5323691
239	0xbcba2058	-0.0227205
240	0xbf00060c	-0.50009227
241	0xbd149d00	-0.03628254
242	0x3e30188a	0.17196861
243	0xbe47a878	-0.1949786
244	0x3e7ecc48	0.24882615
245	0xbce9cfe5	-0.028541515
246	0x3dbf5547	0.09342437
247	0x3ed612f8	0.41811347
248	0x3f094e17	0.5363478
249	0x3e61cbef	0.2205045

l2.weight f4 [130, 250]
0	0xbdf7f0fa	-0.121065095
1	0xbc59435f	-0.013260691
2	0xbe089bda	-0.13340703
3	0xbd6d7873	-0.057976197
4	0x3e434db7	0.19072615
5	0x3d4a8e7b	0.049452286
6	0x3d88187a	0.066452935
7	0x3d6cd675	0.05782171
8	0x3d5ab8a7	0.053398754
9	0x3cddc1f8	0.02707003
10	0xbb042c1f	-0.00201679
11	0x3d538201	0.051637653
12	0x3d90b70c	0.070661634
13	0xbd75d72b	-0.060019653
14	0x3d033065	0.032028574
15	0x3c960938	0.018314943
16	0xbdf42ec2	-0.11922981
17	0x3d146516	0.036229216
18	0x3ce57995	0.028012076
19	0xbce30a32	-0.027714822
20	0xbbebfa65	-0.00720148
21	0x3e4af4d1	0.19819953
22	0xbdafb961	-0.0858028
23	0x3e141a9a	0.14463273
24	0x3cd5161a	0.026011515
25	0xbca2b93b	-0.019863715
26	0x3cfd15e6	0.030894231
27	0x3cd0d2f1	0.02549121
28	0xbd4e23ea	-0.05032722
29	0x3bc5089b	0.0060129887
30	0x3e0706a9	0.13186134
31	0x3d0a7c11	0.033809725
32	0xbe81aa6e	-0.2532534
33	0xbd3a1de5	-0.045438666
34	0xbd8e6d92	-0.06954493
35	0xbdb948c5	-0.09047083
36	0xbd40f090	-0.04710442
37	0x3c047b62	0.008086057
38	0x3d1a503f	0.037674185
39	0x3d98156e	0.074259624
40	0xbd8c548e	-0.06852065
41	0x3dce99a2	0.10087897
42	0xbba25b65	-0.0049547427
43	0x3c8721d2	0.016495619
44	0x3dff1bee	0.12456499
45	0xbb0ab81d	-0.002116687
46	0xbc88564b	-0.01664271
47	0x3defd398	0.1171028
48	0x3e07287e	0.1319904
49	0x3d1194e5	0.035542388
50	0xbb696814	-0.0035615014
51	0x3d256629	0.04038063
52	0x3ba89029	0.0051441384
53	0xbc2c554b	-0.010518382
54	0x3d6ece61	0.058302287
55	0xbdabfbfd	-0.08397672
56	0xbcb28084	-0.021789797
57	0xbc84c9cb	-0.016209504
58	0xbd00af05	-0.03141691
59	0x3c8dcae4	0.01730866
60	0x3d564da3	0.052320134
61	0xbd9bacef	-0.07601344
62	0xbe101e17	-0.14073978
63	0xbd0694c5	-0.03285672
64	0x3b4c6ad3	0.0031191602
65	0xbc8cb8c4	-0.017177947
66	0xbd881096	-0.066437885
67	0x3d7aec14	0.061260298
68	0x3d19e9e3	0.037576567
69	0xbceffefd	-0.029296393
70	0x3de35d0c	0.11101732
71	0x3d07a289	0.03311399
72	0x3cc15870	0.02360174
73	0x3c3ffabd	0.0117174955
74	0xbdb17027	-0.086639695
75	0xbebab05c	-0.36462677
76	0xbc73b590	-0.014874831
77	0x3cd3e0cc	0.025864027
78	0xbcdfe276	-0.027329665
79	0x3d50f0aa	0.051010765
80	0xbcb99608	-0.022654548
81	0x3d809428	0.062782586
82	0xbd053dab	-0.032529514
83	0xbd41902d	-0.047256637
84	0x3d794b22	0.060862668
85	0x3d63e3fe	0.055637352
86	0xbd83748e	-0.064187154
87	0x3d88ea03	0.06685259
88	0xbd441cec	-0.047879145
89	0xbc92515f	-0.017861066
90	0x3e1b2c47	0.15153609
91	0xb9a27c58	-0.0003099169
92	0x3d23bd5b	0.039975505
93	0x3d2b3c66	0.041805647
94	0xbeb4f7de	-0.35345358
95	0x3e12d455	0.1433881
96	0x3d940233	0.07226982
97	0x3dc10a0c	0.094257444
98	0xbe6780c5	-0.22607715
99	0x3d70322d	0.0586416
100	0xbc96645b	-0.0183584
101	0x3c2af021	0.010433228
102	0xbc09874e	-0.008394076
103	0xbd6e577a	-0.058188893
104	0xbcd163c1	-0.025560262
105	0x3cdce204	0.026963241
106	0x3d25515e	0.0403608
107	0xbd8d0427	-0.068855576
108	0xbd8b7414	-0.068092495
109	0x3da35976	0.07976048
110	0x3d31d55a	0.04341636
111	0xbd6a720a	-0.057237662
112	0x3d16fe61	0.03686369
113	0x3deb6dfc	0.11495587
114	0x3bec6079	0.007213649
115	0xbc00101c	-0.007816341
116	0xbce7f56f	-0.028315274
117	0x3e571a2c	0.21006078
118	0x3dcff8f5	0.10154907
119	0xbd838f06	-0.06423764
120	0xb9b28c57	-0.00034055367
121	0x3caa2185	0.020767936
122	0x3ce6f5da	0.028193403
123	0xbcf7242c	-0.030168615
124	0xbe02fc9b	-0.12791674
125	0x3b3e6d6c	0.002905692
126	0x3dcf65a0	0.10126805
127	0x3c703d39	0.014663034
128	0x3d16bda3	0.036801945
129	0xbe29986d	-0.16562052
130	0xbd38a86e	-0.045082502
131	0x3c691f2d	0.014228624
132	0x3dcc5bb1	0.09978426
133	0x3d162eaa	0.036665596
134	0x3b5df7e2	0.0033869673
135	0xbd1333ba	-0.035938002
136	0x3cbb1da2	0.022841278
137	0xbd362da9	-0.04447714
138	0xbd358340	-0.044314623
139	0xbd66f0ae	-0.056381874
140	0x3d4cd6db	0.05000959
141	0xbd42a06f	-0.047516283
142	0xbc0288ad	-0.007967156
143	0xbca5e2bc	-0.020249717
144	0x3c3858a6	0.011251604
145	0x3cc74f5e	0.024329837
146	0x3dc85fb2	0.097838774
147	0x3d34fabb	0.044184428
148	0xbdfbd333	-0.122961424
149	0xbdc76f9d	-0.097380854
150	0xbe42126e	-0.18952343
151	0x3c7f779d	0.015592483
152	0x3d97f9fd	0.07420728
153	0xbe86f941	-0.2636204
154	0x3beefa7d	0.007293044
155	0xbafc2a25	-0.0019238634
156	0x3c0b015e	0.008484213
157	0x3db7815b	0.089602195
158	0xbd9c0774	-0.07618609
159	0x3c377f37	0.011199764
160	0xbcfbfa0c	-0.03075888
161	0x3e019282	0.12653545
162	0xbcf4fcf6	-0.029905777
163	0x3bc80039	0.006103542
164	0x3dc53662	0.09629513
165	0x3c912578	0.017718062
166	0x3d60b05d	0.054855693
167	0xbd907fd9	-0.07055635
168	0x3daec9ac	0.085345596
169	0x3ce24465	0.027620504
170	0xbd28d77f	-0.041221138
171	0xbd5b57bb	-0.053550463
172	0xbc3d0177	-0.011535994
173	0x3d2bd06e	0.04194682
174	0xbcb0c809	-0.02157976
175	0xbd91a460	-0.0711143
176	0xbdb75b55	-0.08952967
177	0xbd15a0c0	-0.036530256
178	0x3c7fcc57	0.015612683
179	0xbd50d0a9	-0.050980244
180	0xbc851035	-0.01624308
181	0x3dcc6b08	0.09981352
182	0x3d964385	0.07337097
183	0xbd3f09f4	-0.04664035
184	0x3dcc2bdc	0.09969303
185	0xbd852e45	-0.06502966
186	0xbdce3acf	-0.100698106
187	0xbe494f95	-0.19659264
188	0x3dd0495b	0.101702414
189	0xbd09949d	-0.033588994
190	0xbc899092	-0.01679257
191	0x3e01ce20	0.12676287
192	0xbdabb8e9	-0.08384878
193	0x3d408eeb	0.047011297
194	0xbd20fe95	-0.03930529
195	0x3d8c71ec	0.068576664
196	0x3d41209f	0.04715025
197	0xbcf17a0b	-0.02947714
198	0xbbe0ba2a	-0.00685813
199	0x3d6a0064	0.05712928
200	0x3baa98c2	0.0052061984
201	0xbd4529a6	-0.048135422
202	0xbbb8f55b	-0.005644483
203	0x3c317211	0.010830418
204	0xbd04b437	-0.03239843
205	0xbda2180b	-0.07914742
206	0xbd5306f4	-0.051520303
207	0x3d117759	0.03551421
208	0xbbc2a1c8	-0.005939696
209	0x3cec7f41	0.028869273
210	0xbdcaa218	-0.09894198
211	0x3cf5b708	0.029994503
212	0xbd8999ac	-0.06718764
213	0xbec32536	-0.38114327
214	0x3d2fed16	0.042950712
215	0xbd0d1cfd	-0.034451474
216	0xbdcb4a4f	-0.099262826
217	0x3d8f198f	0.06987297
218	0xbc12c347	-0.008957691
219	0xbda09a26	-0.078419015
220	0x3cb83505	0.02248622
221	0x3d22fe6a	0.03979341
222	0x3d5da452	0.054111786
223	0xbc5abe79	-0.013351076
224	0xbd39c8b3	-0.045357417
225	0xbd15cf49	-0.036574636
226	0xbce9ca63	-0.028538888
227	0x3e00dbd0	0.12583852
228	0x3c9cb65c	0.019129924
229	0x3c829f45	0.015945086
230	0x3aca5de0	0.0015439354
231	0xbcdd6241	-0.02702439
232	0xbd36cd12	-0.044629164
233	0x3b35de5e	0.002775095
234	0xbdaf4e8b	-0.08559903
235	0xbe1436d5	-0.14474042
236	0x3dbbee9e	0.09176372
237	0x3cf9b351	0.030481013
238	0xbae29f61	-0.001728993
239	0x3d751969	0.059838686
240	0xbe8e29c6	-0.27766246
241	0xbdf5d023	-0.120025896
242	0xbc0df53e	-0.008664427
243	0x3de1c172	0.11023225
244	0x3d15238f	0.036410864
245	0x3d78afe0	0.060714602
246	0x3cd101bb	0.02551352
247	0x3c126644	0.008935515
248	0xbcda5a3b	-0.026654353
249	0x3a2ef3b5	0.00066738884
250	0x3d631af0	0.05544561
251	0xbc8b84bb	-0.017031064
252	0xbd3b1341	-0.04567266
253	0xbd4013c1	-0.04689384
254	0xbc20db1f	-0.009817868
255	0x3d5e0e17	0.054212656

l2.bias f4 [130]
0	0x3cdbd539	0.02683507
1	0xbc39980b	-0.011327754
2	0xbd63267d	-0.055456627
3	0xbc7d7399	-0.015469455
4	0x3d41b5d7	0.047292557
5	0x3912de88	0.00014006544
6	0xbcd743a0	-0.026277363
7	0xbd24aca0	-0.04020369
8	0xbd555e29	-0.05209175
9	0xbcf5caf5	-0.030004004
10	0xbd741116	-0.059586607
11	0x3ca51c7b	0.020155182
12	0x3d16def6	0.036833726
13	0x3d5c56eb	0.05379383
14	0x3dd86a39	0.10567135
15	0x3d21dbd1	0.039516274
16	0xbc76ab2b	-0.015055458
17	0x3d6fc7a4	0.05854
18	0x3d97a2c3	0.07404091
19	0x3d5b3528	0.05351749
20	0xbd6d06ea	-0.057867922
21	0x3d5d9730	0.05409926
22	0x38a20f75	7.727641e-05
23	0x3c9093bf	0.017648576
24	0x39eb7ca5	0.0004491556
25	0xbc0836f5	-0.008313884
26	0xbcedcc0c	-0.029027961
27	0x3d22f3bc	0.039783224
28	0x3ce1b099	0.027550029
29	0x3d82292c	0.06355509
30	0x3d5a819a	0.053346254
31	0xbc1f3a97	-0.009718559
32	0xbd97ccec	-0.074121326
33	0x3cec7dda	0.028868604
34	0x3d11cb9e	0.035594575
35	0xbc841647	-0.016123904
36	0xbc29f324	-0.010372911
37	0x3d26d99c	0.040734872
38	0xbd80efbf	-0.06295728
39	0x3c1f61dc	0.009727921
40	0xbd58e2cb	-0.05295066
41	0xbd878b23	-0.06618335
42	0xbd3e9367	-0.046527293
43	0x3cef101b	0.029182484
44	0x3d4fdcd8	0.050747722
45	0x3d210b77	0.039317574
46	0xbcc2a9ed	-0.023762668
47	0xbd11374c	-0.035453126
48	0xbd7c1a6a	-0.061548628
49	0xbd2f40a2	-0.042786248
50	0xbce8f570	-0.028437346
51	0x3d050ee0	0.03248489
52	0x3d9aefc8	0.07565266
53	0x3d23da24	0.040002957
54	0x3c1e6d40	0.009669602
55	0x3d047b35	0.032344062
56	0xbd4c89ef	-0.04993623
57	0x3d6f2f31	0.058394615
58	0x3c5452b6	0.012959173
59	0x3b0d23a9	0.0021536148
60	0x3d2c262b	0.042028587
61	0xbc01467e	-0.007890342
62	0xbccb6f19	-0.024833249
63	0xbce9ac86	-0.028524648
64	0xbc435224	-0.011921439
65	0xbd278c99	-0.04090557
66	0x3d2df198	0.04246673
67	0x3c3154f6	0.010823479
68	0xbd452beb	-0.048137587
69	0x3c1a4527	0.009415901
70	0xbd0892f2	-0.033343263
71	0x3d812d63	0.06307485
72	0x3c7079f3	0.014677512
73	0x3d5a9553	0.053365063
74	0xbd08d81a	-0.033409216
75	0x3cb18f89	0.021674888
76	0xbd820b2e	-0.063497886
77	0x3d04c2fd	0.032412518
78	0xbd4eb0a4	-0.050461426
79	0xbc608fb3	-0.013706136
80	0xbc420c6e	-0.011843784
81	0x3d69c1c1	0.057069544
82	0xbbf36075	-0.00742727
83	0x3dcc5b7b	0.09978386
84	0xbd08fc4e	-0.03344374
85	0xbd88b6fd	-0.06675527
86	0xbd91396d	-0.07091031
87	0x3d0f9c5e	0.035061233
88	0x3cbc712c	0.023003183
89	0x3d509a54	0.05092843
90	0xbd406298	-0.046969026
91	0xbd1901cc	-0.03735523
92	0xbd0d3096	-0.034470163
93	0xbc32acd5	-0.010905464
94	0xbd36a4d8	-0.0445908
95	0x3d72c603	0.05927087
96	0xbbdb626a	-0.0066950815
97	0x3c91a832	0.017780397
98	0x3cf3644b	0.02971091
99	0xbd8d0209	-0.06885154
100	0x3df4c35c	0.11951324
101	0x3d0dbe28	0.034605175
102	0x3d3f9d8f	0.04678112
103	0xbd16b7a9	-0.036796246
104	0x3c6dd86e	0.014516933
105	0x3c81871a	0.015811492
106	0xbd065bbe	-0.032802336
107	0xbcbe28ec	-0.023212872
108	0xbd3a0287	-0.045412567
109	0xbc44d57c	-0.012013789
110	0xbc06bb54	-0.008223373
111	0x3cb7441e	0.022371348
112	0x3d28cbcb	0.041209977
113	0xbca1d396	-0.019754212
114	0xbd3b875f	-0.045783397
115	0xbcf1147f	-0.029428719
116	0xbbf3f724	-0.007445233
117	0x3d2f2464	0.042759314
118	0xbcf0e8f7	-0.029407961
119	0xbce10011	-0.027465852
120	0xbcf1ae5e	-0.02950209
121	0xbd242727	-0.0400764
122	0x3cc8248f	0.024431495
123	0xbd2c5240	-0.042070627
124	0x3c1fabfd	0.009745595
125	0xbce7511a	-0.028236914
126	0xbd14488a	-0.03620199
127	0x3d26c564	0.04071559
128	0x3d11f14d	0.035630513
129	0xbc25329d	-0.010082868

l3.weight f4 [50, 130]
0	0x3c9744b0	0.01846537
1	0xbd836359	-0.064154334
2	0x3dabf161	0.08395649
3	0x3d943367	0.07236367
4	0xbb29450b	-0.0025828506
5	0x3d401e19	0.046903703
6	0xbd81ed74	-0.06344119
7	0x3ce0d2b6	0.027444225
8	0x3c81bb40	0.015836358
9	0xbc8f531d	-0.017495686
10	0x3da6e2b2	0.081487074
11	0xbc97b51e	-0.01851898
12	0xbbbecc0a	-0.005822663
13	0xbd9ac1fa	-0.07556529
14	0x3d811f64	0.063048154
15	0xbd50e61a	-0.051000692
16	0xbcaa72a7	-0.020806624
17	0xbd836146	-0.06415038
18	0xbd8fe641	-0.07026339
19	0xbd20d784	-0.03926803
20	0x3d6a3111	0.0571757
21	0xbd9db5f5	-0.07700721
22	0x3d417b96	0.047237
23	0x3d1349c4	0.03595902
24	0xbd29e09d	-0.041473974
25	0x3d68b89e	0.05681669
26	0xbd6d2844	-0.05789973
27	0xbcb4efc3	-0.022086984
28	0xbd7c1728	-0.06154552
29	0xbd05344a	-0.03252057
30	0xbc849a2d	-0.016186798
31	0xbc37efd8	-0.011226617
32	0xbdba07dd	-0.09083531
33	0xbd8609b3	-0.06544819
34	0x3d9c2e14	0.07625976
35	0xbd1a8ef7	-0.037734
36	0xbd12f7a9	-0.03588072
37	0xbd2141f1	-0.039369527
38	0x3cc758e4	0.024334379
39	0x3bbce625	0.00576474
40	0xbd860f81	-0.06545926
41	0xbce27cdb	-0.027647426
42	0xbc9c7d9d	-0.019102866
43	0xbdba5d67	-0.09099846
44	0xbd87fc13	-0.06639876
45	0x3d3f9606	0.046773933
46	0x3d3a9181	0.04554892
47	0x3d6f822e	0.05847376
48	0xbb60dd15	-0.0034311463
49	0x3d00fd09	0.031491313
50	0xbdb1dd38	-0.08684772
51	0xbda86880	-0.08223057
52	0xbd780082	-0.06054736
53	0x3d8938be	0.06700276
54	0xbc9cf0a3	-0.019157713
55	0xbc2878c2	-0.010282697
56	0x3d81eb7a	0.06343742
57	0xbd841f61	-0.064512976
58	0x3da0ad04	0.078455
59	0xbda62843	-0.08113148
60	0xbd3d3548	-0.04619339
61	0x3d983218	0.074314296
62	0xbdaf30b0	-0.08554208
63	0xbdb039f7	-0.08604806
64	0xbd091c89	-0.03347448
65	0x3d47c0f4	0.048768
66	0x3d356d2c	0.044293568
67	0x3d0029cc	0.03128986
68	0x3d914ba7	0.07094508
69	0x3cc99d32	0.02461109
70	0xbda36565	-0.07978324
71	0xbcdc7087	-0.026909126
72	0xbd44eca8	-0.048077255
73	0xbc9aaa06	-0.018879902
74	0xbd99f180	-0.075167656
75	0xbd9244da	-0.07142039
76	0xbc296a1b	-0.010340239
77	0x3d31ebcb	0.04343776
78	0xbc82c937	-0.015965087
79	0x3d7515d5	0.059835274
80	0x3c56ab23	0.013102326
81	0x3d080a3b	0.03321288
82	0x3d80d77c	0.062911004
83	0xbd24d490	-0.040241778
84	0xbd4a37f1	-0.049369756
85	0xbd064749	-0.032782827
86	0x3d2255ee	0.03963273
87	0xbd6a03b4	-0.057132438
88	0xbb7946bd	-0.0038036548
89	0xbd4004c9	-0.046879563
90	0x3d944f7f	0.07241725
91	0xbd2a213e	-0.04153561
92	0x3d21da37	0.039514747
93	0xbd8acd1e	-0.06777404
94	0x3c847b12	0.016171966
95	0xbd93828b	-0.072026335
96	0xbd75d3c4	-0.06001641
97	0x3d8c3efd	0.068479516
98	0x3d255d2b	0.040372055
99	0xbd71eee9	-0.059065733
100	0x3d012cd9	0.03153691
101	0x3d20671d	0.039160836
102	0x3d4bf7da	0.049796917
103	0x3d1db059	0.038498256
104	0x3ca70dad	0.020392263
105	0x3d4d1de1	0.050077323
106	0x3d29abb7	0.041423526
107	0x3d0a8c80	0.033825397
108	0xba8c84eb	-0.0010720765
109	0xbd598686	-0.053106807
110	0x3da84696	0.08216588
111	0x3cabc750	0.020969063
112	0xbcccd51b	-0.02500396
113	0xbd46ce86	-0.0485368
114	0x3c65cb27	0.014025486
115	0x3d6d12a3	0.0578791
116	0xbdb9f9cf	-0.0908085
117	0xbd8cda08	-0.06877524
118	0x3a851363	0.0010152872
119	0xbd8976b5	-0.06712095
120	0xbd8cb305	-0.06870083
121	0xbd862bdf	-0.065513365
122	0x3d281123	0.041031968
123	0x3b6d264e	0.0036186161
124	0x3c136ab5	0.008997609
125	0xbda3e1fa	-0.08002086
126	0xbd90c244	-0.07068303
127	0xbd5a0313	-0.053225588
128	0xbcf18e01	-0.029486658
129	0x3d56b54e	0.052419
130	0xbc5a11d9	-0.013309919
131	0xbd51d727	-0.051230576
132	0xbd15c6d3	-0.036566567
133	0x3d51f1b3	0.051255893
134	0x3d94fadd	0.07274411
135	0x3dc507f5	0.09620658
136	0x3dc173af	0.09445893
137	0x3e03c018	0.12866247
138	0xbda1bc35	-0.07897226
139	0x3d68b30e	0.056811385
140	0x3d2c850b	0.042119067
141	0x3c7a6535	0.015282919
142	0xbcd7502f	-0.026283352
143	0x3dfb5b8d	0.12273321
144	0x3edb057e	0.42777628
145	0x3dadbc20	0.084831476
146	0xbd68d03b	-0.05683921
147	0x3d2c6988	0.04209283
148	0x3d8e6009	0.06951911
149	0x3d7e4702	0.062079437
150	0x3d58dea9	0.05294672
151	0xbd26ca0f	-0.04072004
152	0xbd88e8d9	-0.06685037
153	0xbd4254b8	-0.047444075
154	0xbd8f420f	-0.069950216
155	0xbc2a2559	-0.010384881
156	0x3cc8cf05	0.024512777
157	0x3d12f9e8	0.03588286
158	0x3d1c65cb	0.038183015
159	0x3d8a9b5c	0.06767914
160	0x3d8b2a1b	0.0679514
161	0x3c00568a	0.0078331325
162	0x3d5d1950	0.053979218
163	0xbac3a42d	-0.0014926248
164	0x3da9af06	0.08285336
165	0xbd79290e	-0.06083017
166	0x3cd8b49b	0.026453307
167	0xbd3a65ff	-0.045507427
168	0x3cc3026e	0.02380487
169	0x3d27f542	0.04100538
170	0xbd351e6e	-0.044218473
171	0xbdca09a5	-0.09865121
172	0x3c12c25c	0.008957472
173	0x3cb8073c	0.022464387
174	0xbd43ec99	-0.04783306
175	0xbc82f622	-0.015986506
176	0xbca92eb8	-0.02065216
177	0x3d8c84b3	0.06861248
178	0x3ac48ef3	0.0014996215
179	0xbd9cfacd	-0.07665024
180	0x3dc20940	0.094744205
181	0x3d046cad	0.032330204
182	0xbd5e6059	-0.054291103
183	0xbebb252c	-0.36551797
184	0xbc031e1f	-0.008002787
185	0x3dd26c77	0.10274594
186	0xbcb2d61a	-0.021830607
187	0xbb1c9254	-0.002389093
188	0x3c2f54ab	0.010701339
189	0xbd134d38	-0.035962313
190	0x3d71a486	0.058994792
191	0xbd1593f9	-0.03651807
192	0x3d92db72	0.07170762
193	0x3d9e4520	0.07728028
194	0xbdad85dd	-0.08472798
195	0x3e409e26	0.18810329
196	0x3d110efd	0.035414685
197	0xbc7a9131	-0.015293405
198	0xbcd010e5	-0.025398681
199	0x3e5b5387	0.21418582
200	0xbd6c5826	-0.057701252
201	0x3d9deb78	0.07710928
202	0xbd921cbf	-0.07134389
203	0xbd2c211a	-0.042023756
204	0x3cd11f03	0.025527483
205	0xbd4f9fe1	-0.05068958
206	0x3b78f9dc	0.0037990725
207	0x3cf28c74	0.029607989
208	0x3d704894	0.058662966
209	0xbcc7b2ca	-0.024377245
210	0x3cc23c1f	0.023710309
211	0x3d602d13	0.054730486
212	0x3d8a4039	0.06750531
213	0xbde830c7	-0.113374285
214	0xbd96ce24	-0.07363537
215	0x3d563492	0.05229623
216	0x3b533c81	0.0032232108
217	0xbd9a2d86	-0.07528214
218	0x3e72f368	0.23725665
219	0xbd995ec1	-0.07488776
220	0x3d62a110	0.055329382
221	0x3d8d2003	0.068908714
222	0x3d40a90d	0.04703622
223	0x3cc75f62	0.024337474
224	0x3c417609	0.011807927
225	0x3c6f03c5	0.014588301
226	0xbb813106	-0.0039426116
227	0xbb8d4b54	-0.0043119583
228	0xbd26e363	-0.040744197
229	0xbd1c6bd0	-0.038188756
230	0xbed7ac38	-0.4212358
231	0x3d950ea2	0.072781816
232	0x3ce86d1b	0.028372338
233	0x3d2dd0e9	0.04243556
234	0x3dd3201f	0.10308861
235	0x3a8aca7d	0.0010588911
236	0x3ddb2198	0.10699767
237	0x3e55933c	0.20856947
238	0xbdc2f4a6	-0.09519319
239	0xbd8fb7ce	-0.0701748
240	0x3d7a4790	0.061103404
241	0x3cb3926d	0.021920407
242	0xbd3e3ef2	-0.046446748
243	0xbd8254bd	-0.06363819
244	0x3d84b6f2	0.064802065
245	0x3b4f1e1f	0.0031603647
246	0xbd9b291a	-0.07576199
247	0x3e470541	0.19435598
248	0x3c0160d3	0.00789662
249	0x3cdb15ad	0.026743734
250	0x3da1e1ef	0.079044215
251	0x3d732707	0.05936339
252	0xbd15e12f	-0.036591705
253	0xbd94acbe	-0.072595105
254	0xbd1daf72	-0.038497396
255	0x3da41ac5	0.080129184

l3.bias f4 [50]
0	0x3cfec99f	0.031102
1	0xbd0823c9	-0.033237252
2	0xbc2abadd	-0.010420528
3	0xbcbb7b3e	-0.022885915
4	0x3db1c12b	0.08679422
5	0x3d198d3e	0.037488215
6	0xbc016b75	-0.007899155
7	0x3d457e63	0.048216235
8	0xbd85ee59	-0.06539602
9	0x3d5bdef0	0.053679407
10	0xbce2c3e2	-0.027681295
11	0xbd159da7	-0.036527302
12	0x3d4ef0f6	0.050522767
13	0xbcf99fab	-0.030471643
14	0x3dabb2be	0.08383702
15	0xbca8ba73	-0.020596718
16	0xbd699762	-0.057029136
17	0xbdb1f4d8	-0.08689278
18	0x3d333b14	0.043757513
19	0x3db521e8	0.08844358
20	0x3c0974a3	0.008389625
21	0x3d2008a4	0.03907074
22	0x3baeb7eb	0.0053319833
23	0xbca29bed	-0.019849742
24	0xbdab787b	-0.08372589
25	0x3c52da03	0.012869361
26	0xbd295959	-0.041344974
27	0xbc2969e6	-0.01034019
28	0xbd9e5fad	-0.077330925
29	0x3da3caed	0.079976894
30	0xbd5480f1	-0.05188078
31	0xbce044bb	-0.027376523
32	0xbd19eda4	-0.037580147
33	0x3d9ff34b	0.07810076
34	0x3d7a651a	0.061131574
35	0x3e584a64	0.21122128
36	0xbd850932	-0.064958945
37	0xbd2eddad	-0.042691875
38	0x3db85b1f	0.09001755
39	0xbd4d3a68	-0.05010453
40	0x3db8ca7a	0.09022994
41	0x3bc0d8e0	0.0058852285
42	0x3d87df2b	0.06634363
43	0x3dbdff92	0.09277262
44	0x3d996715	0.074903645
45	0x3daeda05	0.08537678
46	0xbd2776d9	-0.040884826
47	0x3b497204	0.0030738125
48	0xbd13712a	-0.035996594
49	0xbcbebaff	-0.023282526

l4.weight f4 [2, 50]
0	0xbdcf31ec	-0.10116944
1	0xbe33c855	-0.1755689
2	0x3d15ac31	0.036541168
3	0xbebeeec4	-0.3729154
4	0x3e01e03a	0.12683192
5	0xbe0c2e40	-0.13689518
6	0xbea6d2c0	-0.32582664
7	0xbe4878b4	-0.19577295
8	0xbc0dfe9a	-0.008666659
9	0xbd85ee95	-0.065396465
10	0xbd2b4b62	-0.041819938
11	0xbeca7e99	-0.3954971
12	0xbcbfdc66	-0.023420524
13	0xbdfd60df	-0.12371992
14	0xbd4b0980	-0.049569607
15	0x3e44f1f0	0.19232917
16	0xbd9e0ee7	-0.07717686
17	0x3e0cc67f	0.13747595
18	0xbd37fc75	-0.044918496
19	0xbd127e44	-0.035764948
20	0xbed1a838	-0.40948653
21	0x3dc26dd0	0.09493601
22	0xbe0186c6	-0.12649068
23	0x3d8bb1f5	0.06821052
24	0x3dc39e82	0.09551717
25	0xbd053731	-0.032523338
26	0xbdd632ad	-0.104588844
27	0x3e1506ef	0.14553426
28	0xbcc55795	-0.024089614
29	0x3d3a8467	0.045536425
30	0xbd61cc95	-0.055126745
31	0xbdfabda2	-0.12243201
32	0xbcbb65b3	-0.022875642
33	0xbe539338	-0.20661628
34	0x3e5c7d93	0.21532278
35	0xbf1654e8	-0.58723307
36	0x3cf6811d	0.030090863
37	0xbbd971be	-0.0066358736
38	0xbe4fa81b	-0.20278971
39	0x3e304b0f	0.17216133
40	0xbc62b986	-0.013838178
41	0x3dccce06	0.10000233
42	0xbcbefe5e	-0.023314651
43	0xbd9aaa1b	-0.07551976
44	0x3c393220	0.011303455
45	0x3dd0fb09	0.10204131
46	0xbdec0afb	-0.11525532
47	0xbdbfc432	-0.09363593
48	0x3ccaeac6	0.024770152
49	0x3d268eba	0.04066346
50	0xbc8fedcc	-0.017569445
51	0xbc8e1ddb	-0.01734822
52	0x3ddaad53	0.1067759
53	0xbc08b232	-0.008343266
54	0x3d809ab5	0.06279508
55	0xbc3da449	-0.011574813
56	0x3e094175	0.13403876
57	0xbdebddf2	-0.11516942
58	0x3e0c871e	0.13723418
59	0x3e2f23d5	0.17103513
60	0x3e916356	0.283961
61	0xbdcbd4b2	-0.09952678
62	0xbe50b79a	-0.20382538
63	0x3d9bf6f7	0.07615464
64	0xbce1da76	-0.02756999
65	0xbd830b70	-0.06398666
66	0xbd07183f	-0.032982107
67	0x3c7be638	0.015374713
68	0x3c7ef37b	0.01556098
69	0xbe23b0c7	-0.15985404
70	0xbea75cba	-0.32687932
71	0x3dbab52c	0.09116587
72	0x3da0df44	0.078550845
73	0x3d82c057	0.06384342
74	0x3d7dcd93	0.06196363
75	0xbe7c6243	-0.24646859
76	0x3dbedfb1	0.093200095
77	0x3e0e4903	0.1389504
78	0xbe66adbb	-0.2252721
79	0x3d98efcf	0.07467615
80	0x3dc05b69	0.09392435
81	0xbca7c193	-0.020478046
82	0x3e8d9a5b	0.27656826
83	0xbd4d2950	-0.050088227
84	0xbe413f1f	-0.18871735
85	0xbc1639e4	-0.009169076
86	0x3d13e728	0.03610912
87	0x3e16b4d9	0.14717425
88	0x3d87ed07	0.06637006
89	0x3bf2191f	0.0073882486
90	0xbe93b77a	-0.2885092
91	0xbed59228	-0.4171307
92	0xbe59d0c6	-0.21271047
93	0xbe151d93	-0.14562063
94	0x3cd24abc	0.025670402
95	0x3d6e224f	0.058138188
96	0xbda3dfb2	-0.08001651
97	0x37048320	7.898343e-06
98	0x3d60d2db	0.054888587
99	0x3dfd814f	0.12378179

l4.bias f4 [2]
0	0x3d0410f3	0.032242727
1	0x3ddfb334	0.10922852

exp_avg f4 [250, 3]
0	0xb3c1cff4	-9.025089e-08
1	0x365d4827	3.2973564e-06
2	0xb5dea76e	-1.6589017e-06
3	0x35cd5169	1.5297384e-06
4	0x340bf700	1.3035242e-07
5	0xb4d14db8	-3.8985831e-07
6	0xb4fa5cf9	-4.6633775e-07
7	0xb57e1516	-9.465306e-07
8	0x35798b09	9.296205e-07
9	0xb452a754	-1.9618648e-07
10	0xb3ac583d	-8.0254246e-08
11	0x351b7369	5.7909944e-07
12	0xb519f9dd	-5.736054e-07
13	0x356b2fee	8.761407e-07
14	0xb537a5dd	-6.8414175e-07
15	0x3518899c	5.682466e-07
16	0x361e09b4	2.3549483e-06
17	0xb629ce44	-2.5303025e-06
18	0x34337c6e	1.6715941e-07
19	0xb580558f	-9.561644e-07
20	0x358c5c7f	1.0457733e-06
21	0xb38685bf	-6.2641895e-08
22	0xb43278e6	-1.6621524e-07
23	0x35539eac	7.8834523e-07
24	0xb533d829	-6.699725e-07
25	0xb56c2f32	-8.798553e-07
26	0x34f355c5	4.5324683e-07
27	0xb4d72378	-4.0072678e-07
28	0xb4417872	-1.8018343e-07
29	0xb497d846	-2.82833e-07
30	0x3489bf75	2.5657542e-07
31	0x34808330	2.393731e-07
32	0x339921f3	7.130793e-08
33	0xb5056887	-4.969847e-07
34	0xb46bc25f	-2.1956792e-07
35	0xb4b3884a	-3.3440512e-07
36	0x31b751a3	5.335282e-09
37	0xb3ea067d	-1.0897654e-07
38	0xb4c52fac	-3.6728795e-07
39	0x33ae2261	8.10876e-08
40	0x345c926f	2.0542369e-07
41	0xb4bbf6a2	-3.5010913e-07
42	0xb3e2a0b6	-1.0553178e-07
43	0xb4037138	-1.2241514e-07
44	0x3517d475	5.656105e-07
45	0x34915443	2.7069663e-07
46	0xb2e14baf	-2.6227864e-08
47	0x34ffe72b	4.7665648e-07
48	0xb4e687f2	-4.2939752e-07
49	0xb3681b45	-5.404151e-08
50	0x3422712b	1.5128596e-07
51	0x34c03883	3.5803905e-07
52	0x3619fe44	2.2946779e-06
53	0xb6472684	-2.967573e-06
54	0xb4e04150	-4.1770772e-07
55	0xb52e39b6	-6.490403e-07
56	0xb4323968	-1.6598426e-07
57	0x339928e1	7.1320535e-08
58	0xb4d0bbeb	-3.8879747e-07
59	0xb1153f09	-2.1718185e-09
60	0x347add01	2.3363465e-07
61	0x35497f43	7.5063525e-07
62	0x35ac9e0b	1.2860995e-06
63	0x353c0c6b	7.005353e-07
64	0xb40a61d3	-1.288784e-07
65	0x334120da	4.4966193e-08
66	0xb3dc84ea	-1.0268725e-07
67	0xb492473a	-2.7246443e-07
68	0xb38661a2	-6.2576206e-08
69	0x361f33a0	2.3722896e-06
70	0x36bbfa28	5.6021563e-06
71	0xb5752f2a	-9.1338245e-07
72	0x3406037d	1.2480992e-07
73	0x33557ef7	4.97084e-08
74	0xb3a1329c	-7.5063525e-08
75	0xb3ca3e15	-9.417651e-08
76	0x34f37884	4.5349964e-07
77	0x34260854	1.5462984e-07
78	0x34ba8611	3.4742746e-07
79	0x335056e9	4.8507818e-08
80	0xb3a90ef5	-7.8723964e-08
81	0x3501ba8c	4.8327706e-07
82	0x3481360e	2.4067452e-07
83	0x32f7674d	2.880156e-08
84	0xb56cc3ef	-8.820197e-07
85	0xb37866d4	-5.783552e-08
86	0x34706833	2.2389649e-07
87	0xb53d1032	-7.0431554e-07
88	0xb455b975	-1.990464e-07
89	0xb4cacbf3	-3.7773825e-07
90	0x35c186de	1.4418872e-06
91	0xb4bada4f	-3.480404e-07
92	0xb609a154	-2.0508496e-06
93	0xb3d0f2e6	-9.729938e-08
94	0xb2c1988a	-2.2537524e-08
95	0xb46ae2dc	-2.1875479e-07
96	0xb5752daa	-9.133606e-07
97	0x361863d6	2.2707877e-06
98	0xb535ebe8	-6.7771043e-07
99	0x344c5d98	1.903303e-07
100	0xb491eae7	-2.717927e-07
101	0x35250db8	6.1487253e-07
102	0xb436eca6	-1.7036163e-07
103	0xb504f80c	-4.953479e-07
104	0xb523ef5a	-6.1070534e-07
105	0xb50bd167	-5.2086256e-07
106	0x35093d93	5.112608e-07
107	0x347b226c	2.3388719e-07
108	0x35857269	9.94257e-07
109	0xb570c267	-8.968986e-07
110	0x35394142	6.9012833e-07
111	0x33bd5495	8.816384e-08
112	0xb4bfec2a	-3.5748354e-07
113	0x33e9e7e4	1.0892089e-07
114	0xb51c0ebc	-5.813597e-07
115	0x3553789f	7.877915e-07
116	0xb53fb3ed	-7.141487e-07
117	0xb5375a84	-6.830453e-07
118	0x358bcdd9	1.0416217e-06
119	0xb52acab1	-6.362489e-07
120	0x339b6aca	7.237175e-08
121	0xb599fb9f	-1.147262e-06
122	0x34a6a11f	3.103714e-07
123	0xb31130c6	-3.3804803e-08
124	0x33dd058a	1.0292122e-07
125	0xb472226d	-2.255053e-07
126	0x34a71819	3.1123707e-07
127	0x339f8e01	7.429845e-08
128	0xb32cbfe5	-4.0221398e-08
129	0x34426de4	1.8107636e-07
130	0xb5bfcc19	-1.4290009e-06
131	0xb4e1a9ec	-4.203315e-07
132	0xb55905a3	-8.0847e-07
133	0xb531865c	-6.6133157e-07
134	0xb151c69f	-3.0526406e-09
135	0xb3992b4c	-7.132493e-08
136	0xb514be90	-5.54116e-07
137	0x351c8393	5.8305994e-07
138	0xb5050628	-4.955532e-07
139	0xb5067749	-5.009247e-07
140	0xb46cfc7d	-2.2071067e-07
141	0x3472ae32	2.2601378e-07
142	0xb6c78341	-5.945942e-06
143	0x3689af02	4.1032918e-06
144	0xb31c7b3e	-3.643367e-08
145	0xb594c130	-1.1083084e-06
146	0xb5a8c1bc	-1.257336e-06
147	0xb4805f8d	-2.391138e-07
148	0xb3c98f79	-9.3858894e-08
149	0x34bbe2f7	3.4996603e-07
150	0x33d84387	1.0070567e-07
151	0x3403e4b6	1.228353e-07
152	0xb493bf38	-2.7520014e-07
153	0xb3b1bc64	-8.276473e-08
154	0x33bcd9fa	8.794082e-08
155	0x33f7c72a	1.15380615e-07
156	0xb186062b	-3.9006145e-09
157	0xb42a5a22	-1.5865274e-07
158	0xb3edfe5f	-1.1082442e-07
159	0x34cdae68	3.8311123e-07
160	0xb5f55f9b	-1.8281747e-06
161	0xb49b8a1b	-2.8971485e-07
162	0x346346ce	2.1166781e-07
163	0xb4a5206c	-3.0757235e-07
164	0x334e8aab	4.808923e-08
165	0x333cf541	4.3995218e-08
166	0x33313bf7	4.126556e-08
167	0x34f885d9	4.6290987e-07
168	0x34cb5296	3.7871786e-07
169	0xb40ccc89	-1.3112926e-07
170	0xb3fc3797	-1.1744776e-07
171	0x32477e00	1.1611974e-08
172	0xb479bf0b	-2.3259433e-07
173	0x3556f55c	8.007826e-07
174	0xb4dc975a	-4.1088316e-07
175	0x33e6f4b4	1.0754721e-07
176	0x35ad7256	1.2922781e-06
177	0xb51ab53e	-5.763321e-07
178	0x35f0b134	1.7932966e-06
179	0xb4cecd05	-3.851966e-07
180	0xb4c7261e	-3.7094372e-07
181	0xb54a7903	-7.542696e-07
182	0x346cec00	2.2065069e-07
183	0x34d9eb9a	4.0590822e-07
184	0xb4cf98a2	-3.866781e-07
185	0x34451113	1.8353266e-07
186	0xb4172d75	-1.4079508e-07
187	0x34d9081f	4.042531e-07
188	0x33aba6db	7.993159e-08
189	0x3600f80d	1.921787e-06
190	0xb63cb270	-2.8118047e-06
191	0xb5c218dc	-1.4461361e-06
192	0x352b9d87	6.3931697e-07
193	0xb4a4de7d	-3.0709262e-07
194	0xb3aac011	-7.9511786e-08
195	0xb34b8fbb	-4.7395343e-08
196	0x338a527b	6.441129e-08
197	0x34c8f0ab	3.7428012e-07
198	0x3542bd8d	7.2546464e-07
199	0x34ae33e3	3.2447778e-07
200	0x3452fc9a	1.964967e-07
201	0xb55ad2ca	-8.1518067e-07
202	0x350a08d3	5.1421847e-07
203	0xb454d1d2	-1.9820371e-07
204	0x34bbf65d	3.5010717e-07
205	0xb380cf8f	-5.998219e-08
206	0x3475c1ec	2.2887951e-07
207	0x3513f80d	5.512273e-07
208	0xb51159a7	-5.414717e-07
209	0xb267a404	-1.34832625e-08
210	0xb51c44dc	-5.821473e-07
211	0x34cbbe98	3.7950372e-07
212	0xb5c20994	-1.4456914e-06
213	0x354e319e	7.681318e-07
214	0xb5e55809	-1.7087451e-06
215	0xb4643506	-2.1253445e-07
216	0x342a1610	1.584051e-07
217	0xb3b238d1	-8.299106e-08
218	0x35d412e9	1.5800734e-06
219	0xb4b3c2b5	-3.3483016e-07
220	0xb44aa878	-1.8874005e-07
221	0x3497710e	2.82082e-07
222	0x33fd530a	1.1796335e-07
223	0x3485b259	2.4902945e-07
224	0x34424b02	1.8094946e-07
225	0xb327e30f	-3.9089226e-08
226	0x36120f63	2.1764652e-06
227	0xb5f560ce	-1.8282096e-06
228	0x352ecee8	6.512114e-07
229	0x34eff1d6	4.4693178e-07
230	0x356a2bf8	8.7235776e-07
231	0xb4db872c	-4.089028e-07
232	0xb4356c68	-1.6896377e-07
233	0x349463c6	2.7639743e-07
234	0xb4c6076c	-3.6885774e-07
235	0x3307a479	3.1581724e-08
236	0xb48805b4	-2.5336124e-07
237	0x32e4a921	2.6619604e-08
238	0xb2c0f194	-2.2461599e-08
239	0x35452a39	7.344966e-07
240	0x339bbe2b	7.252341e-08
241	0x34a525c0	3.0761112e-07
242	0x3494c61c	2.7711292e-07
243	0xb61dff14	-2.3543298e-06
244	0x35f0a44e	1.7929212e-06
245	0xb5429c5b	-7.249816e-07
246	0xb49fcb95	-2.9764183e-07
247	0xb38a8513	-6.450332e-08
248	0x3539f2ca	6.9271175e-07
249	0x343b7476	1.74581e-07
250	0xb49b6b4e	-2.8949074e-07
251	0x31b61922	5.2997544e-09
252	0xb56e4406	-8.8760896e-07
253	0x35d2b2c3	1.5698246e-06
254	0xb58156a9	-9.63647e-07
255	0xb5b51317	-1.3491107e-06

exp_avg_sq f4 [250, 3]
0	0x2f5e06ca	2.0193194e-10
1	0x2fa1bd42	2.9420205e-10
2	0x2fbc9911	3.430576e-10
3	0x2e4e55cb	4.6915177e-11
4	0x311e95d4	2.3077193e-09
5	0x2fcec968	3.761429e-10
6	0x2e543a36	4.825492e-11
7	0x2cb388be	5.1026674e-12
8	0x308dcfdb	1.0318176e-09
9	0x2e18f83b	3.478127e-11
10	0x2e450223	4.4794512e-11
11	0x2e4df299	4.6827073e-11
12	0x2ebfe0fc	8.72564e-11
13	0x2e07be75	3.0864606e-11
14	0x2f3a942e	1.6969245e-10
15	0x2eb1dac9	8.087892e-11
16	0x3004dda7	4.8336307e-10
17	0x31912ffe	4.2255115e-09
18	0x2d799e87	1.41892114e-11
19	0x2e32e669	4.067716e-11
20	0x30452f84	7.1735706e-10
21	0x2d8f2675	1.6274296e-11
22	0x2c852005	3.7836422e-12
23	0x2f4f93e4	1.8879082e-10
24	0x2dab60e4	1.9483477e-11
25	0x2f99cd95	2.7976613e-10
26	0x2f8fa989	2.613201e-10
27	0x2df9ade7	2.838525e-11
28	0x2da8407b	1.9128024e-11
29	0x2ec045d1	8.743551e-11
30	0x2d402118	1.0921285e-11
31	0x2f89d7b5	2.5073424e-10
32	0x2deb75ed	2.6768776e-11
33	0x2e8b6df9	6.340523e-11
34	0x2e3be1e8	4.2719522e-11
35	0x2f49b7c4	1.834613e-10
36	0x2e0441ea	3.007187e-11
37	0x2ebc6fcd	8.56911e-11
38	0x2d10f8a4	8.240662e-12
39	0x2d0f7963	8.155562e-12
40	0x2d8eb94c	1.622582e-11
41	0x2dbfb712	2.1795486e-11
42	0x2e694a74	5.3044194e-11
43	0x2d738462	1.3842346e-11
44	0x2fbaf55f	3.400755e-10
45	0x2db8e1c0	2.1018631e-11
46	0x2eaf481b	7.970887e-11
47	0x2f3b22c6	1.7019905e-10
48	0x2dc43490	2.2305963e-11
49	0x29b1111c	7.863347e-14
50	0x2e6f1fa9	5.437043e-11
51	0x2e4b9d98	4.6296827e-11
52	0x2f7f0cfe	2.319673e-10
53	0x322721e3	9.728384e-09
54	0x2d899623	1.564177e-11
55	0x2e6ce508	5.3863608e-11
56	0x30bb0e41	1.3610092e-09
57	0x2d48d82d	1.14166844e-11
58	0x2dd10ef1	2.3767184e-11
59	0x2d6a3978	1.3314121e-11
60	0x2cd6cf90	6.10529e-12
61	0x2d42a2ea	1.10637974e-11
62	0x2fbe3d6b	3.460444e-10
63	0x2e895c83	6.246472e-11
64	0x2d7bfe21	1.4324126e-11
65	0x30320389	6.4761047e-10
66	0x2c92e0fd	4.1745483e-12
67	0x2ebcb2b9	8.580998e-11
68	0x2d3116f6	1.00663835e-11
69	0x2e87c226	6.173577e-11
70	0x2f661705	2.0926556e-10
71	0x2f3df254	1.7275542e-10
72	0x2abd6b5c	3.364764e-13
73	0x2c80d074	3.6611218e-12
74	0x2e455a4f	4.4872824e-11
75	0x2c92b6e8	4.1698762e-12
76	0x2d8cbf89	1.6001216e-11
77	0x2fa179c4	2.937225e-10
78	0x2d6e47c4	1.3544669e-11
79	0x2bb31837	1.2725436e-12
80	0x2f7c3c8f	2.2940781e-10
81	0x2d904040	1.6399437e-11
82	0x2c7eb09e	3.6193613e-12
83	0x2d94927d	1.6890706e-11
84	0x2d842930	1.5024954e-11
85	0x2da02b8d	1.8209234e-11
86	0x2e3f5a1d	4.350841e-11
87	0x2d8c376e	1.5940773e-11
88	0x2f3358f2	1.6311555e-10
89	0x3021dd4d	5.8885946e-10
90	0x2f3a3907	1.6936862e-10
91	0x2d3e2888	1.0809249e-11
92	0x2f03175b	1.1922678e-10
93	0x2aa3b236	2.9078275e-13
94	0x2d2644cf	9.451286e-12
95	0x2f41823d	1.7599518e-10
96	0x2f2de55e	1.5815746e-10
97	0x2f578c3b	1.9603956e-10
98	0x2ed91fc8	9.873663e-11
99	0x2dd6ac00	2.4405367e-11
100	0x2c8cce1e	4.001923e-12
101	0x2f09feaf	1.2550559e-10
102	0x3012fff0	5.34782e-10
103	0x2d8be31a	1.5903324e-11
104	0x2d99f906	1.7504675e-11
105	0x2d97c3fe	1.725375e-11
106	0x2e15915e	3.400779e-11
107	0x2db4c514	2.0551151e-11
108	0x2fd750fc	3.9165815e-10
109	0x2eaec498	7.947526e-11
110	0x2d43e787	1.1135876e-11
111	0x2e5b8474	4.9912477e-11
112	0x2de94120	2.6517954e-11
113	0x2ec4e09d	8.9529474e-11
114	0x2f5a6c5e	1.9865484e-10
115	0x2e01396e	2.9382212e-11
116	0x2ffe3215	4.6237916e-10
117	0x2d89da73	1.5672108e-11
118	0x2d475c08	1.1332275e-11
119	0x2ec34f85	8.881699e-11
120	0x2d1d6730	8.947329e-12
121	0x2e969fa9	6.8495716e-11
122	0x2ebcc60f	8.5844325e-11
123	0x29ca8e17	8.995251e-14
124	0x2c1da236	2.2401087e-12
125	0x2ce17124	6.4074458e-12
126	0x2e837b79	5.9791234e-11
127	0x2d406d6d	1.0938234e-11
128	0x2bf49685	1.737902e-12
129	0x2fb87af9	3.3556782e-10
130	0x2eb862ab	8.384878e-11
131	0x2f6e84b9	2.1693126e-10
132	0x2d6b109f	1.3361894e-11
133	0x2df64de4	2.8001552e-11
134	0x2fe6b904	4.1968218e-10
135	0x2c95dcad	4.2593346e-12
136	0x2d3b7ac8	1.0656982e-11
137	0x2f755c77	2.231547e-10
138	0x2e7c0f52	5.7311773e-11
139	0x2eb3f4ee	8.183486e-11
140	0x2d114c1e	8.259197e-12
141	0x2e269136	3.7873003e-11
142	0x300fe3f7	5.2347054e-10
143	0x303c4e78	6.850551e-10
144	0x2fbaab95	3.395512e-10
145	0x2ec06977	8.7498835e-11
146	0x2eb37560	8.1608276e-11
147	0x2e5bc20b	4.996718e-11
148	0x2e0b9f4d	3.174643e-11
149	0x2ecc56db	9.2922746e-11
150	0x2d300c26	1.0007139e-11
151	0x2dbe2f4a	2.16215e-11
152	0x2e4c6f46	4.648306e-11
153	0x2e3a5e9f	4.2375544e-11
154	0x2d8594d9	1.5186451e-11
155	0x2f43714c	1.7775398e-10
156	0x2ab7925a	3.2608882e-13
157	0x2aee6599	4.234779e-13
158	0x2e252f2c	3.7558553e-11
159	0x2de217cc	2.5703793e-11
160	0x2f42ccc6	1.7716947e-10
161	0x31d70294	6.2576166e-09
162	0x2d3823f0	1.0467169e-11
163	0x2c68257c	3.298999e-12
164	0x2d1bfd4c	8.866973e-12
165	0x2da7c08d	1.9071212e-11
166	0x2b061832	4.763994e-13
167	0x2e8039bd	5.8310225e-11
168	0x2cf4040f	6.9353477e-12
169	0x2d96fd8e	1.7165627e-11
170	0x2dfbea96	2.8639573e-11
171	0x2f464bb4	1.803489e-10
172	0x2cae6a54	4.9571822e-12
173	0x2f64402b	2.0759276e-10
174	0x2da56c94	1.8806547e-11
175	0x2d7dda35	1.4429837e-11
176	0x30b2df17	1.301461e-09
177	0x2ce4aebc	6.499549e-12
178	0x2f09c811	1.2531155e-10
179	0x2f7e608f	2.313547e-10
180	0x2e0dc3a1	3.223344e-11
181	0x2d807a51	1.4606235e-11
182	0x2f1e2cb2	1.4385895e-10
183	0x2d7ef5ef	1.4492837e-11
184	0x2e1a9e65	3.515623e-11
185	0x2fc64e3b	3.6071576e-10
186	0x2d2fad3d	9.986065e-12
187	0x2e61728e	5.1260822e-11
188	0x2f0843d1	1.2393221e-10
189	0x2fac2c0b	3.1317912e-10
190	0x2f93bdab	2.6873911e-10
191	0x319e4519	4.6062607e-09
192	0x2e644d96	5.1910108e-11
193	0x2ca638de	4.7243173e-12
194	0x2dcfed9e	2.3638699e-11
195	0x2e0b09d8	3.1613684e-11
196	0x2b9b5a6d	1.1038511e-12
197	0x2e149ff8	3.3793385e-11
198	0x2e916d79	6.613283e-11
199	0x2e9bcfe6	7.085514e-11
200	0x2dce84ea	2.3478514e-11
201	0x2fae89ff	3.1748468e-10
202	0x2f19ff16	1.4005894e-10
203	0x2e7a2cc3	5.6883175e-11
204	0x2ca9e082	4.8281943e-12
205	0x2db51881	2.05882e-11
206	0x2fa481df	2.9923705e-10
207	0x2ef36c6d	1.1069621e-10
208	0x2dc9ccd3	2.2942015e-11
209	0x2d2b7d9f	9.748118e-12
210	0x2e5ea1a6	5.062053e-11
211	0x2e81684e	5.884769e-11
212	0x3136c8a1	2.659853e-09
213	0x2f19b4ef	1.397955e-10
214	0x2f6e053e	2.1647836e-10
215	0x317924c3	3.6255166e-09
216	0x2c9701be	4.2918715e-12
217	0x2c29dfb9	2.4140535e-12
218	0x2df6cce9	2.805796e-11
219	0x2d9d02cf	1.785008e-11
220	0x2c30ed36	2.5142783e-12
221	0x2ece306f	9.376399e-11
222	0x2c8d6e7f	4.0197286e-12
223	0x2bc456cc	1.3950729e-12
224	0x2d4e3e71	1.1723609e-11
225	0x2e8e8e41	6.482682e-11
226	0x2f5420ad	1.9292896e-10
227	0x2eb12c4e	8.056898e-11
228	0x2de35b02	2.5847328e-11
229	0x2e22269b	3.6868824e-11
230	0x2deb119b	2.6724225e-11
231	0x2de1c497	2.5666842e-11
232	0x2e506333	4.738183e-11
233	0x304b91fc	7.4058426e-10
234	0x2eb1e778	8.090145e-11
235	0x2e02c924	2.9737227e-11
236	0x2e401fda	4.3684036e-11
237	0x2dc6ba2a	2.2592667e-11
238	0x2eb57cbd	8.253085e-11
239	0x2e7488c7	5.560066e-11
240	0x2e13bb5e	3.3590346e-11
241	0x2ee2bd29	1.0310892e-10
242	0x2e8100b9	5.866369e-11
243	0x2f070207	1.2278899e-10
244	0x2d947f8e	1.6882298e-11
245	0x2d5f5623	1.2695209e-11
246	0x2de6d69b	2.6243277e-11
247	0x2d313abb	1.0074326e-11
248	0x2f3979d0	1.6868928e-10
249	0x2e25fe86	3.774272e-11
250	0x2db9410c	2.1060952e-11
251	0x2f2d570f	1.5765188e-10
252	0x2d8d9ecd	1.6100366e-11
253	0x2ea70d77	7.5966726e-11
254	0x2fd4b842	3.8693498e-10
255	0x2ea2013e	7.367128e-11
