motion_planning/NN_model/models/single_0.pt (torch, 490906 bytes, 24 tensors)

l1.weight f4 [250, 3]
0	0x3eb89a2c	0.36055124
1	0x3e32952c	0.17439717
2	0x3de5c992	0.11220087
3	0x3eff18ba	0.49823552
4	0xbc813377	-0.01577161
5	0xbf1bf6fc	-0.60923743
6	0xbf0a0876	-0.5391916
7	0xbf24567d	-0.6419447
8	0xbf040ab7	-0.5157885
9	0x3f1f8d24	0.6232474
10	0xbe97537c	-0.2955588
11	0x3eeedd67	0.46653292
12	0x3ec3e42a	0.38260013
13	0x3f1d0b95	0.613458
14	0x3eb73b19	0.35787275
15	0xbe8bf26a	-0.27333385
16	0x3f006faa	0.50170386
17	0xbf182ce6	-0.5944351
18	0x3d9509b5	0.07277242
19	0xbf030efa	-0.5119473
20	0xbea1d4b6	-0.31607598
21	0xbecf8cfa	-0.40537244
22	0x3d6e59f7	0.058191266
23	0xbf2923da	-0.6607033
24	0x3d1be254	0.03805764
25	0x3baa69a8	0.0052005835
26	0x3f0188c2	0.505993
27	0x3e88d6aa	0.26726276
28	0xbf424d30	-0.7589903
29	0x3e79c945	0.24393184
30	0x3e92c11d	0.2866296
31	0x3f266661	0.6499997
32	0xbf39f46b	-0.7263858
33	0x3ee37c51	0.44430783
34	0xbebbf884	-0.3671304
35	0x3ef5498e	0.4790768
36	0x3dad2553	0.08454385
37	0x3f1f0067	0.6210999
38	0xbe71cb91	-0.2361281
39	0x3e09afcb	0.13445966
40	0xbde83237	-0.11337703
41	0x3de9a365	0.11408118
42	0xbf3943ca	-0.7236906
43	0x3db394f7	0.08768647
44	0xbebe402d	-0.37158337
45	0xbee9c673	-0.45659217
46	0x3f2ae577	0.66756386
47	0x3df470d3	0.11935582
48	0xbe931ea7	-0.28734323
49	0x3ee41b0a	0.4455188
50	0xbf001066	-0.5002502
51	0xbe5a94d6	-0.21345839
52	0xbf388ca2	-0.7208959
53	0xbd66b7ec	-0.056327745
54	0xbe3fb452	-0.1872113
55	0x3f15b3d2	0.5847751
56	0x3f2a317d	0.66481763
57	0xbe0f96e0	-0.14022398
58	0x3ec2b3a5	0.38027683
59	0x3ed0ba3b	0.40767083
60	0xbf2190b9	-0.63111454
61	0x3d3b999e	0.045800798
62	0xbed980a7	-0.42480966
63	0xbd1f2502	-0.038853653
64	0xbb9e5bd8	-0.004832726
65	0xbf363a79	-0.7118297
66	0x3f1fc7ee	0.62414443
67	0x3d71db40	0.059046984
68	0x3eca4e6a	0.3951295
69	0x3e6735af	0.22579072
70	0x3f297280	0.6619034
71	0x3e47d416	0.19514498
72	0xbec617b0	-0.38689947
73	0xbeced317	-0.40395424
74	0x3ec16054	0.37768805
75	0xbd3023ff	-0.04300308
76	0xbef1cef9	-0.4722822
77	0xbea3c176	-0.31983536
78	0x3b11f8ce	0.0022273543
79	0xbe1a431f	-0.15064667
80	0x3f3f8d50	0.74825
81	0xbebb1838	-0.36541915
82	0x3ed526ab	0.41631064
83	0x3eb68095	0.35644975
84	0xbecc8436	-0.3994462
85	0xbf13e814	-0.57776
86	0x3f1e77f8	0.6190181
87	0x3d02bc37	0.031917777
88	0xbf219445	-0.63116866
89	0xbf351a51	-0.7074328
90	0x3e8fb233	0.28065643
91	0x3dd0adf7	0.10189431
92	0xbeed1d05	-0.46311203
93	0x3f25b55d	0.64729863
94	0xbe9b53c5	-0.3033735
95	0x3eafb36e	0.3431658
96	0xbea26a14	-0.31721556
97	0xbef5e99b	-0.4802979
98	0xbe812647	-0.25224516
99	0xbeb2f251	-0.34950498
100	0xbc95cc9d	-0.018286044
101	0xbe08db13	-0.1336482
102	0x3f143845	0.5789836
103	0x3f0709ac	0.52749133
104	0x3f0e59c0	0.556057
105	0xbde5b586	-0.112162635
106	0x3dd6b837	0.10484355
107	0x3f27b32a	0.6550776
108	0x3f15238a	0.58257353
109	0xbf1bffe6	-0.60937345
110	0x3e587621	0.21138813
111	0x3db21c46	0.08696799
112	0xbe51c016	-0.20483431
113	0x3ef55096	0.47913045
114	0x3c47a6ec	0.012185793
115	0xbf14d536	-0.58137834
116	0x3f2370c8	0.63843966
117	0x3de163a3	0.11005332
118	0x3da7bbc8	0.08190113
119	0x3eda929b	0.42689976
120	0xbe78de8d	-0.24303646
121	0x3e6ecca6	0.23320255
122	0x3f367e53	0.71286505
123	0xbf298e53	-0.66232795
124	0x3ec98f10	0.3936696
125	0xbe961ded	-0.29319707
126	0xbe400c4c	-0.18754691
127	0xbbf4a006	-0.0074653653
128	0x3f3d2b7d	0.7389448
129	0xbdca80bc	-0.098878354
130	0xbf28016b	-0.65627164
131	0x3eb64921	0.35602668
132	0x3ccc134d	0.024911547
133	0x3eac9b2e	0.33712143
134	0x3c1ae28f	0.00945343
135	0xbf3672ae	-0.7126874
136	0x3c94f5be	0.018183585
137	0xbe834822	-0.2564097
138	0xbe57edf9	-0.21086873
139	0xbf329a94	-0.6976712
140	0x3ecd1145	0.40052238
141	0xbe008bdd	-0.12553354
142	0xbc1a926a	-0.009434322
143	0xbf15f818	-0.58581686
144	0xbefc2f37	-0.49254772
145	0xbea080ed	-0.31348363
146	0xbf22897d	-0.6349104
147	0xbf1f6005	-0.6225589
148	0x3cd51c70	0.026014537
149	0x3f327d4e	0.6972245
150	0x3e8d62a8	0.2761433
151	0x3ea563cf	0.3230271
152	0x3f23b1d0	0.63943195
153	0xbf1544a7	-0.5830788
154	0xbebf4d40	-0.37363625
155	0xbec2ab91	-0.3802152
156	0xbf00b161	-0.5027066
157	0xbc861983	-0.016369587
158	0x3e75110d	0.23932286
159	0xbe593a15	-0.21213563
160	0xbf00be83	-0.502907
161	0xbf32e3e2	-0.6987897
162	0xbc8956ad	-0.016764963
163	0x3f30c6a3	0.69053096
164	0x3d956d15	0.07296196
165	0xbf387462	-0.72052586
166	0x3e0be2e7	0.13660775
167	0x3eb4f5dd	0.3534383
168	0xbefad2e5	-0.48989025
169	0x3e4300a5	0.19043215
170	0xbf0070d0	-0.5017214
171	0xbbc18262	-0.0059054354
172	0xbd90d47f	-0.070717804
173	0xbd50a816	-0.05094155
174	0x3f2d3597	0.67659897
175	0xbec5d4fe	-0.38639063
176	0xbe7a9cea	-0.2447392
177	0xbf31cd6d	-0.6945408
178	0x3eead9eb	0.45869383
179	0x3ec9c801	0.39410403
180	0x3ec8871a	0.39165574
181	0x3ed405fc	0.41410816
182	0xbf2e64d1	-0.68122584
183	0x3ee4e622	0.44706827
184	0x3f3abe8a	0.7294699
185	0x3f051186	0.51979864
186	0x3e56120b	0.2090532
187	0xbe061671	-0.13094498
188	0x3e470a56	0.19437537
189	0xbeb9888b	-0.36236987
190	0xbea43296	-0.32069844
191	0x3eb4c902	0.35309607
192	0x3f2eb9ce	0.68252265
193	0xbbe85ed0	-0.0070913807
194	0xbeac196e	-0.3361315
195	0xbeea1cce	-0.457251
196	0xbf392c6c	-0.7233341
197	0xbf027bba	-0.5097004
198	0x3ee86986	0.45393008
199	0x3e02bbeb	0.12766998
200	0xbea70c41	-0.32626536
201	0x3d0946b4	0.033514693
202	0x3b4baa23	0.0031076751
203	0x3f3c31af	0.7351331
204	0xbf357fd0	-0.7089815
205	0xbef1ddb5	-0.47239462
206	0x3c0f8d32	0.008761691
207	0xbe8d8841	-0.27643016
208	0x3f015ff5	0.50537044
209	0x3da46875	0.08027736
210	0x3f055fd4	0.5209935
211	0xbeafa8f0	-0.34308577
212	0x3c8996e7	0.016795589
213	0x3c405695	0.011739393
214	0x3e3f5f38	0.18688667
215	0xbf0aa0df	-0.5415172
216	0xbf15a473	-0.58454055
217	0x3ebb3125	0.36560932
218	0xbcd182ee	-0.025575127
219	0xbecb3a51	-0.3969293
220	0xbf0f403c	-0.5595739
221	0x3ea51a30	0.32246542
222	0xbe95c53c	-0.2925204
223	0x3dd42a51	0.10359634
224	0xbf306d63	-0.6891691
225	0x3ea7d70e	0.3278126
226	0xbd297cfc	-0.04137896
227	0xbf0dc2db	-0.5537545
228	0xbf0fa918	-0.5611739
229	0xbe37891a	-0.17923394
230	0x3f235861	0.6380673
231	0xbd5a420d	-0.053285647
232	0x3e8bafb4	0.27282488
233	0x3e817d82	0.25291067
234	0xbe88b404	-0.2669984
235	0xbde17910	-0.11009419
236	0xbddad520	-0.106851816
237	0xbdcd515a	-0.10025282
238	0xbf010402	-0.5039674
239	0xbb708aef	-0.0036703905
240	0x3ebe42b1	0.37160257
241	0xbde8fd55	-0.11376444
242	0xbd35b49b	-0.044361692
243	0xbe0b2129	-0.13586868
244	0xbd89640b	-0.06708535
245	0x3f0594d2	0.52180207
246	0xbdc4974d	-0.09599171
247	0x3e911cfe	0.28342432
248	0xbf036463	-0.5132505
249	0x3f136fb3	0.57592314
250	0xbedd30cc	-0.43201292
251	0xbeafdc65	-0.34347835
252	0x3c14967c	0.009069081
253	0xbeff3a22	-0.4984904
254	0x3eefee8a	0.46861678
255	0xbe200ab5	-0.15629084

l1.bias f4 [250]
0	0x3e89847e	0.26858896
1	0x3e70eed1	0.23528601
2	0x3e5ff37a	0.21870223
3	0x3ef3a4a8	0.4758656
4	0x3f0e92db	0.55692834
5	0x3edf5e23	0.43626508
6	0xbe8a0440	-0.26956367
7	0x3e81c513	0.25345668
8	0xbe61df3e	-0.22057816
9	0x3e634b14	0.22196609
10	0xbe22dbaa	-0.15904108
11	0x3f136350	0.57573414
12	0x3c9b56ef	0.018962352
13	0xbed1b0b3	-0.40955123
14	0xbe919849	-0.28436497
15	0xbe47a850	-0.194978
16	0xbed9cdcb	-0.4253982
17	0xbe83ff00	-0.25780487
18	0x3f0498c0	0.5179558
19	0xbe0f8f0e	-0.14019415
20	0x3f1b0526	0.6055473
21	0x3ea09b5a	0.31368524
22	0x3f2e8969	0.6817842
23	0x3f0e464d	0.5557602
24	0x3c4d0119	0.012512469
25	0x3ca360d3	0.01994363
26	0xbebd22af	-0.36940524
27	0xbee17ecf	-0.4404206
28	0x3e866e99	0.26256254
29	0xbef14528	-0.47123075
30	0x3e9376f4	0.28801692
31	0xbd46b0f7	-0.04850861
32	0xbea7875c	-0.32720459
33	0xbef350ea	-0.4752267
34	0x3e376db3	0.1791294
35	0x3eab152b	0.33414587
36	0x3ec93992	0.39301735
37	0x3f21498e	0.6300286
38	0x3efa17f0	0.48846388
39	0x3f1e69ec	0.61880374
40	0x3efaae8e	0.489613
41	0x3e0136e1	0.12618591
42	0xbe95a11f	-0.29224488
43	0x3d0f084d	0.034920026
44	0x3f16ca86	0.58902776
45	0x3f2d25bc	0.67635703
46	0xba93a0e6	-0.0011263161
47	0x3e812118	0.2522056
48	0x3ecac176	0.39600724
49	0x3f129590	0.57259464
50	0x3eee6ca9	0.46567276
51	0x3cfb192d	0.030651653
52	0x3d2714ef	0.04079145
53	0xbe85d7c5	-0.26141182
54	0xbe9fbb3a	-0.3119753
55	0x3d79dbe2	0.061000712
56	0xbdb20664	-0.08692625
57	0xbec5cbb1	-0.38631967
58	0x3ebdb2d2	0.37050492
59	0xbdbeea98	-0.09322089
60	0x3ed421d2	0.41432053
61	0x3d009369	0.03139058
62	0x3eb7602b	0.35815558
63	0xbf020790	-0.5079279
64	0xbd62d389	-0.055377517
65	0x3f12855c	0.5723474
66	0xbec042d1	-0.37550977
67	0xbea83292	-0.32851082
68	0xbeaaaf30	-0.33336782
69	0x3ed60aa7	0.41805002
70	0xbec261a8	-0.3796513
71	0xbddf1fad	-0.108947136
72	0xbe8e1db5	-0.2775704
73	0x3ed97136	0.42469186
74	0xbef1c8f7	-0.47223637
75	0x3e25858c	0.16164225
76	0xbe8dd1ff	-0.27699277
77	0x3f39c886	0.725716
78	0xbedc016e	-0.4296984
79	0x3e51b7ba	0.20480242
80	0xbf03e60b	-0.5152289
81	0x3f165d79	0.5873638
82	0xbeba0d61	-0.36338332
83	0x3e770aa1	0.24125148
84	0xbee2ecf4	-0.44321406
85	0x3f141475	0.57843715
86	0x3f2a0d6a	0.6642672
87	0xbe8e976e	-0.27849907
88	0xbdc72635	-0.09724084
89	0x3a381443	0.0007022062
90	0x3ca0efa3	0.019645518
91	0xbebabb19	-0.3647087
92	0x3f362dfe	0.7116393
93	0x3ef580cd	0.4794983
94	0x3d6e558a	0.058187045
95	0x3f245443	0.64191073
96	0xbd23149e	-0.039814584
97	0xbe58852f	-0.21144556
98	0xbcc1204d	-0.023574973
99	0xbf023be5	-0.5087264
100	0x3ef168be	0.47150224
101	0xbdbbc568	-0.09168512
102	0xbe4a294e	-0.19742319
103	0xbe8bf39a	-0.2733429
104	0xbe38b3ed	-0.18037386
105	0xbe53a610	-0.20668817
106	0x3ee51e74	0.44749796
107	0x3f268054	0.65039563
108	0x3e80230f	0.25026748
109	0xbe7f74a4	-0.24946839
110	0xbe880db9	-0.2657297
111	0xbdae6285	-0.08514885
112	0x3d4e344f	0.050342854
113	0xbeee841f	-0.46585175
114	0x3d2f757c	0.04283665
115	0xbe4f2b74	-0.2023142
116	0xbe36a95a	-0.1783804
117	0x3eb8bd00	0.36081696
118	0x3ea86485	0.3288919
119	0x3e4aef85	0.19817932
120	0x3ede333f	0.43398473
121	0x3ed205e2	0.41020113
122	0x3f0de612	0.55429184
123	0xbd9bc848	-0.0760656
124	0x3f0270ea	0.50953543
125	0xbef2f04b	-0.47448954
126	0x3da91651	0.0825621
127	0x3ed22333	0.4104248
128	0x3ead02b6	0.3379113
129	0xbd217e4e	-0.039427094
130	0xbe733f5f	-0.23754643
131	0x3f151f3f	0.582508
132	0x3e93e9a0	0.2888918
133	0x3f357fe0	0.70898247
134	0x3e8fa08d	0.28052178
135	0xbd39372b	-0.045218628
136	0xbe860eff	-0.26183316
137	0xbe5b2097	-0.21399151
138	0xbe562454	-0.20912296
139	0x3e52bed9	0.20580615
140	0x3dc7d127	0.097566895
141	0x3b7e1e56	0.0038775406
142	0xbeb43c70	-0.3520236
143	0xbcbe4aca	-0.023229022
144	0xbe8dd5dc	-0.27702224
145	0xbee75bc5	-0.45187202
146	0x3e9543f3	0.29153404
147	0x3ebbddc6	0.36692637
148	0x3f13684a	0.5758101
149	0x3e0ec5c4	0.13942629
150	0xbd566759	-0.052344654
151	0x3e87979f	0.26482865
152	0x3d26c5ef	0.040716108
153	0x3e823001	0.2542725
154	0x3ec446fa	0.383354
155	0xbe5ac4e6	-0.21364173
156	0xbdc5d3f2	-0.09659566
157	0xbd3818e7	-0.044945624
158	0xbc5ba0be	-0.013405023
159	0x3de66857	0.1125037
160	0xbe805c81	-0.25070575
161	0xbd00dc54	-0.03146012
162	0x3f3338e8	0.7000871
163	0xbd5709ae	-0.052499466
164	0xbe03ab07	-0.1285821
165	0xbc4754fe	-0.01216626
166	0x3b88be0f	0.0041730474
167	0x3f27e35c	0.655813
168	0x3e8ad389	0.27114514
169	0x3d85bcd8	0.0653016
170	0xbd88294d	-0.066485025
171	0x3f04fbb5	0.51946574
172	0x3f0cac0d	0.5495003
173	0xbeb32d2c	-0.349954
174	0x3e934892	0.28766304
175	0xbd60a4f8	-0.054844826
176	0xbe16c539	-0.14723672
177	0x3f105d7d	0.5639265
178	0x3e22d65e	0.15902087
179	0x3d44a765	0.048011202
180	0xbed4f38b	-0.4159206
181	0xbe598711	-0.2124293
182	0xbed5d886	-0.41766757
183	0xbbe32611	-0.006932028
184	0xbeb5831a	-0.35451585
185	0x3f05c939	0.52260166
186	0x3d0e4df8	0.034742326
187	0xbe7958fc	-0.24350351
188	0xbeaf4302	-0.3423081
189	0xbf02ac40	-0.5104408
190	0x3f28efc3	0.6599085
191	0x3eb49c34	0.35275424
192	0xbef397da	-0.4757679
193	0x3eea3c1e	0.4574899
194	0x3e82e611	0.25566152
195	0x3ecb522e	0.39711136
196	0x3e4cbdca	0.19994274
197	0x3e7a69f6	0.24454483
198	0x3de04083	0.10949805
199	0x3e20544b	0.15657155
200	0xbdd9410c	-0.1060811
201	0x3edf607a	0.43628293
202	0x3ecc2fa3	0.39880094
203	0x3d1dd5de	0.038534038
204	0x3e30bfa4	0.17260605
205	0xbdbd4035	-0.09240762
206	0x3eeac373	0.4585224
207	0xbee60709	-0.44927242
208	0xbe6de411	-0.23231532
209	0xbe7dcbd1	-0.24784781
210	0xbef90215	-0.486344
211	0x3e910db4	0.28330767
212	0x3ed5f38b	0.4178737
213	0x3e6b35cb	0.22969739
214	0x3ef77453	0.48330936
215	0x3cc320ba	0.023819316
216	0xbd7dfc70	-0.06200832
217	0x3e119f09	0.14220823
218	0x3f267910	0.65028477
219	0xbe0c7982	-0.13718227
220	0x3dd6c4d3	0.1048676
221	0xbef5bfc1	-0.4799786
222	0xbe6ed5a0	-0.23323679
223	0xbe20300e	-0.15643331
224	0xbd22be21	-0.039732102
225	0x3cb4b1e1	0.022057476
226	0xbe9d5188	-0.30726266
227	0xbee2b9b1	-0.44282296
228	0x3ed83ec2	0.4223538
229	0xbe04ed3f	-0.12981127
230	0x3f3634c1	0.71174246
231	0x3d0af5cd	0.03392582
232	0xbe049b52	-0.12949875
233	0xbe2ba3f1	-0.16761757
234	0xbe9e641e	-0.30935758
235	0x3e8ca1e4	0.27467263
236	0x3edf9917	0.43671486
237	0x3f05738f	0.52129453
238	0xbee3b8fa	-0.44477063
239	0x3f12cd0f	0.57344145
240	0x3d8d2c3d	0.068932034
241	0xbd6f4f41	-0.05842519
242	0xbeb7dccc	-0.35910642
243	0x3f1d4975	0.6144021
244	0xbe93ff05	-0.28905502
245	0xbe29659b	-0.16542666
246	0x3d8d4ce6	0.06899433
247	0x39da12ae	0.00041594118
248	0xbf057745	-0.52135116
249	0x3dd3d596	0.10343473

l2.weight f4 [130, 250]
0	0x3b5ab4b1	0.003337186
1	0x3d5be7be	0.053687803
2	0x3d214edd	0.03938185
3	0x3c418b29	0.0118129635
4	0x3c812b2d	0.015767658
5	0x3deaa1dd	0.11456654
6	0xbe09d127	-0.13458692
7	0x3d4111fb	0.047136288
8	0xbe2e6ca7	-0.17033635
9	0xbd973b7b	-0.07384392
10	0x3c81c055	0.015838781
11	0x3daecd5a	0.085352615
12	0xbc74e757	-0.014947734
13	0xbd45095b	-0.048104625
14	0x3df895ca	0.12137945
15	0xbde74422	-0.11292292
16	0x3d0711ae	0.032975845
17	0xbe20e5fc	-0.15712732
18	0xba6b1582	-0.00089677435
19	0xbcd0822f	-0.025452701
20	0x3dcba806	0.09944157
21	0x3dc023af	0.09381806
22	0x3d9737d9	0.07383699
23	0x3c80ea86	0.01573683
24	0xbe2970ee	-0.16546986
25	0x3cb02466	0.021501731
26	0xbe52d9d9	-0.20590915
27	0xbd0f226e	-0.034944944
28	0xbd675fd5	-0.056487877
29	0xbd287b7b	-0.041133385
30	0x3d03bf5f	0.032164928
31	0x3c8316e0	0.016002119
32	0xbd591c61	-0.05300558
33	0x3d3bc9ad	0.04584663
34	0xbda672f2	-0.08127393
35	0x3be2f647	0.006926331
36	0x3d35c3ab	0.044376057
37	0x3c8a2323	0.016862458
38	0xbdf08cf6	-0.11745636
39	0x3c19e01f	0.009391814
40	0xbdacfd90	-0.08446801
41	0xbd000453	-0.031254124
42	0xbe264945	-0.16238888
43	0xbe070a2b	-0.13187473
44	0x3d8bd560	0.068278074
45	0x3d1d3f9e	0.03839075
46	0xbe123793	-0.14279012
47	0x3d4a1bb6	0.049342833
48	0x3cf62b3e	0.030049916
49	0xbdc95822	-0.09831263
50	0xbc9a82f6	-0.018861275
51	0xbba0465d	-0.0048912005
52	0xbd73d6eb	-0.059531134
53	0xbd28a070	-0.04116863
54	0x3e19706b	0.1498429
55	0xbcf8128c	-0.030282281
56	0x3c386a1d	0.011255768
57	0x3d160423	0.03662504
58	0x3d84dc5a	0.06487341
59	0xbd6155b1	-0.055013362
60	0x3deba9cc	0.115069956
61	0xbd0f118c	-0.034928843
62	0x3ddedba2	0.108817354
63	0xbc0a628f	-0.00844635
64	0x3d82d818	0.06388873
65	0x3d890ea2	0.06692244
66	0xbdbe3c3c	-0.092888325
67	0xbdeb9d02	-0.11504556
68	0xbab67e13	-0.0013923071
69	0x3d554c39	0.052074645
70	0xbdb19790	-0.086714864
71	0x3d0c969d	0.034323324
72	0xbbaa3ad8	-0.005195003
73	0xbc142fba	-0.009044582
74	0xbbc7584d	-0.0060835243
75	0x3ca6d662	0.020365898
76	0xbdcc5225	-0.09976605
77	0x3c8f4f04	0.017493732
78	0xbc3a2943	-0.011362377
79	0x3d8ff5e7	0.07029324
80	0x3d46d66c	0.048544332
81	0x3d90824e	0.07056104
82	0xbd941ba8	-0.072318375
83	0x3dd0c6f6	0.10194199
84	0x3d90155e	0.070353255
85	0xbd4a32f5	-0.049365003
86	0x3d55c92c	0.052193806
87	0x3c3e7687	0.011624939
88	0xbda2f52c	-0.07956919
89	0xbd132084	-0.03591968
90	0x3de05a3d	0.109547116
91	0x3e27f624	0.16402489
92	0x3c269222	0.010166677
93	0x3d864179	0.06555457
94	0x3d407ed1	0.04699594
95	0xbc2ca076	-0.010536304
96	0x3c9b42ac	0.01895269
97	0xbd89a2aa	-0.06720479
98	0xbe039476	-0.12849602
99	0x3d2f3314	0.04277332
100	0x3d297e9b	0.041380506
101	0x3c064a25	0.008196388
102	0xbce66430	-0.028123945
103	0xbe02e719	-0.1278347
104	0x3de4a556	0.11164348
105	0xbdcc768d	-0.09983549
106	0x3d8bf233	0.06833305
107	0x3cb1622e	0.021653261
108	0xbc90a127	-0.017654968
109	0xbdaec0c1	-0.08532859
110	0x3c8a999a	0.016918946
111	0xbe2f08e3	-0.17093234
112	0xbe217f01	-0.15771104
113	0x3d6bb46c	0.05754511
114	0xbd9be839	-0.07612652
115	0x3df6341a	0.12021656
116	0x3d9144c6	0.070931956
117	0xbc9f295f	-0.019428907
118	0x3d8107d4	0.06300321
119	0x3d509992	0.050927706
120	0x3d2584fe	0.040410034
121	0xbcd66f00	-0.026175976
122	0x3d45d00c	0.048294112
123	0xbdd8aeca	-0.10580213
124	0x3c2cca8b	0.010546337
125	0xbe2f6a30	-0.17130351
126	0xbda4387e	-0.080185875
127	0x3dac7062	0.08419873
128	0xbcbb9201	-0.022896769
129	0x3d4ffe88	0.05077985
130	0xbdc991d3	-0.09842267
131	0x3d22f846	0.039787553
132	0x3d9dc7ba	0.077041104
133	0x3dabdb23	0.083914064
134	0x3dc5b7c7	0.09654193
135	0xbd29acbb	-0.041424494
136	0x3cc2cd09	0.023779409
137	0x3e1d771f	0.15377472
138	0x3d88bf32	0.066770926
139	0x3d7cdfb0	0.061736763
140	0xbd2e9dba	-0.04263089
141	0xbcbb00c2	-0.02282751
142	0xbe1c4053	-0.15258913
143	0x3c23055a	0.009950006
144	0xbe240f0d	-0.16021366
145	0xbd4399b8	-0.04775402
146	0x3beeccef	0.0072876136
147	0x3d1c9df3	0.03823657
148	0x3b297ffb	0.0025863636
149	0x3e254198	0.16138303
150	0xbdf99a17	-0.121875934
151	0xbbf89e37	-0.00758722
152	0x3dd54823	0.104141496
153	0xbd3c4ae0	-0.045969844
154	0x3dcaedba	0.09908624
155	0xbdcdc43f	-0.100471966
156	0xbe5b2171	-0.21399476
157	0x3c91aa1e	0.017781314
158	0x3d5d3ff1	0.054016057
159	0x3cd315b7	0.02576719
160	0xbdbe76f6	-0.09300034
161	0xbd6d2ac3	-0.05790211
162	0xbc1d9258	-0.009617411
163	0x3cce758f	0.02520254
164	0xbe0ce331	-0.13758542
165	0xbde71504	-0.11283305
166	0xbe245351	-0.16047408
167	0x3b64d5ab	0.0034917395
168	0x3d63c426	0.055606984
169	0x3dc94c36	0.09828989
170	0x3b8dbe5f	0.0043256725
171	0xbc879ade	-0.016553339
172	0x3d1feed5	0.039046127
173	0x3da6696a	0.08125575
174	0x3d0977e9	0.03356162
175	0x3d235785	0.039878387
176	0xbcdff603	-0.027338987
177	0x3d49b6c1	0.049246553
178	0xb93bf738	-0.00017925806
179	0xbd30de1c	-0.04318057
180	0x3db5692e	0.08857952
181	0xbd361989	-0.044457946
182	0x3d7e5d44	0.062100664
183	0x3cc69388	0.02424027
184	0x3da974ba	0.08274217
185	0x3cc6d4c9	0.024271386
186	0xbe293941	-0.16525747
187	0x3dcc3f90	0.09973061
188	0xbd76bda4	-0.06023945
189	0xbd53b2ef	-0.051684316
190	0x3c584bf2	0.0132017005
191	0xbde06de5	-0.10958461
192	0x3bb88cd1	0.005632021
193	0x3cd00047	0.025390757
194	0x3ce7e5a1	0.028307738
195	0xbc2058f1	-0.00978683
196	0x3cd1f42a	0.025629122
197	0xbcfe139f	-0.031015215
198	0x3c26b189	0.010174164
199	0x3cf769d9	0.03020184
200	0xbca57f19	-0.020202206
201	0x3d134b56	0.035960518
202	0xbcc10fb7	-0.023567064
203	0xbe4a410a	-0.19751373
204	0xbc34fdc6	-0.011046832
205	0x3d05bfc4	0.032653585
206	0xbd9ff325	-0.07810048
207	0xbd9c53d9	-0.0763318
208	0xbcaa7d0d	-0.020811582
209	0x3e25fda4	0.16210037
210	0xbd8bfa45	-0.068348445
211	0x3d9783dd	0.07398198
212	0xbd2da3a4	-0.042392388
213	0xbcdfea04	-0.027333267
214	0x3b35d476	0.0027745045
215	0xbc9e9dda	-0.019362379
216	0xbd6f5d97	-0.058438864
217	0x3ca68f61	0.02033204
218	0x3da3e7ce	0.080031976
219	0xbd36f38c	-0.04466586
220	0xbdfd2210	-0.123600125
221	0xbdd12e8d	-0.10213957
222	0xbe2cb202	-0.1686478
223	0x3d1723f0	0.036899507
224	0x3d32c793	0.04364736
225	0x3ca29d3c	0.019850366
226	0x3da1af6f	0.078947894
227	0xbd8e146c	-0.06937489
228	0xbb621209	-0.0034495613
229	0xbd8d5f66	-0.069029614
230	0x3d6a9d58	0.05727896
231	0x3d8b14f9	0.067911096
232	0xbe245f00	-0.16051865
233	0x3e3ca82c	0.18423527
234	0x3e044b2d	0.12919302
235	0x3bce8742	0.006302745
236	0xbdd8770d	-0.10569582
237	0x3d8e90ef	0.06961238
238	0xbe00e516	-0.1258739
239	0x3d56672c	0.052344486
240	0x3d2970f3	0.041367482
241	0x3e086b8a	0.13322273
242	0xbd99cdb1	-0.07509936
243	0x3d824dd5	0.063625015
244	0x3d187b60	0.037227035
245	0x3ba29d7d	0.0049626217
246	0xbcf70c8b	-0.030157348
247	0xbe47c733	-0.19509582
248	0xbe10cc9b	-0.14140551
249	0xbd42f9b8	-0.04760143
250	0xbde15e14	-0.11004272
251	0xbbcd76e8	-0.0062702782
252	0xbd1fa3e5	-0.03897466
253	0xbc0d05f1	-0.008607374
254	0xbdcaf219	-0.09909458
255	0x3d66c2d1	0.056338135

l2.bias f4 [130]
0	0x3d79f8d8	0.06102833
1	0xbd768be8	-0.06019202
2	0xbce7177f	-0.028209446
3	0xbc6e5c89	-0.014548429
4	0xbda93ac5	-0.082631625
5	0xbd365437	-0.044513907
6	0xbcbcda4f	-0.023053316
7	0x3bb13d91	0.0054089506
8	0x3dad21da	0.08453722
9	0x3d35f32b	0.044421356
10	0x3d686507	0.056736972
11	0x3b8a82ee	0.004227034
12	0xb8cd8e5c	-9.801678e-05
13	0x3e023146	0.12714109
14	0x3d90fda0	0.07079625
15	0x3c573e6a	0.013137439
16	0x3cda3ac9	0.02663936
17	0xbd35bdd1	-0.044370476
18	0x3bd6813b	0.006546167
19	0xbc225f29	-0.009910383
20	0x3ce42e6c	0.027854167
21	0xbdf2ae8f	-0.11849701
22	0x3d83292b	0.064043365
23	0x3cb036cf	0.02151051
24	0xbbb63433	-0.005560422
25	0xbd456d55	-0.04819997
26	0xbd03188b	-0.032005828
27	0xbd1c9c23	-0.03823484
28	0xbd2f7895	-0.042839605
29	0x3d1b1f6e	0.03787177
30	0x3cec5e07	0.02885343
31	0xbd192971	-0.037393037
32	0xbc156c9c	-0.009120133
33	0x3d42b10c	0.047532126
34	0xbd9cbf8d	-0.07653723
35	0x3dc15919	0.09440822
36	0xbc9d3893	-0.019192016
37	0x3d028784	0.03186752
38	0x3dfce5cf	0.1234852
39	0xbd02e0e5	-0.031952757
40	0x3da52be7	0.08065014
41	0x3d584a2c	0.05280511
42	0x3d95f1b3	0.07321491
43	0x3d794270	0.060854375
44	0x3cad5ace	0.021161463
45	0xbd446160	-0.047944427
46	0x3da49f83	0.08038237
47	0xbd34c830	-0.044136226
48	0xbd1e20a0	-0.038605332
49	0x3d02804c	0.031860635
50	0xbd43655f	-0.047704097
51	0x3d5d3046	0.054001115
52	0x3d72b6a7	0.059256222
53	0xbd66fc2b	-0.05639283
54	0xbc0120af	-0.0078813275
55	0x3e0790d2	0.13238838
56	0x3bd47744	0.006483944
57	0x3d67a42c	0.05655305
58	0x3dc815a9	0.09769756
59	0xbd146812	-0.03623206
60	0xbda08299	-0.078374095
61	0x3d15fee2	0.03662003
62	0x3d8a9bc7	0.067679934
63	0xbdd16589	-0.102244444
64	0x3d8e54ec	0.06949791
65	0xbd527b52	-0.05138714
66	0xbb34c501	-0.0027583244
67	0x3d8d8c57	0.06911533
68	0x39cbf783	0.00038903588
69	0x3dbf5520	0.09342408
70	0x3dd4068c	0.10352811
71	0x3cf56e70	0.029959887
72	0xbd0cba1c	-0.034357175
73	0xbae4bb58	-0.0017450852
74	0xbdbe26d1	-0.092847474
75	0x3dc7b376	0.09751026
76	0xbb204de2	-0.0024460484
77	0xbd4b6cdd	-0.049664367
78	0xbd08afd7	-0.03337082
79	0x3d62017f	0.055177208
80	0x3ca148ba	0.019687999
81	0xba67ed3a	-0.00088473
82	0xbd707c91	-0.058712546
83	0x3d859690	0.06522858
84	0x3d856041	0.065124996
85	0x3c9f02d1	0.019410523
86	0x3cc8291d	0.024433667
87	0x3d8b0db3	0.06789722
88	0x3d0aee49	0.033918653
89	0x3e1c1083	0.15240674
90	0xbd9352da	-0.07193537
91	0x3d94da4e	0.07268201
92	0x3dd55bc9	0.10417897
93	0x3c9ffe2e	0.019530382
94	0xbcaf5816	-0.021404307
95	0xbcc36522	-0.023851935
96	0x3dabda4a	0.08391245
97	0x3cc1ed9b	0.02367287
98	0xbdac1d94	-0.08404079
99	0x3dba68be	0.09102009
100	0x3d3afcab	0.04565112
101	0xbcad789d	-0.021175677
102	0x3bbdb356	0.005789201
103	0xbc8e4ab5	-0.017369607
104	0x3d90024d	0.07031689
105	0xbc8300ae	-0.015991535
106	0x3ccbf181	0.024895431
107	0x3d47b511	0.048756663
108	0xbd0fe79b	-0.035132986
109	0xbcdd549a	-0.02701788
110	0xbd9233c2	-0.07138778
111	0xbd082b0d	-0.03324418
112	0xbbb8d5c8	-0.005640719
113	0xbd423f14	-0.047423437
114	0x3d7d3730	0.06182021
115	0xbbda510f	-0.006662495
116	0x3d0c6fa9	0.034286175
117	0x3d152cc7	0.036419656
118	0xbda8c774	-0.08241168
119	0x3b0c2afa	0.002138792
120	0x3db3e9d3	0.08784833
121	0x3d43ed22	0.04783357
122	0x3db7f4f5	0.08982269
123	0xbd0f6138	-0.035004824
124	0xbcc9079b	-0.02453976
125	0x3cdca8ac	0.026935898
126	0xbd918a01	-0.071064
127	0x3cb824bd	0.022478456
128	0x3d2c5585	0.042073745
129	0x3d8df12c	0.069307655

l3.weight f4 [50, 130]
0	0xbc4b1ce4	-0.012397025
1	0x3d25c8c9	0.040474687
2	0x3e1b7e4a	0.15184894
3	0x3e4df2a4	0.20112091
4	0x3dd43602	0.10361864
5	0xbded8121	-0.11596895
6	0x3e53abbc	0.2067098
7	0x3d562c1e	0.052288167
8	0xbe1da686	-0.15395555
9	0x3c15f0a4	0.0091516115
10	0x3dfee0f6	0.12445252
11	0x3db36a94	0.087605625
12	0xbd9902a3	-0.07471206
13	0x3c90f766	0.017696094
14	0xbcb47b2f	-0.022031395
15	0xbcd0b3f8	-0.02547644
16	0xbe090e2c	-0.13384312
17	0xbdadb610	-0.08481991
18	0x3e1bf8b9	0.15231599
19	0x3d84792a	0.06468423
20	0x3a77c222	0.000945123
21	0xbe7fb29b	-0.24970476
22	0x3d0ae1aa	0.033906616
23	0xbe020c9e	-0.12700126
24	0x3dcf6d5e	0.10128282
25	0xbb4d02e7	-0.0031282248
26	0x3ddc08f2	0.10743894
27	0xbe09565f	-0.13411854
28	0xbca10d47	-0.019659651
29	0x3dad2b5a	0.08455534
30	0xbbf8850d	-0.0075842203
31	0x3d966b46	0.073446795
32	0x3d519d05	0.051175136
33	0x3da31fe1	0.07965065
34	0x3de46cac	0.1115354
35	0x3e0868b2	0.13321188
36	0x3cae402d	0.021270836
37	0xbcdc6a9c	-0.026906304
38	0xbe550a33	-0.20804672
39	0x3e225c1b	0.15855448
40	0x3d4eeb12	0.05051715
41	0xbd56c35d	-0.052432407
42	0x3dc4c341	0.09607554
43	0xbd624bce	-0.055248074
44	0x3dbf2f3c	0.09335181
45	0x3c194eea	0.0093571935
46	0x3d8de837	0.06929057
47	0xbe09daae	-0.13462326
48	0x3c23d79e	0.010000138
49	0x3e01a52b	0.12660663
50	0x3dacdec4	0.08440927
51	0x3dec8398	0.11548537
52	0x3d8ff9ef	0.07030093
53	0xbdcde6db	-0.10053798
54	0x3d738e7a	0.059462048
55	0x3dfe5e89	0.12420375
56	0x3cf6328f	0.030053405
57	0x3d446512	0.04794795
58	0x3d876ff8	0.06613153
59	0x3d02ddfd	0.031949986
60	0xbe19193e	-0.14951035
61	0xbce9c001	-0.028533937
62	0x3db44633	0.08802452
63	0x3e4a1106	0.19733056
64	0x3e498e81	0.19683267
65	0x3d77619e	0.06039583
66	0x3c41bdf0	0.01182507
67	0x3bd23378	0.006414827
68	0x3e3fc4d0	0.18727422
69	0x3e17ddd9	0.14830722
70	0xbd57674a	-0.05258874
71	0xbd654e49	-0.05598286
72	0xbd5d7613	-0.054067682
73	0xbcd4044a	-0.025880951
74	0x3e43a71b	0.19106714
75	0x3da55824	0.08073452
76	0x3dc3560f	0.09537899
77	0x3e3315ba	0.17488757
78	0x3dcbdb21	0.09953905
79	0xbe11e75c	-0.14248413
80	0xbcbc2969	-0.022968965
81	0x3de15d25	0.11004094
82	0x3c58814e	0.013214422
83	0x3db92213	0.09039702
84	0x3d469999	0.048486326
85	0x3def6975	0.11690036
86	0xbd65cda1	-0.056104306
87	0x3d965e21	0.073421724
88	0x3d267065	0.04063453
89	0x3ddb1c11	0.106987126
90	0xbdb65fe1	-0.08905006
91	0xbe18e5c7	-0.14931403
92	0x3e218113	0.15771894
93	0xbde1e079	-0.11029143
94	0xbdf8a102	-0.12140085
95	0x3d2277de	0.039665096
96	0x3db32c64	0.08748701
97	0xbbcc40a1	-0.0062332903
98	0x3e5c2e55	0.2150205
99	0xbd513b1c	-0.05108176
100	0xbdf5f364	-0.12009314
101	0x3da5a369	0.08087809
102	0x39b7111d	0.0003491723
103	0x3d15496f	0.036446985
104	0xbd8e3acc	-0.06944808
105	0xbb26713b	-0.002539708
106	0xbdc2adda	-0.09505816
107	0x3da6ed85	0.08150772
108	0xbcddc5bb	-0.027071824
109	0xbcb58282	-0.022156958
110	0xbac8e988	-0.0015328387
111	0x3e129e79	0.14318265
112	0xbdcdc480	-0.10047245
113	0xbe33f8c2	-0.17575362
114	0x3dcfdc8f	0.1014949
115	0x3e4f8369	0.20264973
116	0x3e599cde	0.21251246
117	0x3ab486a4	0.0013773036
118	0xbc0edbfb	-0.00871944
119	0xbce03623	-0.027369564
120	0xbb99b945	-0.0046912753
121	0x3de66752	0.112501755
122	0x3dd89af1	0.10576428
123	0x3cb938cd	0.022610093
124	0x3e08826b	0.13331
125	0xbdc989d8	-0.09840745
126	0x3a8524a7	0.0010158018
127	0xbd9b06b9	-0.075696416
128	0x3bf4da3d	0.007472305
129	0x3d1d64c5	0.03842618
130	0x3b3e2a54	0.0029016929
131	0xbc1ab233	-0.0094419
132	0x3d00d073	0.031448793
133	0x3d81ed02	0.06344034
134	0xbc9c629d	-0.019089991
135	0xbdf8b926	-0.12144689
136	0xbdb1b82d	-0.08677707
137	0xbdcddae3	-0.10051515
138	0xbe02842f	-0.12745737
139	0x3d839e22	0.06426646
140	0x3d893c53	0.06700959
141	0xbd635490	-0.055500567
142	0xbe3234a8	-0.174029
143	0xbc517f07	-0.012786633
144	0x3d73786c	0.059441015
145	0x3bc81fd3	0.0061073094
146	0xbe04f1f9	-0.1298293
147	0xbdb9556c	-0.09049496
148	0x3d53c480	0.05170107
149	0x3d453474	0.048145726
150	0x3da5066e	0.08057867
151	0xbe6fcb6e	-0.23417446
152	0x3d15357d	0.036427964
153	0xbe6a03f2	-0.22853068
154	0x3c2d6efa	0.010585541
155	0x3dbbc405	0.09168247
156	0x3d44330e	0.047900252
157	0xbdbbb61e	-0.091655955
158	0xbe344e4a	-0.1760799
159	0xbda01002	-0.07815553
160	0x3b8dadfa	0.004323718
161	0x3cea311a	0.028587867
162	0xbd80ba42	-0.06285526
163	0x3de1466b	0.10999759
164	0x3dad2807	0.084549
165	0xbd1b7137	-0.037949767
166	0xbd39f3db	-0.045398574
167	0xbc6aae1c	-0.0143237375
168	0xbe1baaa0	-0.15201807
169	0xbe021d1d	-0.12706418
170	0x3cf7587e	0.030193564
171	0xbcecd0c0	-0.028908134
172	0xbe55cde1	-0.20879318
173	0x3c0d82c6	0.008637136
174	0xbe2b2f93	-0.16717367
175	0x3d59a411	0.05313498
176	0xbc2ce757	-0.010553203
177	0x3e111c8a	0.14171043
178	0x3a0e8a53	0.0005437482
179	0xbe4c8bc5	-0.19975193
180	0x3da50695	0.08057896
181	0xbdbced05	-0.092248954
182	0x3d75ae93	0.05998094
183	0xbdf3c2f6	-0.1190242
184	0x3e00c028	0.12573302
185	0x3d832905	0.06404308
186	0x3df7d21d	0.12100623
187	0x3ded1879	0.115769334
188	0xbc9c798a	-0.019100923
189	0x3e35d2d4	0.17756206
190	0xbe38eb86	-0.18058595
191	0x3e29fa7d	0.1659946
192	0x3dd366e8	0.10322362
193	0xbde7f060	-0.11325145
194	0xbdb4be38	-0.08825344
195	0x3a7fe101	0.0009761006
196	0xbe536d8a	-0.20647255
197	0xbc868da3	-0.01642496
198	0x3e54aa4c	0.20768088
199	0x3d898fe3	0.06716897
200	0x3db50c3c	0.08840224
201	0xbe452868	-0.19253695
202	0x3d7eca06	0.062204383
203	0x3e2e1e42	0.1700373
204	0xbdf7aedc	-0.12093899
205	0x3dfa9689	0.122357436
206	0xbb38a388	-0.0028173644
207	0x3c993a70	0.018704623
208	0xbd1a11ed	-0.03761475
209	0xbe47a503	-0.1949654
210	0x3d151497	0.03639659
211	0x3d9cddda	0.07659502
212	0x3d9883a2	0.07446982
213	0x3e27c84b	0.16385
214	0x3dc734c2	0.0972686
215	0xbe0a3da8	-0.13500082
216	0xbe099e1b	-0.13439219
217	0xbdf8bdc7	-0.12145572
218	0x3d839f28	0.06426841
219	0x3bc5e033	0.0060386895
220	0xbd84e778	-0.06489462
221	0x3cf1e820	0.029529631
222	0x3df15356	0.11783473
223	0xbe0b0057	-0.13574348
224	0x3c995a4d	0.018719817
225	0xbcb5de30	-0.022200674
226	0x3cf6992a	0.030102331
227	0x3d8f0ff2	0.06985463
228	0x3e36dc1c	0.17857403
229	0x3d86a3dc	0.065742224
230	0x3d96a8ed	0.07356439
231	0xbc8be5fb	-0.017077437
232	0x3da5dffc	0.08099362
233	0xbcbe462c	-0.02322682
234	0x3db8fd60	0.090327024
235	0x3c210108	0.009826906
236	0xbe1d8fdb	-0.15386908
237	0xbd137335	-0.03599854
238	0xbe2ba13b	-0.16760723
239	0x3d361aa9	0.04445902
240	0xbe4093a4	-0.1880632
241	0x3dfb1357	0.12259548
242	0xbda14672	-0.078747645
243	0xbe37a5c7	-0.17934333
244	0xbc42c22d	-0.011887115
245	0xbe0844df	-0.13307522
246	0xbd16193e	-0.036645167
247	0xbc777a8c	-0.015104901
248	0xbdacb48c	-0.08432874
249	0x3d947c35	0.07250253
250	0xbdb26fd6	-0.08712737
251	0x3d1afb35	0.037837226
252	0x3e0efc79	0.13963498
253	0x3ba78a6a	0.005112936
254	0xbd12efa5	-0.035873074
255	0xbdfe3a70	-0.1241349

l3.bias f4 [50]
0	0xbd4f5f02	-0.050627716
1	0x3d155608	0.036459
2	0xbd264c24	-0.040599957
3	0x3caa6357	0.020799322
4	0xbd7767f1	-0.06040186
5	0xbb07d7e6	-0.002072805
6	0x3da6984a	0.081345156
7	0xbc87cdd3	-0.016577637
8	0x3cd455d7	0.025919838
9	0x3d03aee2	0.032149203
10	0xbcf597e3	-0.029979652
11	0x3ca2208f	0.019790916
12	0x3bbbf967	0.005736518
13	0xbcdfc727	-0.027316643
14	0xbbc66572	-0.0060545737
15	0xbdf91792	-0.12162699
16	0xbd480e27	-0.04884162
17	0x3dc065ed	0.09394441
18	0xbcd5df35	-0.02610741
19	0xbd136b8c	-0.035991237
20	0xbc8bb088	-0.01705195
21	0x3d68310c	0.0566874
22	0xbd9052f3	-0.07047071
23	0x3c2e8452	0.010651665
24	0xbd64ed76	-0.055890523
25	0xbd1fa27d	-0.03897332
26	0xbe081f32	-0.1329315
27	0x3ccdff94	0.025146283
28	0x3d90b6b7	0.070661
29	0x3d84adf4	0.064784914
30	0xbd00021f	-0.031252023
31	0x3d86d9ae	0.06584488
32	0xbc0db97a	-0.008650178
33	0x3c2c6605	0.01052237
34	0x3d83b3f8	0.06430811
35	0xbc8d9c14	-0.017286338
36	0xbd75893c	-0.05994533
37	0xbdfe7f83	-0.12426665
38	0xbda2f6d4	-0.07957235
39	0xbc98826e	-0.018616881
40	0xbc0db479	-0.008648985
41	0x3d951ce1	0.07280899
42	0x3c81fde6	0.015868139
43	0x3d39a8d3	0.04532702
44	0x3de30b23	0.110861085
45	0x3d995ca0	0.0748837
46	0xbc12dde9	-0.00896404
47	0xbcbbe25c	-0.022935085
48	0x3cebbf28	0.028777674
49	0x3d6beed5	0.057600815

l4.weight f4 [2, 50]
0	0xbe7744ae	-0.24147293
1	0xbe83154a	-0.2560218
2	0x3e30e6b7	0.1727551
3	0x3e8e74ed	0.27823582
4	0xbe2654a3	-0.16243224
5	0xbe74b4d3	-0.23897104
6	0xbe774a32	-0.24149397
7	0x3e821e93	0.2541395
8	0x3e8ce400	0.275177
9	0xbe809bce	-0.2511887
10	0xbd1bd8fe	-0.038048737
11	0x3e10e31f	0.1414914
12	0x3e87bf76	0.2651326
13	0x3e87caa9	0.26521805
14	0x3d9e09a9	0.07716686
15	0x3d05ea13	0.032693934
16	0x3e074ef0	0.13213706
17	0xbe44b632	-0.19210127
18	0x3e8d1e13	0.27562007
19	0xbd3e55f3	-0.046468686
20	0x3e460318	0.19337118
21	0x3e9a63a6	0.3015415
22	0x3dbde873	0.09272852
23	0xbe00595e	-0.12534091
24	0xbe7e3c1e	-0.2482762
25	0x3e9b8113	0.30371913
26	0xbe60d5de	-0.21956584
27	0x3e753ca7	0.23948918
28	0x3e7c4f40	0.24639606
29	0xbe428159	-0.18994655
30	0x3bd19958	0.006396454
31	0xbe78f0d2	-0.24310616
32	0x3e9cc89a	0.30621797
33	0x3e49f70d	0.19723149
34	0x3e9c296f	0.3050036
35	0x3e91d2cc	0.28481138
36	0xbe880da2	-0.265729
37	0x3e3f6414	0.1869052
38	0xbe7a500d	-0.244446
39	0x3e735c7b	0.23765747
40	0xbe017993	-0.12644033
41	0x3e7bc57a	0.2458705
42	0xbe08ec09	-0.1337129
43	0x3d3a2acd	0.045450974
44	0x3e8afd57	0.27146408
45	0x3e54d7fc	0.20785517
46	0x3e624da2	0.22099927
47	0xbe8349fa	-0.25642377
48	0x3d4a715b	0.04942451
49	0xbe8d954e	-0.27652973
50	0xbe5bd606	-0.21468362
51	0x3e313a6b	0.17307441
52	0x3e26bdb4	0.16283303
53	0x3e2a6059	0.16638316
54	0x3e56efb1	0.20989873
55	0x3df2ca1d	0.11854956
56	0x3d507cb4	0.050900176
57	0x3e955ab2	0.29170758
58	0x3e8b1386	0.27163333
59	0xbe509741	-0.20370199
60	0xbe8872f2	-0.26650196
61	0x3e8c64d5	0.2742068
62	0xbc71425f	-0.014725297
63	0xbe860eb2	-0.26183087
64	0xbe36a2f3	-0.17835598
65	0x3e937393	0.28799114
66	0x3e3280da	0.17431965
67	0x3e99a5ab	0.30009207
68	0x3e751918	0.23935354
69	0xbcf34569	-0.029696183
70	0x3e5a1244	0.2129603
71	0x3db35d9d	0.0875809
72	0x3d409b76	0.04702326
73	0x3e6dfe92	0.23241642
74	0x3e3ebda5	0.18627031
75	0xbdcf2ae8	-0.101156056
76	0x3e2927fa	0.16519156
77	0xbe7f8676	-0.24953637
78	0xbe15a057	-0.14611946
79	0xbdd5176c	-0.10404858
80	0xbde31803	-0.11088564
81	0x3e8c97ba	0.27459508
82	0x3e6f000d	0.23339863
83	0x3e9e9c11	0.30978444
84	0xbe1f7777	-0.15572916
85	0x3daa537b	0.08316704
86	0xbe0a27c2	-0.13491729
87	0xbe5aa9bd	-0.21353813
88	0xbe812198	-0.25220942
89	0x3e721cac	0.2364375
90	0x3e8897ff	0.26678464
91	0x3e6fb4fc	0.23408884
92	0xbe86e953	-0.26349887
93	0x3e9c32c4	0.3050748
94	0x3dc5bcfe	0.09655188
95	0xbe6f555e	-0.23372409
96	0xbea107c1	-0.31451228
97	0x3e5dca75	0.21659262
98	0x3e9d9db0	0.3078437
99	0xbe8eb2cb	-0.27870783

l4.bias f4 [2]
0	0x3d2c871a	0.04212103
1	0xbdaa3a33	-0.08311882

exp_avg f4 [250, 3]
0	0xb7d72488	-2.5647008e-05
1	0x37c7a34f	2.3798695e-05
2	0xb8454ac6	-4.70381e-05
3	0xb63730b2	-2.729747e-06
4	0x3785375c	1.5880614e-05
5	0x388859a7	6.5016844e-05
6	0x37a124a5	1.920976e-05
7	0x37e3c0ed	2.7150347e-05
8	0x3879d0e6	5.9560778e-05
9	0xb6408539	-2.8687775e-06
10	0xb77087fe	-1.4336778e-05
11	0xb8614f61	-5.3718108e-05
12	0x354a8188	7.5439357e-07
13	0xb781292f	-1.5397176e-05
14	0xb8cac2ca	-9.668393e-05
15	0x37758f00	1.4636433e-05
16	0xb6f3bd30	-7.2639887e-06
17	0x383d48fa	4.5129076e-05
18	0x378ee76f	1.7035489e-05
19	0x38dc9b84	0.000105193845
20	0x37ef857a	2.8553175e-05
21	0xb5347c31	-6.723595e-07
22	0x3842e280	4.646415e-05
23	0x38732c53	5.7976995e-05
24	0x37546e6c	1.2661894e-05
25	0x36b2231b	5.3089e-06
26	0xb92dd3b9	-0.00016577439
27	0x38603f0e	5.3464486e-05
28	0x3906e70b	0.00012865306
29	0x378bc52e	1.666191e-05
30	0x35d72b1d	1.6031296e-06
31	0xb8cd0c0c	-9.777406e-05
32	0x38b8cf15	8.812376e-05
33	0xb7d20b1f	-2.503913e-05
34	0x368d2fbf	4.207686e-06
35	0xb8b9b944	-8.855996e-05
36	0x390a6168	0.00013196992
37	0xb8a0c21a	-7.665549e-05
38	0x390e9edf	0.0001360136
39	0x00000000	0.0
40	0x00000000	0.0
41	0x00000000	0.0
42	0x37fc38ac	3.006713e-05
43	0x3906dc5b	0.00012861325
44	0x38166fab	3.5866786e-05
45	0xb79d8a75	-1.8780333e-05
46	0xb8aebcae	-8.332111e-05
47	0x37e9f05e	2.7887694e-05
48	0x37100619	8.584489e-06
49	0xb80cf73a	-3.360885e-05
50	0x3800a893	3.0674575e-05
51	0xb917e977	-0.00014487455
52	0x3961b53e	0.0002152519
53	0x37cb3c36	2.4227524e-05
54	0x37e32534	2.7077833e-05
55	0xb7b6abf0	-2.1776155e-05
56	0xb8b6117e	-8.6816945e-05
57	0xb767ebe1	-1.3823593e-05
58	0xb6251bb5	-2.4603044e-06
59	0xb7c258a5	-2.316788e-05
60	0x37c21652	2.3136996e-05
61	0x366f468c	3.565484e-06
62	0x3731c308	1.0595431e-05
63	0xb537b8a8	-6.844152e-07
64	0x35bf05ba	1.4232276e-06
65	0x38a9071d	8.059873e-05
66	0xb78697d2	-1.6044742e-05
67	0x3530e154	6.5893005e-07
68	0xb88df6fc	-6.769408e-05
69	0xb786c8fb	-1.6067634e-05
70	0xb77ab266	-1.4942698e-05
71	0xb8a28b8a	-7.750753e-05
72	0xb67a1748	-3.7266454e-06
73	0x38c9461f	9.597488e-05
74	0xb8229179	-3.875929e-05
75	0x372edab7	1.0422132e-05
76	0x37aba861	2.0463196e-05
77	0x39015176	0.00012332745
78	0xb6c5b408	-5.892016e-06
79	0xb96e81e6	-0.0002274584
80	0xb8b6b86d	-8.712788e-05
81	0xb6a39963	-4.875635e-06
82	0xb6c78c62	-5.947005e-06
83	0xb6001ac8	-1.9089075e-06
84	0x37d71f6b	2.5644627e-05
85	0xb8017c8c	-3.087199e-05
86	0xb82e3b04	-4.1539795e-05
87	0x385cdd14	5.2657982e-05
88	0x38af0dac	8.347197e-05
89	0x3852421e	5.0129478e-05
90	0xb72e189f	-1.0376941e-05
91	0x37c742c0	2.3753732e-05
92	0x386df9db	5.67379e-05
93	0x372f6221	1.045366e-05
94	0xb7bd3a40	-2.255768e-05
95	0xb9290b20	-0.0001612124
96	0xb754e2ee	-1.2689021e-05
97	0x3878da18	5.9330923e-05
98	0x3801d0b9	3.0950385e-05
99	0x00000000	0.0
100	0x00000000	0.0
101	0x00000000	0.0
102	0x3744fab7	1.17408845e-05
103	0xb6a7fa3a	-5.006118e-06
104	0xb81cede9	-3.741487e-05
105	0xb62e11f1	-2.5938464e-06
106	0x37258664	9.866057e-06
107	0xb8f96dc4	-0.00011893691
108	0xb842a40b	-4.640598e-05
109	0xb76bc5b5	-1.4053124e-05
110	0xb831621f	-4.229147e-05
111	0xb63bcc07	-2.798393e-06
112	0x354923ba	7.4930324e-07
113	0xb8cc4c2d	-9.741667e-05
114	0xb781aae1	-1.545757e-05
115	0x37e6cc24	2.7513197e-05
116	0xb91b93b5	-0.00014836977
117	0xb6bb2e29	-5.578408e-06
118	0xb60fb446	-2.1413593e-06
119	0xb8dc461f	-0.000105034786
120	0xb4d17bcb	-3.9019355e-07
121	0xb87ab5ac	-5.977384e-05
122	0xb8c1dfa4	-9.2446135e-05
123	0x3829ff85	4.053071e-05
124	0x37cdd18f	2.4535488e-05
125	0xb696e5ae	-4.4970866e-06
126	0xb99f4fdf	-0.00030386352
127	0x361e4443	2.3583568e-06
128	0xb92ec5ea	-0.00016667662
129	0xb939d54d	-0.00017722436
130	0x382dd0d5	4.1440904e-05
131	0xb9669427	-0.000219897
132	0xb621c398	-2.410472e-06
133	0xb638abee	-2.7518213e-06
134	0xb844705c	-4.6834684e-05
135	0x37cc7faf	2.4378152e-05
136	0x364a5077	3.0147182e-06
137	0xb7a7969b	-1.9978082e-05
138	0xb8bb21b7	-8.923135e-05
139	0x38d7aee8	0.00010284578
140	0xb7ec4f8b	-2.8170432e-05
141	0xb879ac95	-5.9526956e-05
142	0xb68e03dd	-4.2323795e-06
143	0x38dfc8ed	0.00010670894
144	0x381522de	3.555684e-05
145	0xb6d64a75	-6.386365e-06
146	0x383c9a98	4.496667e-05
147	0x383a4a96	4.441532e-05
148	0x3784c6c6	1.5828187e-05
149	0xb8a9a4c6	-8.0892394e-05
150	0x38431c86	4.6518187e-05
151	0xb83c5219	-4.4899152e-05
152	0xb85dcadf	-5.2879444e-05
153	0x371d0dec	9.361171e-06
154	0xb62ee8f6	-2.6063622e-06
155	0x38e0ceb1	0.000107196516
156	0x38a58947	7.893383e-05
157	0x3668f6c5	3.4714333e-06
158	0xb7a05786	-1.9114243e-05
159	0xb9169e8d	-0.0001436418
160	0xb98ac5a1	-0.00026468656
161	0x39d7e786	0.00041180494
162	0xb63f9eba	-2.855361e-06
163	0xb7d5e293	-2.5497086e-05
164	0x3922b86e	0.0001551823
165	0x38d60b40	0.00010206411
166	0x39146b57	0.00014154367
167	0x385354f1	5.0385428e-05
168	0x36fb60ae	7.491638e-06
169	0x3858d1d6	5.1693838e-05
170	0x391d4803	0.00014999513
171	0x00000000	0.0
172	0x00000000	0.0
173	0x00000000	0.0
174	0xb80b6dec	-3.3242555e-05
175	0x3815e857	3.574075e-05
176	0x37ee9156	2.8439488e-05
177	0x380bc2b4	3.3321514e-05
178	0x351f85b2	5.942667e-07
179	0xb7e65022	-2.7455451e-05
180	0xb7a482b1	-1.9611181e-05
181	0xb66a4524	-3.4908962e-06
182	0x38668866	5.4963304e-05
183	0x3882011e	6.199091e-05
184	0xb8ab9190	-8.1810285e-05
185	0xb89f842c	-7.60633e-05
186	0xb7d9424f	-2.5899293e-05
187	0x36b71542	5.4562997e-06
188	0xb897d01b	-7.239004e-05
189	0xb5b23e85	-1.3280229e-06
190	0x36c7c6b6	5.953795e-06
191	0xb6923ec4	-4.358446e-06
192	0xb88c35a5	-6.685712e-05
193	0xb6971529	-4.502614e-06
194	0x37128853	8.734019e-06
195	0x38307e34	4.2079206e-05
196	0x37873d8b	1.6121912e-05
197	0x37f754a9	2.9484117e-05
198	0xb8446069	-4.681983e-05
199	0x38280ff2	4.006917e-05
200	0x371fe343	9.530052e-06
201	0x36d51eb9	6.3514713e-06
202	0xb694dfec	-4.4368117e-06
203	0xb926a789	-0.00015893405
204	0x3898872d	7.273103e-05
205	0xb7dc362b	-2.6251268e-05
206	0x35c2549b	1.447875e-06
207	0x378aa30e	1.652681e-05
208	0xb746caf1	-1.1848971e-05
209	0xb8869299	-6.416924e-05
210	0xb73c828c	-1.12360685e-05
211	0xb5328619	-6.6505305e-07
212	0xb6404212	-2.8648687e-06
213	0x36384a52	2.7461397e-06
214	0xb78475f2	-1.5790549e-05
215	0x392dcb41	0.00016574284
216	0x3887c83e	6.4746e-05
217	0x37a832ed	2.0050875e-05
218	0xb7cb229f	-2.4215607e-05
219	0x377914c5	1.4846392e-05
220	0x37618e0e	1.344412e-05
221	0xb8c7b0ed	-9.5220144e-05
222	0xb8cca9ae	-9.759083e-05
223	0x38018008	3.0875235e-05
224	0x39244d70	0.00015669107
225	0xb74509e0	-1.1744414e-05
226	0xb73cc3a6	-1.1251226e-05
227	0x3891f7c8	6.960292e-05
228	0x38386d59	4.3970856e-05
229	0xb80c0fe5	-3.3393404e-05
230	0xb796751d	-1.7935929e-05
231	0xb6b1fdaf	-5.3045437e-06
232	0xb6b07d5a	-5.2598016e-06
233	0xb8aec24d	-8.333158e-05
234	0x00000000	0.0
235	0x00000000	0.0
236	0x00000000	0.0
237	0xb831c339	-4.2381904e-05
238	0x37487413	1.1947955e-05
239	0xb7a98ef7	-2.0212943e-05
240	0x00000000	0.0
241	0x00000000	0.0
242	0x00000000	0.0
243	0xb506bf75	-5.0197497e-07
244	0xb3b2193d	-8.293362e-08
245	0xb8c7313e	-9.4982315e-05
246	0xb77e465c	-1.5155962e-05
247	0x37a95146	2.0184216e-05
248	0x389afecc	7.390752e-05
249	0xb885f48f	-6.387487e-05
250	0xb80c3675	-3.3429318e-05
251	0x381af76b	3.6946887e-05
252	0xb4b200f4	-3.3155777e-07
253	0xb7a4126f	-1.9558907e-05
254	0xb705dd35	-7.9789215e-06
255	0x3690f60f	4.3201794e-06

exp_avg_sq f4 [250, 3]
0	0x3050ee4e	7.600861e-10
1	0x306eb5d9	8.6842317e-10
2	0x31f9d269	7.2707746e-09
3	0x2e0bd978	3.1798092e-11
4	0x2fb33d03	3.2603262e-10
5	0x320b7973	8.118479e-09
6	0x2feaf399	4.2737439e-10
7	0x3050d01f	7.5965717e-10
8	0x31b451e7	5.2480007e-09
9	0x2fc8448d	3.6428496e-10
10	0x2fc7e43f	3.6360068e-10
11	0x320ca4bf	8.1865315e-09
12	0x2f209564	1.460499e-10
13	0x2fd4ba32	3.8694875e-10
14	0x324d12b4	1.1936823e-08
15	0x2faa4874	3.09743e-10
16	0x2f294269	1.5394054e-10
17	0x318c61fc	4.085676e-09
18	0x31172181	2.1992437e-09
19	0x32819686	1.5086027e-08
20	0x30b00fbc	1.2810157e-09
21	0x2dba394c	2.1171197e-11
22	0x30ee2cbe	1.7329496e-09
23	0x31ce7756	6.008956e-09
24	0x301b8f7b	5.659257e-10
25	0x30c17bf8	1.4077832e-09
26	0x331f1cf6	3.7046412e-08
27	0x31145c5c	2.1589335e-09
28	0x32c2df93	2.2686242e-08
29	0x3123239b	2.3739861e-09
30	0x2e8c7fd3	6.389169e-11
31	0x31e0ad25	6.5389423e-09
32	0x32ab7247	1.9958987e-08
33	0x301b07fe	5.640003e-10
34	0x2f18edbf	1.3908784e-10
35	0x3260f880	1.3095018e-08
36	0x32be92d3	2.2185679e-08
37	0x3213c94a	8.602294e-09
38	0x32e5ba97	2.674396e-08
39	0x00000000	0.0
40	0x00000000	0.0
41	0x00000000	0.0
42	0x312b322f	2.4912301e-09
43	0x328e7961	1.6586172e-08
44	0x31899e40	4.0052157e-09
45	0x2f0bc84b	1.2713135e-10
46	0x32073919	7.871017e-09
47	0x310bfa1a	2.0369328e-09
48	0x30490081	7.312409e-10
49	0x3108ee77	1.9926156e-09
50	0x315daa3a	3.2256495e-09
51	0x32c7474a	2.3199068e-08
52	0x3365339c	5.3365156e-08
53	0x311076ff	2.10224e-09
54	0x302b237e	6.2259875e-10
55	0x310651f1	1.9546145e-09
56	0x3238b8eb	1.0752255e-08
57	0x2f203d17	1.4573619e-10
58	0x2ef9ea96	1.136488e-10
59	0x305891bf	7.878746e-10
60	0x2fc52cd7	3.5865952e-10
61	0x2f00abbd	1.1702546e-10
62	0x3040754a	7.001587e-10
63	0x3019403e	5.575237e-10
64	0x2f790ed2	2.2651683e-10
65	0x32c2c0fc	2.2672332e-08
66	0x2f5c1625	2.0016751e-10
67	0x2de05a20	2.5505875e-11
68	0x31fe2453	7.3965025e-09
69	0x2f6439dc	2.0757035e-10
70	0x2fd7a475	3.9225126e-10
71	0x32027d79	7.595525e-09
72	0x2e7ae83f	5.7049695e-11
73	0x3209a5e4	8.012169e-09
74	0x318669bf	3.911935e-09
75	0x30941fc2	1.0777443e-09
76	0x3124c782	2.3978548e-09
77	0x33206c96	3.735166e-08
78	0x2e95561d	6.791032e-11
79	0x3351ce4f	4.884924e-08
80	0x32363d9d	1.06078035e-08
81	0x2db77b9b	2.0859583e-11
82	0x2e2208a7	3.684222e-11
83	0x2d35e1d6	1.03388045e-11
84	0x3049b9c0	7.338734e-10
85	0x304a8369	7.3673917e-10
86	0x316539c5	3.3356724e-09
87	0x321658b9	8.751322e-09
88	0x320fb79f	8.365446e-09
89	0x31dd86c8	6.4472694e-09
90	0x2fcfd78d	3.780624e-10
91	0x2fdec792	4.0523368e-10
92	0x31baf1fa	5.440822e-09
93	0x30654c2a	8.341795e-10
94	0x30e7a18e	1.6853379e-09
95	0x32ef7b0c	2.7879217e-08
96	0x2fb37fa1	3.2650596e-10
97	0x313bb073	2.7312381e-09
98	0x3097422b	1.1005502e-09
99	0x00000000	0.0
100	0x00000000	0.0
101	0x00000000	0.0
102	0x306e857e	8.67736e-10
103	0x303499c2	6.570212e-10
104	0x3181b3d3	3.7748378e-09
105	0x3026ec5c	6.0726335e-10
106	0x30c18be7	1.4082361e-09
107	0x32e950d7	2.7161532e-08
108	0x310899ae	1.9877961e-09
109	0x2f95e0a2	2.7262553e-10
110	0x31c8c085	5.842653e-09
111	0x2f275cf6	1.5221588e-10
112	0x2ee40c3b	1.0370412e-10
113	0x328670a0	1.5650869e-08
114	0x2fb5ac76	3.304625e-10
115	0x30cf74b2	1.5094399e-09
116	0x330e7697	3.316981e-08
117	0x2fa0c319	2.9242456e-10
118	0x2f48538e	1.8219579e-10
119	0x329b8625	1.8105377e-08
120	0x2efb564f	1.142949e-10
121	0x3182b8ba	3.804499e-09
122	0x32318310	1.0332556e-08
123	0x31377fd4	2.6702667e-09
124	0x3114a73c	2.1631896e-09
125	0x30d7d619	1.5704159e-09
126	0x33c824c6	9.319915e-08
127	0x2e7b2f84	5.7112995e-11
128	0x32eaffa2	2.7357434e-08
129	0x331f3a33	3.7073004e-08
130	0x31ca6a43	5.8910543e-09
131	0x334533b9	4.591468e-08
132	0x2e558bde	4.855482e-11
133	0x2f2ff4fd	1.6003195e-10
134	0x316a27eb	3.4074172e-09
135	0x3011f414	5.309755e-10
136	0x2e8650e7	6.1079856e-11
137	0x30b82835	1.339919e-09
138	0x31fe0892	7.3933473e-09
139	0x329f5a0f	1.855099e-08
140	0x311f5f40	2.3191689e-09
141	0x3183cac6	3.8356545e-09
142	0x2eaa0f0b	7.733377e-11
143	0x32a53561	1.9232802e-08
144	0x3056b7fd	7.811421e-10
145	0x2e79e430	5.6818716e-11
146	0x31898811	4.0026937e-09
147	0x31a36b3e	4.7561164e-09
148	0x2fb569c3	3.2998856e-10
149	0x32ab9a1d	1.9977103e-08
150	0x3105b1ad	1.9455044e-09
151	0x3146c8f9	2.8927032e-09
152	0x31fe0e79	7.3940183e-09
153	0x30cb1d0f	1.4778453e-09
154	0x2fe1097c	4.0934e-10
155	0x325854ca	1.2592134e-08
156	0x320f6df6	8.348698e-09
157	0x3028fd67	6.147815e-10
158	0x3098ab14	1.1108079e-09
159	0x32c47b8e	2.287359e-08
160	0x33a52ad7	7.691204e-08
161	0x3483eade	2.457154e-07
162	0x2ea26d2f	7.386302e-11
163	0x31fbefe8	7.3323356e-09
164	0x32f91bce	2.900006e-08
165	0x3227d9b8	9.770183e-09
166	0x3246ecfa	1.1578999e-08
167	0x313a2838	2.7089424e-09
168	0x30283083	6.1186983e-10
169	0x31bf967f	5.575941e-09
170	0x33368b62	4.2501945e-08
171	0x00000000	0.0
172	0x00000000	0.0
173	0x00000000	0.0
174	0x30b141a4	1.2897101e-09
175	0x307d7e80	9.222063e-10
176	0x30e43978	1.6605517e-09
177	0x313f5d66	2.784725e-09
178	0x305fe775	8.145585e-10
179	0x30cc44c5	1.4862499e-09
180	0x30271b9f	6.07935e-10
181	0x2eccd4c8	9.3146435e-11
182	0x31a33168	4.749541e-09
183	0x31561e4c	3.115832e-09
184	0x322bbbef	9.996241e-09
185	0x318333a9	3.818475e-09
186	0x303300db	6.5121036e-10
187	0x2ed47c76	9.6627525e-11
188	0x3217b575	8.830615e-09
189	0x2d13a81c	8.39331e-12
190	0x2e906e26	6.567928e-11
191	0x2e980191	6.912438e-11
192	0x32093f2d	7.988814e-09
193	0x2f2b2add	1.5567587e-10
194	0x31bab760	5.43416e-09
195	0x30999970	1.1175825e-09
196	0x2ff8b26a	4.5237708e-10
197	0x31212aca	2.3452906e-09
198	0x31080a05	1.97963e-09
199	0x30a5fe3f	1.2077591e-09
200	0x3010955d	5.2599153e-10
201	0x2f84f668	2.4185742e-10
202	0x2f88cfb8	2.488585e-10
203	0x33485e99	4.6652165e-08
204	0x3206b54f	7.841051e-09
205	0x30dc9277	1.6048735e-09
206	0x30fd2620	1.8419009e-09
207	0x2f7dc353	2.3079609e-10
208	0x2f771b90	2.2474311e-10
209	0x31c32726	5.6796976e-09
210	0x2f53b09b	1.9253081e-10
211	0x2f20de4d	1.4630892e-10
212	0x2ea8c027	7.6738886e-11
213	0x2eb0d9e9	8.042262e-11
214	0x30204bd1	5.83154e-10
215	0x330eab20	3.321759e-08
216	0x3194ff61	4.3364e-09
217	0x30184a61	5.5402977e-10
218	0x303891c5	6.714596e-10
219	0x2f694fd7	2.1219591e-10
220	0x2fa1bee1	2.9421357e-10
221	0x326083d5	1.3068491e-08
222	0x31fcc54c	7.3565953e-09
223	0x30bdd218	1.3811272e-09
224	0x32e00ab0	2.6081892e-08
225	0x2f374302	1.6667559e-10
226	0x2ed5601a	9.7031896e-11
227	0x321067a3	8.405467e-09
228	0x31047c62	1.9279232e-09
229	0x30561f14	7.789691e-10
230	0x31296eb3	2.4655662e-09
231	0x2e8be256	6.3611935e-11
232	0x2f37b62f	1.6708478e-10
233	0x32253309	9.615868e-09
234	0x00000000	0.0
235	0x00000000	0.0
236	0x00000000	0.0
237	0x30ba1686	1.3539683e-09
238	0x30232514	5.9351746e-10
239	0x30fad96c	1.8251689e-09
240	0x00000000	0.0
241	0x00000000	0.0
242	0x00000000	0.0
243	0x2e3c6ab8	4.2841036e-11
244	0x2e024b00	2.962519e-11
245	0x32529d2b	1.2259345e-08
246	0x30566b13	7.800491e-10
247	0x3098eed3	1.1127333e-09
248	0x32027775	7.594157e-09
249	0x31a18d93	4.701812e-09
250	0x3042bba5	7.084345e-10
251	0x31fd3449	7.3692132e-09
252	0x2d85b21a	1.5199442e-11
253	0x3061100e	8.187734e-10
254	0x3093bc93	1.0749254e-09
255	0x2f95db4a	2.7258756e-10
