motion_planning/NN_model/models/single_402_left.pt (torch, 505434 bytes, 24 tensors)

l1.weight f4 [250, 7]
0.04784467 0.14587562 0.2818654 0.5836384 0.050828937 0.19411364 0.026002398 0.13170925
-0.2916973 -0.111729234 0.07489713 -0.3331535 -0.08222501 -0.5985453 0.020886056 -0.53779167
0.19792381 0.042258166 0.04094708 0.041362524 -0.7652971 -0.3174051 0.005773804 0.015746655
-0.016944043 -0.18180394 0.5869288 0.38687274 -0.5214292 -0.4876342 0.3790472 0.0667111
0.52140844 0.24945569 0.20828712 0.23311353 0.00859864 0.23537433 -0.02463315 -0.4785736
-0.24950416 -0.5831176 0.17645678 -0.16110204 0.037560105 -0.0077808537 0.17871669 -1.0169988
0.28505012 -0.5718156 0.029530844 -0.2585328 9.058023e-05 0.33545938 -0.19614288 -0.18264836
-0.58131385 0.49127766 0.35225132 0.049120244 0.10325693 0.4108984 0.2614931 -0.2771018
0.09766997 0.022636285 0.0016321063 0.6794112 0.6413959 -0.0029053588 0.0729074 0.015315406
-0.4070563 0.013149421 0.38729557 -0.4159389 -0.25263157 0.46527338 -0.011512786 -0.057444103
0.0057760156 0.45761222 0.26241854 -0.18851237 -0.3840151 -0.008200882 -0.6412519 -0.28757522
-0.05184696 0.57294965 0.80791974 -0.07706199 -0.014735778 0.014839578 -0.0011947 -0.67898554
-0.3126113 0.5826725 -0.22452965 -0.24791113 -0.22334202 -0.06981534 -0.5129798 0.1548794
-0.22156654 0.10478227 -0.035808753 0.45443064 0.07410093 0.5265552 -0.37822983 -0.33040956
-0.14887686 0.001977028 -0.20544718 0.10558295 -0.33770224 0.22949713 0.31607786 0.10203321
-0.09824417 0.18874362 -0.0047957487 -0.08675414 0.40315694 -0.0215041 0.021845087 -0.00030009972
0.29900235 0.5907834 -0.15012315 0.16516352 0.225476 -0.27427357 -0.3293017 -0.15461767
-0.36771896 0.29697692 0.3190476 -0.056693614 0.08774484 0.37207922 0.21023133 -0.018744564
-0.16239855 0.36517733 -0.19455186 0.219636 -0.046154276 -0.06535594 0.05458833 -0.6943493
-0.14937721 0.545016 -0.16808154 -0.012905514 -0.2686508 -0.05196438 -0.06338564 0.015692135
-0.34630588 -0.18421593 -0.33626056 -0.026986584 -0.032177087 -0.19119562 0.332996 -0.6045558
0.18852133 0.008508506 -0.5037368 -0.2922009 -0.3286925 -0.17068346 0.8202548 -0.14556363
0.08564865 0.02015687 0.008761574 -0.45269594 0.62085843 -0.8963992 0.21992134 -0.02158006
-0.06532118 -0.01731632 -0.26165584 0.35373378 0.48454812 -0.15534987 0.0639164 0.009332374
0.0028536243 0.69701433 0.2566867 -0.7566572 -0.050741863 0.04908569 -0.44887438 -0.3782629
0.102278136 -0.17310259 -0.21538274 0.3917758 0.062227856 0.49575588 0.14199798 0.31127068
-0.5962414 -0.5323756 0.029826684 -0.0023433806 -0.001211925 -0.004423844 0.64651793 0.44474941
-0.4760717 -0.08655211 -0.025796417 -0.023913393 0.00060498103 0.67981774 0.5305888 0.2620303
0.3004951 -0.0062730773 -0.16716927 -0.018984038 -0.49707496 0.13232978 0.38496456 -0.07003387
0.00083800755 -0.0029882481 0.00076113216 -0.181804 -0.5519837 -0.5342231 0.071644664 -0.0377559
-0.13869864 -0.032214113 0.2820408 -0.49621072 -0.16727361 0.12683867 -0.17312928 0.054648507
0.26382923 -0.38420635 -0.14269677 0.2727165 0.36147013 0.093634315 0.01193581 -0.04445598
00000000: c6f8 433d 6b60 153e a950 903e 5469 153f
00000010: 0132 503d bac5 463e fb02 d53c cade 063e
00000020: 5959 95be 4cd2 e4bd ab63 993d 1893 aabe
00000030: 9665 a8bd 443a 19bf 3c19 ab3c b7ac 09bf
00000040: 8aac 4a3e e616 2d3d 20b8 273d c06b 293d
00000050: 83ea 43bf ec82 a2be 2e32 bd3b 21ff 803c
00000060: 3cce 8abc d02a 3abe f740 163f 2f14 c63e
00000070: 627c 05bf 31ab f9be 7912 c23e d49f 883d
00000080: 067b 053f 5071 7f3e 3849 553e 50b5 6e3e
00000090: 4fe1 0c3c f805 713e 76cb c9bc 9907 f5be
000000a0: 057e 7fbe 3247 15bf 16b1 343e eff7 24be
000000b0: a0d8 193d 88f6 febb 8201 373e 042d 82bf
000000c0: 17f2 913e 8262 12bf abea f13c 695e 84be
000000d0: e4f5 bd38 55c1 ab3e aed9 48be 2c08 3bbe
000000e0: fcd0 14bf bf88 fb3e 495a b43e 4f32 493d
000000f0: 5f78 d33d 4661 d23e 6ce2 853e 4ae0 8dbe
00000100: 3107 c83d bb6f b93c 66ec d53a e4ed 2d3f
00000110: 8632 243f d567 3ebb 7a50 953d 78ed 7a3c
00000120: af69 d0be ab70 573c 9b4b c63e f2f5 d4be
00000130: ed58 81be 5038 ee3e 20a0 3cbc 824a 6bbd
00000140: bb44 bd3b 264c ea3e b95b 863e 6309 41be
00000150: a19d c4be fe5c 06bc 1629 24bf 0f3d 93be
00000160: 7a5d 54bd d4ac 123f d4d3 4e3f add2 9dbd
00000170: 556e 71bc b421 733c 7b97 9cba ffd1 2dbf
00000180: 970e a0be 062a 153f 1aeb 65be 6adc 7dbe
00000190: c5b3 64be 58fb 8ebd a552 03bf b598 1e3e
000001a0: 57e2 62be 1698 d63d 33ac 12bd 22ab e83e
000001b0: 3ac2 973d 52cc 063f 57a7 c1be 712b a9be
000001c0: 2d73 18be 0791 013b bf60 52be e03b d83d
000001d0: 4fe7 acbe 4c01 6b3e f5d4 a13e caf6 d03d
000001e0: 3d34 c9bd 0246 413e a825 9dbb 28ac b1bd
000001f0: 966a ce3e 5e29 b0bc 78f4 b23c b456 9db9
00000200: d616 993e 953d 173f e2b9 19be a020 293e
00000210: 2ee3 663e 966d 8cbe 3c9a a8be 1854 1ebe
00000220: a945 bcbe 5c0d 983e 355a a33e 9037 68bd
00000230: 91b3 b33d 2b81 be3e e246 573e 338e 99bc
00000240: ce4b 26be 86f8 ba3e 9a38 47be 42e8 603e
00000250: 440c 3dbd 56d9 85bd 0398 5f3d e0c0 31bf
00000260: 57f6 18be 2b86 0b3f 911d 2cbe a671 53bc
00000270: 998c 89be 9ad8 54bd 55d0 81bd cb8c 803c
00000280: 014f b1be 1aa3 3cbe 582a acbe f812 ddbc
00000290: 1fcc 03bd c9c8 43be 747e aa3e 2bc4 1abf
000002a0: bc0b 413e 4367 0b3c e5f4 00bf 5b9b 95be
000002b0: 624a a8be a5c7 2ebe 38fc 513f a20e 15be
000002c0: 8f68 af3d 0520 a53c b48c 0f3c c3c7 e7be
000002d0: 94f0 1e3f 6b7a 65bf 0f33 613e aac8 b0bc
000002e0: 1cc7 85bd f5da 8dbc c1f7 85be 981c b53e
000002f0: b116 f83e 0914 1fbe 9ae6 823d d0e6 183c
00000300: df03 3b3b 886f 323f 706c 833e 49b4 41bf
00000310: b3d6 4fbd 140e 493d ddd2 e5be adab c1be
00000320: 3377 d13d ce41 31be 4b8d 5cbe d696 c83e
00000330: a3e2 7e3d b7d3 fd3e eb67 113e df5e 9f3e
00000340: 47a3 18bf c449 08bf 1757 f43c 6793 19bb
00000350: 74d9 9eba e5f5 90bb 3382 253f 32b6 e33e
00000360: abbf f3be 3c42 b1bd 0253 d3bc 05e6 c3bc
00000370: 9797 1e3a 8908 2e3f abd4 073f d628 863e
00000380: 7eda 993e 638e cdbb 6c2e 2bbe 6a84 9bbc
00000390: 9c80 febe 7581 073e 131a c53e eb6d 8fbd
000003a0: bcad 5b3a 7cd6 43bb b786 473a d42a 3abe
000003b0: ce4e 0dbf d8c2 08bf 70ba 923d eea5 1abd
000003c0: 0407 0ebe f2f2 03bd a767 903e 550f febe
000003d0: c649 2bbe ffe1 013e cd48 31be 1dd7 5f3d
000003e0: a014 873e b2b6 c4be 1a1f 12be 7fa1 8b3e
000003f0: 9d12 b93e 59c3 bf3d 6a8e 433c 7917 36bd

l1.bias f4 [250]
0.25036603 0.3585534 0.37476325 -0.101508595 0.33205897 0.047660217 -0.007069517 0.43022037
-0.11254149 -0.058150463 -0.53979445 -0.20694302 0.09154788 -0.23414116 0.3499828 -0.077550665
0.2732448 0.50518703 -0.42343408 0.2749929 0.09244747 -0.08040313 0.4578006 0.33602762
-0.122053586 -0.39060158 0.13613014 -0.19499633 -0.43268722 0.3576964 0.27728957 0.1184337
0.3805473 0.014114613 0.12790136 0.34432337 0.39860293 -0.17996189 0.08949287 -0.24943326
0.023815317 -0.5341442 -0.061202783 0.121335074 -0.33795586 -0.16092928 0.3284976 0.49937338
-0.46073648 0.39946654 0.41191232 0.24967831 -0.20545451 0.17074253 -0.083511084 -0.10606559
0.42683548 -0.4931481 -0.019579953 0.09826672 0.097168595 -0.20472667 0.17402487 -0.28579977
-0.23734184 0.23493758 0.4155315 -0.017141609 -0.29549497 0.26394695 0.12684582 0.35017243
-0.16715772 -0.5666017 0.46318877 -0.5762519 -0.008033118 0.26726353 -0.0849918 0.3289951
0.17654121 -0.01813245 0.40412796 -0.26373285 -0.29426327 -0.42330208 0.20158605 0.3783339
0.04287801 0.58558536 -0.023045672 0.2803646 -0.36031094 -0.193648 -0.020064535 -0.2240448
0.08428732 0.16435568 0.43334728 0.30473563 0.20702615 -0.5289067 -0.3855004 0.0007676627
0.16324489 -0.39126948 -0.55454487 0.1331619 0.13070671 0.39137554 0.27298263 0.2803312
0.3316443 -0.77729815 -0.43476018 -0.110750824 -0.2342037 0.4036175 -0.6650237 -0.24041867
0.033355992 0.091925815 0.102985874 0.42031434 -0.22418591 -0.12287408 0.33301684 0.11785655
-0.011724924 -0.07190274 -0.16471823 -0.044030964 -0.15661184 -0.0778785 0.38205358 -0.30141404
-0.0050194473 -0.17521133 0.47656006 0.086467326 -0.2584062 -0.03184232 -0.20468332 0.4943225
0.37316847 0.22654486 -0.062126644 0.058724303 -0.12990533 -0.62250966 0.19335769 -0.23762806
-0.060589097 0.2440436 0.4493995 -0.061888274 -0.4541873 0.43976733 -0.2574066 -0.25524083
0.39312378 -0.20744693 0.29679364 0.3562905 0.075198136 0.3058535 0.33517492 0.4255736
-0.2805994 -0.15820883 0.42144787 0.44279352 -0.15214469 0.14694242 0.119180754 -0.06228927
-0.39810374 0.06802153 -0.23866023 0.2969199 0.3888452 -0.18422608 0.39573008 -0.014873829
0.2223022 0.2916469 0.27962944 -0.024519287 -0.22598627 0.26958594 -0.233428 -0.18264072
-0.014215046 -0.029112916 0.088771485 -0.017127298 -0.3015979 0.032269374 0.32167888 0.3028331
-0.11320198 -0.1291722 0.5279738 -0.37888643 -0.007580972 -0.12133989 -0.2500631 0.052841384
0.43785077 -0.8201528 -0.072638676 -0.24688408 0.26324666 0.25427297 0.12493688 0.4316019
0.11502313 0.099613644 -0.29040447 -0.06225101 -0.17825429 0.32749748 0.2604883 0.36188093
0.019755196 -0.45032898 0.17583634 -0.19332924 -0.21805619 -0.06783379 -0.17822835 0.05209665
-0.1786459 0.16754122 0.47826368 0.3921274 -0.31649667 0.11898702 -0.547895 0.45143077
-0.5433731 -0.17662632 0.27431855 -0.16373667 0.19508572 0.4638397 0.43555114 0.072172806
0.4384184 0.035039432
00000000: fa2f 803e 5094 b73e f8e0 bf3e bde3 cfbd
00000010: a203 aa3e 5c37 433d 68a7 e7bb d845 dc3e
00000020: 277c e6bd 2e2f 6ebd f82f 0abf dfe8 53be
00000030: 747d bb3d b3c2 6fbe f230 b33e e2d2 9ebd
00000040: bee6 8b3e f053 013f 5acc d8be dfcb 8c3e
00000050: 1955 bd3d 65aa a4bd d764 ea3e d00b ac3e
00000060: 3bf7 f9bd eefc c7be b365 0b3e 1ead 47be
00000070: 2e89 ddbe fc23 b73e e6f8 8d3e 5e8d f23d
00000080: 19d7 c23e fa40 673c 93f8 023e 274b b03e
00000090: af15 cc3e ee47 38be 0a48 b73d 6f6b 7fbe
000000a0: 5718 c33c adbd 08bf c5af 7abd 867e f83d
000000b0: 8d08 adbe a5ca 24be d630 a83e dead ff3e
000000c0: a7e5 ebbe e186 cc3e 2ce6 d23e acab 7f3e
000000d0: ab62 52be 21d7 2e3e dc07 abbd eb38 d9bd
000000e0: 2e8a da3e e87d fcbe 2366 a0bc 1040 c93d
000000f0: 5400 c73d dea3 51be 9333 323e 5954 92be
00000100: bd09 73be 7a93 703e 8bc0 d43e 8f6c 8cbc
00000110: 1e4b 97be 0e24 873e dfe3 013e cd49 b33e
00000120: 652b 2bbe cf0c 11bf 1427 ed3e 3f85 13bf
00000130: 579d 03bc c4d6 883e 2e10 aebd 0c72 a83e
00000140: 38c7 343e 818a 94bc dce9 ce3e fe07 87be
00000150: ada9 96be 0dbb d8be 936c 4e3e fbb4 c13e
00000160: daa0 2f3d ece8 153f 47ca bcbc f38b 8f3e
00000170: ad7a b8be a94b 46be 615e a4bc 006c 65be
00000180: d59e ac3d db4c 283e b2df dd3e 4f06 9c3e
00000190: aafe 533e 6e66 07bf 4f60 c5be f93c 493a
000001a0: ab29 273e 7954 c8be a7f6 0dbf 985b 083e
000001b0: fbd7 053e 6062 c83e 61c4 8b3e 9287 8f3e
000001c0: 48cd a93e 03fd 46bf e398 debe 54d1 e2bd
000001d0: 18d3 6fbe f4a6 ce3e fe3e 2abf 5030 76be
000001e0: 4ba0 083d 9a43 bc3d 42ea d23d 7133 d73e
000001f0: fe90 65be 68a5 fbbd 2f81 aa3e c65e f13d
00000200: e519 40bc be41 93bd e5ab 28be d059 34bd
00000210: db5e 20be c37e 9fbd 879c c33e f152 9abe
00000220: 2d7a a4bb 996a 33be aeff f33e c815 b13d
00000230: d14d 84be 186d 02bd 8198 51be d717 fd3e
00000240: f00f bf3e 60fb 673e 8278 7ebd e588 703d
00000250: e705 05be cb5c 1fbf 8fff 453e c554 73be
00000260: 462c 78bd 91e6 793e b117 e63e 8f7e 7dbd
00000270: 3d8b e8be 2f29 e13e ccca 83be edae 82be
00000280: 8547 c93e f86c 54be 56f5 973e b56b b63e
00000290: 7b01 9a3d d498 9c3e 0c9c ab3e c8e4 d93e
000002a0: b9aa 8fbe 7f01 22be 04c8 d73e d5b5 e23e
000002b0: d1cb 1bbe 1378 163e 0a15 f43d 0923 7fbd
000002c0: 41d4 cbbe df4e 8b3d 5963 74be e305 983e
000002d0: b816 c73e c3a5 3cbe 229d ca3e 5cb1 73bc
000002e0: 30a3 633e be52 953e 972b 8f3e acdc c8bc
000002f0: f268 67be 2b07 8a3e c007 6fbe 2b06 3bbe
00000300: 39e6 68bc 367e eebc d3cd b53d 8c4e 8cbc
00000310: 0a6b 9abe e42c 043d 18b3 a43e f10c 9b3e
00000320: 71d6 e7bd b845 04be 4a29 073f 67fd c1be
00000330: cd69 f8bb 0c81 f8bd 4508 80be 3570 583d
00000340: fa2d e03e 89f5 51bf 96c3 94bd 2ecf 7cbe
00000350: 44c8 863e 1130 823e e8de ff3d edfa dc3e
00000360: 3f91 eb3d 3d02 cc3d e5af 94be eafa 7ebd
00000370: 4b88 36be c0ad a73e b95e 853e 7548 b93e
00000380: a6d5 a13c 8591 e6be 710e 343e 1af8 45be
00000390: 1f4a 5fbe 71ec 8abd 7e81 36be 4c63 553d
000003a0: f3ee 36be ed8f 2b3e fade f43e ecc4 c83e
000003b0: da0b a2be 77af f33d d942 0cbf ef21 e73e
000003c0: 801a 0bbf 88dd 34be 7b73 8c3e 96aa 27be
000003d0: 8dc4 473e 667c ed3e 8f00 df3e 56cf 933d
000003e0: 6078 e03e 8285 0f3d

l2.weight f4 [130, 250]
0.0013676808 0.01583758 -0.020366214 0.02971974 -0.09530923 0.112884544 0.11323519 -0.010630385
-0.005089295 0.035556387 0.16604513 -0.101501636 0.15354325 -0.051286507 -0.073062256 -0.40430838
0.07949606 -0.051073015 0.24360259 0.034619592 -0.005025238 0.093044624 -0.08388738 0.0076440135
0.13947786 -0.049961098 0.086573265 -0.040465202 0.12057212 -0.14155819 -0.14554746 0.026011722
-0.0124899475 -0.12547083 -0.042245887 0.08864337 -0.03440122 -0.078926064 -0.019405466 -0.022450322
-0.012454395 -0.20806588 0.031396404 0.1145645 0.0054398137 0.22499266 0.03525552 0.09152592
0.023313511 -0.017047586 0.038278587 0.10731682 -0.021780929 0.14531313 -0.0024832203 0.102886334
-0.05477581 0.17728104 0.1048457 -0.018362328 0.028492495 0.25353676 -0.11542668 0.2647815
-0.09880753 -0.085097186 0.050699912 -0.17171419 0.07145058 -0.06455214 -0.07576438 0.1281148
0.0028361848 0.13691297 0.03426326 0.13918753 -0.07965867 -0.110025585 0.016336381 -0.08947488
0.11786314 -0.020757183 0.031097582 0.0027990828 -0.035418496 0.1299147 0.05088126 0.0791658
0.11620761 0.033549927 -0.010418289 0.12668277 -0.07748721 -0.04552827 0.01113171 -0.21236669
-0.106833495 -0.0891463 -0.1390369 0.0467195 0.050838172 -0.19867946 -0.24133867 0.2674404
-0.0300847 0.48420385 -0.08458565 0.05996118 -0.0010179593 0.02631889 0.1290708 -0.055272866
-0.09073868 -0.012519207 0.054396965 -0.0028627098 -0.18252096 0.05050152 -0.10249475 0.12005653
0.075587414 0.12606917 0.024580033 0.0330024 -0.2990088 0.04761955 0.027100442 0.02575292
0.12139147 -0.029715601 0.16476792 0.01308084 0.15530577 0.14157405 -0.1123447 -0.044812422
-0.10607375 -0.101311944 -0.111721136 0.10147767 0.07202927 -0.15237248 -0.16264744 0.032902487
0.03369732 0.050749376 -0.033706777 -0.1469625 0.06739346 0.47741288 0.039375033 -0.05464175
0.066897884 -0.010938196 -0.012609639 0.01872127 -0.0050804177 -0.07829884 0.004514581 0.31516966
0.0018996373 0.021011995 0.16709535 -0.11747197 -0.021893473 -0.12562688 -0.07437997 0.04853788
-0.21521965 -0.06599375 0.06119359 -0.06683368 -0.11772159 -0.031434458 -0.14724405 -0.02528565
-0.33259672 -0.026753185 -0.2597567 -0.10206064 -0.0014062946 -0.14518405 0.007886418 -0.2024629
-0.081557505 -0.03807879 0.08597442 0.027684063 0.18911827 -0.047780346 0.04209928 -0.05538824
0.10212484 0.16290039 0.11403877 0.020640327 0.11377111 0.012266796 0.12854013 -0.0011796777
0.06268538 0.18189532 0.039895713 -0.057574842 0.12653887 -0.030593395 -0.22540976 0.06429537
-0.028866777 0.15116635 0.13206877 0.15206975 -0.023328174 0.03553228 0.13507952 0.04203124
-0.06938828 0.01576565 -0.09194371 -0.0121736955 -0.09849317 -0.120930366 0.027191138 0.08260741
0.10957252 0.0146360975 0.10004085 0.039505474 0.19413184 -0.069090486 -0.08318315 0.13659684
-0.07087943 -0.07216165 -0.12630041 0.07420788 0.23739098 0.013863066 0.20433536 0.005946616
0.16642421 -0.16258295 0.09174254 0.029990923 0.052295476 -0.08578852 0.023093935 -0.14965764
-0.07743739 0.045028895 0.00070463796 0.018284211 0.027544376 -0.07647664 -0.07017192 -0.055374254
00000000: c143 b33a d0bd 813c 0cd7 a6bc d076 f33c
00000010: 7c31 c3bd 0330 e73d dae7 e73d 112b 2ebc
00000020: 1ac4 a6bb 93a3 113d bc07 2a3e 17e0 cfbd
00000030: 713a 1d3e cd11 52bd aaa1 95bd 8201 cfbe
00000040: d5ce a23d f031 51bd f572 793e 46cd 0d3d
00000050: c0aa a4bb 2e8e be3d 26cd abbd a27a fa3b
00000060: 49d3 0e3e 02a4 4cbd 534d b13d d7be 25bd
00000070: 84ee f63d a1f4 10be 650a 15be 8916 d53c
00000080: a3a2 4cbc 6d7b 00be 060a 2dbd a88a b53d
00000090: 4be8 0cbd fda3 a1bd 36f8 9ebc bde9 b7bc
000000a0: 850d 4cbc 390f 55be 8499 003d cba0 ea3d
000000b0: 7740 b23b 7a64 663e 1868 103d f171 bb3d
000000c0: fafb be3c 61a7 8bbc 02ca 1c3d ecc8 db3d
000000d0: eb6d b2bc f7cc 143e 86bd 22bb 12b6 d23d
000000e0: 9a5c 60bd 2989 353e 58b9 d63d 986c 96bc
000000f0: 1869 e93c 92cf 813e d364 ecbd 7191 873e
00000100: 9a5b cabd 6f47 aebd b6aa 4f3d d8d5 2fbe
00000110: af54 923d ea33 84bd 5b2a 9bbd 8730 033e
00000120: 49df 393b ea32 0c3e a257 0c3d 2d87 0e3e
00000130: 1624 a3bd 1855 e1bd e0d3 853c 9b3e b7bd
00000140: 3b62 f13d f80a aabc 5bc0 fe3c d170 373b
00000150: fc12 11bd 5c08 053e de68 503d ae21 a23d
00000160: 41fe ed3d a66b 093d 79b1 2abc 21b9 013e
00000170: 9db1 9ebd da7b 3abd c761 363c a776 59be
00000180: 85cb dabd 5692 b6bd b05f 0ebe f25c 3f3d
00000190: b03b 503d a172 4bbe 7c21 77be f3ed 883e
000001a0: 3074 f6bc 91e9 f73e 3e3b adbd db99 753d
000001b0: 0c6d 85ba b69a d73c 232b 043e cd65 62bd
000001c0: 33d5 b9bd 5c1d 4dbc 5acf 5e3d 4d9c 3bbb
000001d0: c6e6 3abe afda 4e3d c4e8 d1bd 33e0 f53d
000001e0: 93cd 9a3d 4718 013e 115c c93c 862d 073d
000001f0: ae17 99be b80c 433d bf01 de3c caf7 d23c
00000200: 179c f83d 226e f3bc ecb8 283e 0551 563c
00000210: 7a08 1f3e caf8 103e fa14 e6bd 3b8d 37bd
00000220: 323d d9bd a37c cfbd 0dce e4bd 86d3 cf3d
00000230: 1584 933d 8807 1cbe 0d8d 26be c2c4 063d
00000240: 3306 0a3d 94de 4f3d 1e10 0abd 567d 16be
00000250: 9505 8a3d 766f f43e b747 213d 07d0 5fbd
00000260: c201 893d 1f36 33bc a998 4ebc 595d 993c
00000270: a279 a6bb 245b a0bd 0def 933b eb5d a13e
00000280: 40fd f83a 5921 ac3c 0b1b 2b3e 2595 f0bd
00000290: f159 b3bc 55a4 00be 8754 98bd a8cf 463d
000002a0: 8a62 5cbe bb27 87bd 21a6 7a3d 19e0 88bd
000002b0: 0418 f1bd 6bc1 00bd 25c7 16be da23 cfbc
000002c0: 1e4a aabe 7f29 dbbc d5fe 84be 2b05 d1bd
000002d0: 6b53 b8ba 21ab 14be 0936 013c 6f52 4fbe
000002e0: 9f07 a7bd 81f8 1bbd 5b13 b03d b0c9 e23c
000002f0: 38a8 413e 53b5 43bd 4b70 2c3d c7de 62bd
00000300: d426 d13d 5ccf 263e 298d e93d e715 a93c
00000310: d400 e93d acfa 483c 06a0 033e 6a9f 9aba
00000320: 3161 803d c442 3a3e b069 233d 99d3 6bbd
00000330: 6893 013e 009f fabc d1d1 66be 4aad 833d
00000340: 057a ecbc 5acb 1a3e 093d 073e 2cb8 1b3e
00000350: ba1a bfbc 4c8a 113d 4952 0a3e f328 2c3d
00000360: 711b 8ebd f726 813c fc4c bcbd 2e74 47bc
00000370: cab6 c9bd 57aa f7bd f3bf de3c 132e a93d
00000380: 8f67 e03d 3ecc 6f3c 38e2 cc3d 7ed0 213d
00000390: 7fca 463e 507f 8dbd ed5b aabd 0be0 0b3e
000003a0: 3c29 91bd 7dc9 93bd e554 01be 4dfa 973d
000003b0: 9f16 733e ea21 633c 4a3d 513e d5db c23b
000003c0: 1c6b 2a3e 257c 26be 83e3 bb3d 86af f53c
000003d0: c833 563d e4b1 afbd 7e2f bd3c da3f 19be
000003e0: 7f97 9ebd 3870 383d 74b7 383a c5c8 953c
000003f0: bea4 e13c c99f 9cbd 4cb6 8fbd 1dd0 62bd

l2.bias f4 [130]
0.03606846 0.09923717 0.05330987 -0.023792787 -0.011691176 0.001656658 0.022395814 0.056356575
-0.0031350667 -0.05864844 0.015762892 -0.011632464 -0.005390144 0.012956744 -0.040897347 0.029834
0.025149282 0.049177688 -0.06928878 -0.024561407 0.038221713 -0.008151191 -0.12141172 0.037802104
-0.048192166 0.04726339 -0.021772 0.023178231 -0.0415201 -0.031328104 -0.03815454 -0.013241197
0.0010275068 -0.0523857 0.050771926 -0.0227786 -0.014147117 0.03517639 -0.013346742 -0.00028352172
-0.01456842 -0.05322858 -0.03739758 0.12588091 0.056181796 0.064902686 0.043525115 0.03950248
0.044289373 0.014674889 0.01830464 -0.026428545 -0.03314731 0.05643817 0.057795916 -0.09858085
-0.05951888 0.01780493 -0.028028801 -0.002493948 0.046182454 0.004423468 0.038755033 0.07094504
-0.062804215 -0.05697948 -0.05433864 0.13452694 0.007283968 -0.057170734 -0.01012319 -0.02000086
0.065830074 0.021059178 0.043448985 -0.015937744 0.04791522 -0.017346509 -0.01361054 0.053501293
-0.02772844 0.059972554 0.043367226 -0.076050326 0.097228006 -0.06987096 0.051848475 0.069826245
0.07484025 0.021914026 -0.059114832 0.09159727 -0.1596584 -0.013311233 -0.05561274 0.0762066
-0.0069592656 -0.07014392 -0.037930284 0.021846795 -0.016956959 -0.13468081 0.033903554 0.012991746
0.004143611 -0.032728925 -0.043412812 0.04316724 -0.0003572327 0.0801485 0.075422965 -0.0025104235
0.12325152 0.025714803 -0.056566328 0.0762262 -0.03727458 0.0639956 0.06089759 0.041874584
-0.0975719 0.06028064 -0.08044666 0.04506254 0.06464058 0.010838269 -0.06701455 0.043857586
0.055174835 0.03338907
00000000: 86bc 133d db3c cb3d 735b 5a3d 17e9 c2bc
00000010: 598c 3fbc 3824 d93a 6d77 b73c 27d6 663d
00000020: b175 4dbb 5939 70bd 2e21 813c 1796 3ebc
00000030: ce9f b0bb 8648 543c fa83 27bd 6f66 f43c
00000040: de05 ce3c 8b6e 493d 47e7 8dbd 0135 c9bc
00000050: 5f8e 1c3d 938c 05bc b5a6 f8bd 61d6 1a3d
00000060: 2665 45bd 4297 413d 315b b2bc 46e0 bd3c
00000070: fb10 2abd e651 00bd ef47 1cbd 9bf1 58bc
00000080: 68ad 863a 6392 56bd 39f6 4f3d 309a babc
00000090: 4fc9 67bc 1e15 103d 4bac 5abc a4a5 94b9
000000a0: 62b0 6ebc 3606 5abd 342e 19bd ede6 003e
000000b0: e21e 663d b3eb 843d 6447 323d 5acd 213d
000000c0: c668 353d f26e 703c 9df3 953c ad80 d8bc
000000d0: 79c5 07bd b62b 673d 69bb 6c3d c2e4 c9bd
000000e0: 12ca 73bd a5db 913c a89c e5bc 8171 23bb
000000f0: d029 3d3d bdf2 903b 99bd 1e3d a24b 913d
00000100: 7f9f 80bd 5163 69bd 3292 5ebd 6ec1 093e
00000110: 5aae ee3b dc2b 6abd bcdb 25bc d8d8 a3bc
00000120: ebd1 863d 4c84 ac3c 90f7 313d df8f 82bc
00000130: c042 443d 441a 8ebc befe 5ebc 2c24 5b3d
00000140: c126 e3bc c8a5 753d d5a1 313d 46c0 9bbd
00000150: 7a1f c73d 8218 8fbd 115f 543d 1001 8f3d
00000160: d845 993d 0b85 b33c 6522 72bd 5997 bb3d
00000170: 7e7d 23be 5c17 5abc 2fca 63bd 3512 9c3d
00000180: 8d0a e4bb 9ea7 8fbd c95c 1bbd 0df8 b23c
00000190: 52e9 8abc c4e9 09be 74de 0a3d 55db 543c
000001a0: 21c7 873b c40e 06bd a2d1 31bd 22d0 303d
000001b0: f64a bbb9 e624 a43d 5b77 9a3d eb85 24bb
000001c0: 4b6b fc3d daa7 d23c 18b2 67bd 7b1c 9c3d
000001d0: 3bad 18bd 2010 833d c06f 793d af84 2b3d
000001e0: c7d3 c7bd d5e8 763d 38c1 a4bd 7f93 383d
000001f0: 4862 843d ff92 313c ed3e 89bd 03a4 333d
00000200: 02ff 613d fac2 083d

l3.weight f4 [50, 130]
-0.067777485 -0.0030273173 -0.046946716 -0.012609638 0.07566716 0.09018392 -0.06672122 -0.15387608
0.038674414 0.075892456 -0.16027108 -0.03567964 0.030446913 0.19971117 0.05941867 0.029030327
0.04886145 -0.0037848854 0.054919407 0.049594827 -0.06367821 0.043236338 0.14106995 0.024806583
0.051362645 -0.1489549 -0.057393644 0.0681617 -0.02760509 0.11443797 0.017109623 0.0918241
-0.056312907 -0.19033878 0.018201003 -0.17688426 0.23215143 0.09884153 -0.14265543 0.007997719
0.005582661 0.045296088 0.12891828 0.12044785 -0.08257928 -0.08401171 0.023913106 0.007859453
-0.05387673 0.05292434 -0.08667508 0.0721819 -0.015727157 0.044781324 0.09356244 0.24994323
-0.0272318 -0.034430616 -0.06618465 0.05179324 -0.18835005 0.032736726 0.030096738 0.008292567
-0.179431 0.0072870213 0.09559235 -0.0045190863 0.011925349 0.074971594 0.16034804 0.070992306
0.03844076 -0.076561205 0.0004735615 0.015468297 0.063063174 0.11014661 0.13757226 0.05692715
-0.00043633117 0.055328727 0.116274625 0.37979114 -0.021114208 0.014239943 0.10210682 -0.1433442
0.1349467 -0.0127245635 -0.015918724 0.054947864 0.14554465 -0.0004401701 -0.04436055 -0.059301093
0.10070443 -0.01891494 0.06553722 0.083187364 -0.033075873 0.20837185 0.24777061 0.019886345
-0.11461291 0.09771119 0.022300985 0.022760663 -0.023238264 -0.04243389 -0.022905909 0.04161912
0.031564157 0.036254566 0.08273886 0.06568398 0.099669024 -0.0072749024 -0.053239185 0.1135431
0.1170813 0.022061208 -0.08937111 -0.29313314 -0.074112006 0.10315199 0.17788877 0.09750155
-0.06245131 -0.0293711 -0.07403803 -0.06396431 -0.07084331 -0.08694146 0.0035228387 -0.07436325
0.03973155 -0.007530149 -0.05580254 -0.0071011083 0.02302733 0.016908789 -0.04013219 0.041939534
0.04281048 0.048118457 -0.06358683 -0.05646813 -0.046265844 0.028458552 -0.04693399 -0.04463207
-0.0625228 -0.089358695 -0.012749007 -0.04066578 0.06940675 0.04344994 -0.06330717 -0.061406944
0.07302272 -0.029888975 -0.040457282 0.06433369 -0.048541073 0.02307964 0.027315347 -0.063795485
0.079761304 -0.053587474 0.0742322 0.017663596 -0.02931976 -0.08108402 0.044785194 -0.030234655
0.023208212 0.04764437 0.020210752 0.076608114 0.064724885 -0.008614644 0.003349312 -0.05345513
-0.033648904 0.008006015 -0.014578965 0.072876796 -0.0484131 0.028528 -0.07034463 0.011247333
0.015610806 0.0065787565 -0.02077765 -0.008126201 -0.0726778 -0.0304448 -0.06316285 -0.011823585
-0.054284044 -0.040674794 -0.017869184 -0.03332445 0.08351497 0.08537828 0.06277866 -0.04199246
0.007664066 0.07471388 0.08260304 -0.05493139 0.024519904 0.024823317 0.07781416 -0.02420337
-0.08074368 -0.06501094 0.036329433 0.046373837 0.021970397 -0.024622878 0.019454697 -0.003478323
-0.06376753 -0.06769239 -0.036531843 0.079324536 -0.055024713 -0.011116212 0.052974608 0.06354327
0.026435321 0.042086266 0.030982714 -0.05089452 -0.013343987 0.039020106 -0.050320648 0.04196671
-0.028836725 0.039938077 -0.026058964 -0.049580023 -0.02398472 -0.062113345 0.008898324 -0.08641463
-0.0022528784 -0.08789496 -0.027234871 0.07289704 -0.08352378 0.01536454 -0.002442544 0.0052910056
00000000: ecce 8abd f565 46bb 334b 40bd a898 4ebc
00000010: 62f7 9a3d 59b2 b83d 23a5 88bd b191 1dbe
00000020: 1069 1e3d 816d 9b3d 1a1e 24be d024 12bd
00000030: ce6b f93c 1681 4c3e fe60 733d 02d1 ed3c
00000040: f222 483d d70b 78bb 2cf3 603d f223 4b3d
00000050: b969 82bd 9618 313d a474 103e 2d37 cb3c
00000060: a361 523d a287 18be 9915 6bbd 5d98 8b3d
00000070: 1224 e2bc 745e ea3d 7b29 8c3c 460e bc3d
00000080: 5da8 66bd 2be8 42be 451a 953c 2621 35be
00000090: 1bb9 6d3e 6e6d ca3d 4414 12be dd08 033c
000000a0: c1ee b63b 6488 393d 2703 043e 5dad f63d
000000b0: 531f a9bd 550e acbd 6be5 c33c efc4 003c
000000c0: d9ad 5cbd 31c7 583d b482 b1bd 1bd4 933d
000000d0: 3dd6 80bc 9f6c 373d aa9d bf3d 1ef1 7f3e
000000e0: 3915 dfbc 1e07 0dbd d18b 87bd 2625 543d
000000f0: d6de 40be f216 063d 6f8d f63c 8cdd 073c
00000100: c3bc 37be f7c7 ee3b ecc5 c33d d814 94bb
00000110: 8a62 433c b58a 993d 4732 243e 6a64 913d
00000120: 0f74 1d3d 1fcc 9cbd 5948 f839 bd6e 7d3c
00000130: 4427 813d 8c94 e13d bedf 0c3e 712c 693d
00000140: 61c3 e4b9 60a0 623d 6421 ee3d fc73 c23e
00000150: b4f7 acbc a64e 693c 611d d13d d2c8 12be
00000160: 782f 0a3e b07a 50bc fc67 82bc 0311 613d
00000170: a809 153e a1c6 e6b9 68b3 35bd b4e5 72bd
00000180: 203e ce3d 81f3 9abc 6138 863d 235e aa3d
00000190: 917a 07bd 6e5f 553e 94b7 7d3e b0e8 a23c
000001a0: 2cba eabd ce1c c83d 8eb0 b63c 9274 ba3c
000001b0: 2c5e bebc 29cf 2dbd 2ca5 bbbc cf78 2a3d
000001c0: 6b49 013d ab7f 143d fe72 a93d 5385 863d
000001d0: 461f cc3d 4e62 eebb 5511 5abd 4989 e83d
000001e0: 52c8 ef3d b5b9 b43c 3308 b7bd 8c15 96be
000001f0: 09c8 97bd 5a41 d33d 7928 363e e5ae c73d
00000200: f2cc 7fbd a99b f0bc 40a1 97bd b8ff 82bd
00000210: 4c16 91bd 5d0e b2bd 6ddf 663b c24b 98bd
00000220: 8dbd 223d 78bf f6bb 3491 64bd 6ab0 e8bb
00000230: d0a3 bc3c 4d84 8a3c a761 24bd cac8 2b3d
00000240: 0b5a 2f3d dc17 453d d039 82bd 204b 67bd
00000250: 4181 3dbd e921 e93c db3d 40bd 1ed0 36bd
00000260: f40b 80bd b101 b7bd 36e1 50bc 2991 26bd
00000270: 2025 8e3d 90f8 313d 31a7 81bd d985 7bbd
00000280: f08c 953d b9d9 f4bc 89b6 25bd 62c1 833d
00000290: 01d3 46bd 8311 bd3c 6fc4 df3c 35a7 82bd
000002a0: e559 a33d 8a7e 5bbd 0d07 983d 3fb3 903c
000002b0: fe2f f0bc 610f a6bd ae70 373d abae f7bc
000002c0: 261f be3c be26 433d 0591 a53c b7e4 9c3d
000002d0: 7b8e 843d 7024 0dbc 2280 5b3b c4f3 5abd
000002e0: 6fd3 09bd a92b 033c 9cdc 6ebc 6e40 953d
000002f0: d14c 46bd 8db3 e93c d810 90bd bc46 383c
00000300: 77c4 7f3c 9c92 d73b e435 aabc c223 05bc
00000310: 19d8 94bd 6067 f9bc 865b 81bd b6b7 41bc
00000320: f258 5ebd 9d9a 26bd 6562 92bc 387f 08bd
00000330: e609 ab3d cfda ae3d 1992 803d 4900 2cbd
00000340: d822 fb3b 9703 993d c82b a93d bdff 60bd
00000350: f7dd c83c 455a cb3c 085d 9f3d 2546 c6bc
00000360: f15c a5bd 7524 85bd 2cce 143d 7ef2 3d3d
00000370: 43fb b33c ebb5 c9bc 755f 9f3c 94f4 63bb
00000380: 8d98 82bd 4fa2 8abd 6aa2 15bd e774 a23d
00000390: 9861 61bd c620 36bc e7fb 583d f922 823d
000003a0: e38e d83c a662 2c3d 76cf fd3c c676 50bd
000003b0: bda0 5abc 8cd3 1f3d 061d 4ebd 49e5 2b3d
000003c0: ff3a ecbc 1c96 233d 9c79 d5bc 6c14 4bbd
000003d0: 9b7b c4bc 906a 7ebd 47ca 113c 27fa b0bd
000003e0: 07a5 13bb 4602 b4bd aa1b dfbc 0b4b 953d
000003f0: 840e abbd 8dbb 7b3c 1713 20bb 2c60 ad3b

l3.bias f4 [50]
-0.028454706 0.023788802 0.049313378 -0.09452323 -0.024185486 0.008216597 0.04933723 -0.029598648
-0.063634254 0.10441915 0.055484887 -0.010653324 0.077250995 -0.0018128197 0.07969613 0.04040626
-0.04230445 0.11998652 0.07892215 -0.015068726 -0.006630826 0.01827236 0.0004311821 -0.002483167
-0.034083057 -0.01816954 0.058586657 -0.07387865 -0.02599805 0.010913907 0.08176818 0.04100791
0.067716144 -0.046796422 0.0858597 0.0009447295 -0.030229606 0.039752115 -0.036423706 0.023356209
-0.036482807 -0.08546146 0.03508335 -0.069197744 0.0885133 0.07349662 0.03735866 -0.05396048
0.023303354 0.076628
00000000: d819 e9bc bce0 c23c d3fc 493d 6595 c1bd
00000010: a420 c6bc e89e 063c d615 4a3d dd78 f2bc
00000020: ad52 82bd b5d9 d53d 1f44 633d 488b 2ebc
00000030: c535 9e3d 239c edba b937 a33d 0981 253d
00000040: 6e47 2dbd 7ebb f53d f0a1 a13d d1e2 76bc
00000050: 6647 d9bb ebaf 953c 4810 e239 a1bc 22bb
00000060: ad9a 0bbd 4ad8 94bc 90f8 6f3d b14d 97bd
00000070: ddf9 d4bc 3ed0 323c 1376 a73d e9f7 273d
00000080: c3ae 8a3d 9bad 3fbd 36d7 af3d b9a7 773a
00000090: 14a4 f7bc 1dd3 223d 0631 15bd 8555 bf3c
000000a0: ff6e 15bd 6b06 afbd 8fb3 0f3d 8cb7 8dbd
000000b0: 7646 b53d 6585 963d 6505 193d aa05 5dbd
000000c0: ade6 be3c 24ef 9c3d

l4.weight f4 [5, 50]
0.16360612 0.00010760471 0.003435848 0.050783258 -0.07172582 0.004988852 0.15480551 0.25876188
-0.011331668 0.0042199716 -0.02158478 0.02191118 0.018028654 0.01621953 0.053883057 0.18268587
0.13059875 -0.019454444 -0.03236955 0.17903663 -0.058811832 0.056828793 -0.12644613 -0.034683093
0.0132996105 0.1463264 0.02927406 0.0045206817 0.09598248 -0.069293946 -0.00808944 -0.07487143
0.004401267 -0.06449401 0.012284159 0.11327303 0.1435066 0.13983548 0.04635511 -1.2106625
0.07624373 -0.13372645 -0.04272177 -0.666293 0.022797234 -0.04402713 0.06331391 0.005498114
-0.08243294 0.020914916 -0.08672178 0.060907055 -0.0028939843 -0.023723477 0.17129822 -0.011327169
-0.12527877 -0.093371354 0.038428247 -0.06635293 0.015626196 -0.08340272 -0.011534837 -0.11703894
-0.0452942 0.137987 0.074566744 0.0027146533 -0.004225692 -0.022859449 0.11542035 0.08802897
0.008487823 0.008162744 -0.0158413 0.056761328 -0.0340483 0.023831125 0.11159824 -0.11827134
-1.2962437 0.10425124 -0.021947697 -0.0317709 0.082879625 0.054092925 0.13102363 -0.11692296
0.22656246 -0.031100933 -0.25829396 0.1265145 0.16667388 0.048172515 -0.016754713 -0.025256896
-0.29141882 -0.018366981 -1.0066648 -0.019995017 0.14466937 -0.039940055 -0.060012773 0.12513472
-0.1798129 0.06828405 -0.032535587 2.316716e-05 0.12981239 -0.08013096 -0.12612328 -0.17934573
-0.045581385 0.090936236 0.0700191 0.19064716 0.070117645 0.1463211 -0.08223672 -0.2695631
0.089260064 0.057120956 0.18855125 0.085908644 -0.076937616 0.07141187 -0.86297244 0.4281409
-0.05982393 -0.41385776 -0.011025657 0.12994163 1.1734316 0.17138375 -0.89647365 0.14806487
-0.068309344 -0.0025588644 -0.17824323 0.054375213 -0.10568257 0.07703012 0.062177945 -0.15267968
-0.04558904 -0.2551235 0.16648553 -0.023426455 0.08984879 -0.015708754 -0.046082985 -0.09739513
-1.3454539 -0.27344528 -0.036351576 0.0639785 0.035821684 -0.07146534 0.19580954 0.23226887
-0.74139863 -0.11337479 -0.051042557 -0.1024887 0.08828182 -0.057626873 0.16169593 -0.90824366
0.14954223 0.10566366 -0.039605547 -0.029563535 0.068250954 0.2502863 -0.5026111 -0.030507239
-0.32526127 0.02870061 0.11322172 0.10210287 0.006016193 -0.11293628 -0.7944616 0.14409965
0.17760602 -0.047261793 0.075817995 -0.1916755 -0.13945383 0.28904787 -0.13839905 0.0570335
0.11336363 0.09716753 0.14109038 -0.05621098 0.11296477 0.09948908 0.06460524 0.3737402
-0.014800173 -0.08948401 -0.21615002 0.23143546 -0.08439849 0.16830486 0.026650663 0.17020789
-0.096016414 0.060534265 0.26723272 -0.077638045 -1.1712409 -0.13236989 -0.029016962 0.088032104
-0.07131363 -0.10317038 -0.13514268 0.05861559 0.15349181 -0.00385731 0.032475546 -0.36388034
-0.06513523 -0.09817022 0.01523115 -0.09894123 0.14898893 -0.012360768 0.00044560223 0.086545646
-0.032453448 -0.040693548 0.011116828 0.014423605 -0.15141575 -0.08707727 -0.042416453 -0.03357732
-0.18634097 0.1691576 -0.0030217706 0.11510672 0.17688186 -0.0016458002 0.057167638 0.20382768
0.008093683 -0.015376341
00000000: 5d88 273e d7a9 e138 f72b 613b 1b02 503d
00000010: fde4 92bd 8679 a33b 5685 1e3e 707c 843e
00000020: 76a8 39bc b047 8a3b 91d2 b0bc 137f b33c
00000030: d4b0 933c d2de 843c 7bb4 5c3d 0112 3b3e
00000040: aebb 053e ed5e 9fbc ef95 04bd 6155 373e
00000050: ade4 70bd 4fc5 683d 187b 01be dc0f 0ebd
00000060: 9ce6 593c 96d6 153e 27d0 ef3c 3a22 943b
00000070: 7692 c43d fce9 8dbd 9289 04bc 3156 99bd
00000080: 8138 903b 6f15 84bd 7f43 493c b1fb e73d
00000090: 65f3 123e 0831 0f3e dbde 3d3d fdf6 9abf
000000a0: ac25 9c3d 96ef 08be 06fd 2ebd 2e92 2abf
000000b0: 44c1 ba3c cb55 34bd b9aa 813d 8629 b43b
000000c0: 9ad2 a8bd c255 ab3c 309b b1bd ad79 793d
000000d0: 00a9 3dbb bd57 c2bc cd68 2f3e 9795 39bc
000000e0: 1449 00be 7b39 bfbd f066 1d3d 0ce4 87bd
000000f0: 8202 803c 0ccf aabd 9dfc 3cbc 1db2 efbd
00000100: 6986 39bd 774c 0d3e 73b6 983d 53e8 313b
00000110: ac77 8abb bd43 bbbc 8161 ec3d 8848 b43d
00000120: 8310 0b3c 08bd 053c 9dc5 81bc 917e 683d
00000130: 3b76 0bbd 7e39 c33c 9e8d e43d 3f38 f2bd
00000140: 50eb a5bf ad81 d53d a8cb b3bc 3422 02bd
00000150: cbbc a93d 8b90 5d3d 0f2b 063e 4e75 efbd
00000160: fdff 673e 62c7 febc 1b3f 84be 048d 013e
00000170: 8fac 2a3e 8b50 453d 2e41 89bc 8de7 cebc
00000180: d934 95be 5a76 96bc 64da 80bf 97cc a3bc
00000190: 3524 143e 2f98 23bd f4cf 75bd 5123 003e
000001a0: df20 38be 82d8 8b3d 0944 05bd 1957 c237
000001b0: 8aed 043e b31b a4bd 7626 01be 68a6 37be
000001c0: 8cb3 3abd c73c ba3d 2d66 8f3d 0239 433e
000001d0: d799 8f3d 33d5 153e ba6b a8bd 2d04 8abe
000001e0: fbcd b63d aaf7 693d 9413 413e dff0 af3d
000001f0: 7891 9dbd 6340 923d c3eb 5cbf 4935 db3e
00000200: f009 75bd 2ae5 d3be f5a4 34bc 6b0f 053e
00000210: 0233 963f 397f 2f3e 4c7f 65bf 519e 173e
00000220: c5e5 8bbd 9fb2 27bb 6585 36be 8bb8 5e3d
00000230: 1a70 d8bd f8c1 9d3d 4dae 7e3d 1058 1cbe
00000240: 93bb 3abd 8c9f 82be 2f7b 2a3e d6e8 bfbc
00000250: a402 b83d a5af 80bc 83c1 3cbd 1977 c7bd
00000260: d537 acbf 0501 8cbe 64e5 14bd 2907 833d
00000270: c2b9 123d 6c5c 92bd 4c82 483e e4d7 6d3e
00000280: 4dcc 3dbf 0b31 e8bd 0012 51bd 98e5 d1bd
00000290: 19cd b43d 280a 6cbd 9e93 253e a882 68bf
000002a0: 9921 193e 3066 d83d 6d39 22bd 3a2f f2bc
000002b0: 28c7 8b3d 8725 803e 1fab 00bf 51ea f9bc
000002c0: a588 a6be 8b1d eb3c cae0 e73d 4f1b d13d
000002d0: 7c23 c53b 234b e7bd d661 4bbf dc8e 133e
000002e0: 5ade 353e 9595 41bd 7746 9b3d 9546 44be
000002f0: fccc 0ebe 15fe 933e 7bb8 0dbe f69b 693d
00000300: 312b e83d c5ff c63d ff79 103e 7c3d 66bd
00000310: 135a e73d eec0 cb3d c14f 843d e05a bf3e
00000320: 6d7c 72bc 6543 b7bd 6e56 5dbe 6bfd 6c3e
00000330: 1ed9 acbd 1c58 2c3e 7e52 da3c fa4a 2e3e
00000340: 41a4 c4bd c7f2 773d bad2 883e b200 9fbd
00000350: 39eb 95bf f98b 07be fbb4 edbc 2d4a b43d
00000360: e10c 92bd fe4a d3bd d862 0abe e716 703d
00000370: f52c 1d3e ecca 7cbb 1405 053d 864e babe
00000380: 9f65 85bd 780d c9bd 138c 793c b3a1 cabd
00000390: 8e90 183e d284 4abc b89f e939 d83e b13d
000003a0: e8ed 04bd 47ae 26bd 5b23 363c fc50 6c3c
000003b0: bb0c 1bbe 9155 b2bd e0bc 2dbd 5f88 09bd
000003c0: 2bd0 3ebe a637 2d3e e608 46bb 12bd eb3d
000003d0: 8520 353e e4b7 d7ba 9d28 6a3d 34b8 503e
000003e0: 5e9b 043c 0ced 7bbc

l4.bias f4 [5]
-0.07996698 0.043402035 -0.039045185 -0.07778848 -0.07311369
00000000: bac5 a3bd 55c6 313d d8ed 1fbd 914f 9fbd
00000010: a1bc 95bd

exp_avg f4 [250, 7]
-3.1913462e-08 -2.1957995e-08 -7.249184e-08 2.310501e-07 -2.0952347e-08 7.1271806e-09 -2.8272181e-08 -8.035216e-08
2.7972669e-09 8.2740456e-08 1.5659879e-07 5.672854e-07 6.591529e-08 1.6038203e-07 -3.663434e-08 1.4160648e-07
2.1050784e-08 -1.4819327e-07 -9.211313e-08 1.6275757e-07 -5.2307747e-08 1.6561205e-07 -6.566961e-08 -1.5603165e-07
-7.569319e-08 2.9231919e-07 -2.7336927e-07 -2.2920794e-07 -1.4752663e-08 -9.124003e-08 -4.9250918e-08 -8.6437396e-08
-2.6357139e-09 -4.89338e-07 1.5450043e-07 9.0134336e-09 -1.9048312e-07 1.8200346e-07 2.2236698e-07 6.712132e-08
-3.4377955e-08 1.3317751e-07 6.656987e-09 4.3750205e-08 1.0920369e-07 8.55816e-09 -1.0442134e-07 8.5038685e-08
-4.979077e-07 -2.7562777e-07 9.820141e-08 -4.0104266e-07 -1.533392e-07 8.7127994e-08 -3.8492547e-07 5.3763962e-08
-2.8291081e-08 -1.3580558e-08 3.4776193e-08 -2.8804882e-08 -1.8131258e-08 -7.814938e-09 -7.17968e-08 -1.1609717e-07
-1.7807464e-07 -1.2835696e-09 2.9323232e-08 -2.5890407e-07 -1.1234437e-08 -1.8507137e-07 -6.162734e-09 2.3230546e-08
-2.8436853e-07 7.410499e-08 4.3351932e-08 -4.591187e-08 -2.4749601e-08 9.817887e-08 5.8580326e-08 5.2328303e-08
3.4431675e-08 -2.3158286e-07 1.9005644e-07 1.5788727e-08 1.3166473e-07 -1.10227285e-08 2.5880476e-07 -2.7234632e-08
1.3444664e-07 1.7061348e-08 4.52192e-08 1.3365151e-07 7.650668e-08 -9.143158e-08 7.70975e-09 4.6522865e-07
2.7607453e-07 -1.2903823e-07 1.0874734e-07 1.5518307e-07 -1.9139864e-07 -1.9418852e-07 1.7522221e-07 8.5166256e-08
9.563766e-08 -5.7634672e-08 -2.4988656e-08 -1.2922092e-07 -2.456149e-07 -7.324007e-07 6.0271583e-07 -3.121705e-07
3.4589693e-08 2.2296069e-08 1.3248628e-07 4.6621512e-08 8.209801e-07 -3.135779e-07 4.804871e-08 1.6535216e-07
6.172103e-08 6.878091e-08 -2.762354e-07 5.658248e-07 -6.0187926e-07 4.0237174e-09 2.3291546e-08 1.3457085e-08
1.2424672e-07 1.2271259e-07 -7.9853166e-08 1.8641442e-08 -6.6769495e-08 1.2224202e-08 -7.668482e-08 -5.653178e-08
-1.6593306e-08 3.768425e-07 -3.5816126e-07 2.5868968e-07 1.5915934e-07 1.1431172e-07 2.0487597e-07 -1.0893365e-09
-5.0126637e-08 -5.450394e-08 -1.2269628e-07 1.01635386e-07 1.4093716e-07 -1.4948479e-07 1.3955227e-08 -1.12639185e-07
3.204832e-07 -1.8120963e-07 -9.097309e-08 1.7976785e-07 -2.7658112e-07 -2.8170805e-07 1.0151928e-06 -6.707737e-07
2.0268908e-07 6.797109e-08 5.4173075e-08 -7.4903305e-08 2.765243e-07 -4.999091e-07 9.022226e-08 -1.4424411e-07
8.563334e-08 -2.1123026e-07 9.504142e-09 -2.599925e-07 8.019322e-08 5.0139434e-08 5.1467758e-08 3.4310361e-09
2.6500587e-08 1.4503765e-08 -1.8822417e-09 1.4608902e-07 -9.0771344e-08 3.422046e-08 9.218313e-08 6.530074e-08
-1.0360768e-07 -3.2332313e-08 2.7923608e-07 -2.3355963e-07 -8.200948e-08 -1.6116292e-08 -8.051969e-08 1.381424e-07
8.475114e-08 -2.1864791e-07 4.0356618e-08 1.7730595e-07 -5.049361e-08 9.2108586e-08 -3.3596191e-07 -3.166945e-08
9.4129256e-08 -2.0558555e-07 -8.9811785e-08 -4.175785e-09 1.551747e-08 -1.956065e-07 9.784373e-08 3.3848238e-07
3.578874e-09 3.3030724e-07 1.3000806e-07 -2.3860904e-08 -1.9631081e-07 -1.6512278e-07 -1.1622269e-06 3.977092e-07
-2.8045972e-07 -7.8456864e-08 8.7105846e-08 -1.2851008e-07 4.3132008e-08 -8.606006e-07 1.288055e-07 -1.6995823e-07
-2.7195154e-07 -1.1194679e-08 1.5156382e-07 2.1457538e-07 -3.413615e-08 7.987808e-08 -1.5586974e-07 -1.2428964e-07
7.2870584e-08 -1.2521164e-07 -1.7190729e-07 -1.3654108e-06 1.7546215e-07 -5.2356927e-07 -5.835143e-08 -4.065291e-08
-2.875668e-07 -1.6101296e-07 5.2541356e-08 2.40919e-07 2.5961106e-07 8.708438e-08 -2.4373534e-08 1.3618856e-07
3.2953096e-07 5.0323376e-07 -3.149245e-07 4.6358903e-07 -5.492987e-08 -1.6751527e-07 1.5185476e-07 1.3651132e-07
00000000: 3911 09b3 249e bcb2 cfac 9bb3 9116 7834
00000010: b3fa b3b2 58e3 f431 2fdb f2b2 118e acb3
00000020: 0a3a 4031 0caf b133 8c25 2834 8e47 1835
00000030: 508d 8d33 7a35 2c34 e257 1db3 7e0c 1834
00000040: 2ad3 b432 0e1f 1fb4 bbcf c5b3 76c2 2e34
00000050: faa8 60b3 18d3 3134 4006 8db3 a789 27b4
00000060: c58c a2b3 0bf0 9c34 96c3 92b4 331c 76b4
00000070: e672 7db2 bdef c3b3 f587 53b3 769f b9b3
00000080: f81f 35b1 0d5b 03b5 c1e4 2534 80d9 1a32
00000090: 9a87 4cb4 bb6c 4334 c5c3 6e34 5624 9033
000000a0: f6a6 13b3 8eff 0e34 7abb e431 dce7 3b33
000000b0: 5d83 ea33 3007 1332 3d3e e0b3 839e b633
000000c0: f5a7 05b5 fef9 93b4 cce2 d233 e24e d7b4
000000d0: 8fa5 24b4 1f1b bb33 c1a7 ceb4 1aea 6633
000000e0: bf04 f3b2 ed4f 69b2 d45c 1533 9b6e f7b2
000000f0: 0fbf 9bb2 7642 06b2 b52e 9ab3 1851 f9b3
00000100: c934 3fb4 9769 b0b0 78e2 fb32 81ff 8ab4
00000110: 9401 41b2 08b8 46b4 fbbf d3b1 838c c732
00000120: 50ab 98b4 a623 9f33 f431 3a33 a330 45b3
00000130: f398 d4b2 68d6 d233 c099 7b33 94bf 6033
00000140: 07e2 1333 03a9 78b4 5112 4c34 c79f 8732
00000150: ba5f 0d34 795e 3db2 dbf1 8a34 97f1 e9b2
00000160: 695c 1034 4d8e 9232 0937 4233 d981 0f34
00000170: fe4b a433 0b59 c4b3 d773 0432 8ac4 f934
00000180: 6537 9434 c28d 0ab4 7b88 e933 66a0 2634
00000190: 4283 4db4 2282 50b4 b724 3c34 a5e4 b633
000001a0: 5c61 cd33 fe89 77b3 a3a6 d6b2 fabf 0ab4
000001b0: 0edd 83b4 319a 44b5 51ca 2135 6398 a7b4
000001c0: c58f 1433 9385 bf32 8d41 0e34 e53c 4833
000001d0: 5361 5c35 d259 a8b4 1e5e 4e33 a88b 3134
000001e0: 7f8b 8433 b5b4 9333 814d 94b4 2fe3 1735
000001f0: d490 21b5 fe40 8a31 a712 c832 e330 6732
00000200: ae68 0534 fbc2 0334 be7b abb3 f720 a032
00000210: eb62 8fb3 9c02 5232 edad a4b3 59cd 72b3
00000220: 1189 8eb2 d750 ca34 4f49 c0b4 0ae2 8a34
00000230: 63e5 2a34 887b f533 e1fb 5b34 9fb7 95b0
00000240: d24a 57b3 b717 6ab3 7fbe 03b4 a542 da33
00000250: 8354 1734 1182 20b4 bdbf 6f32 0ce4 f1b3
00000260: e00e ac34 8692 42b4 fc5c c3b3 3606 4134
00000270: 057d 94b4 a93d 97b4 c241 8835 380f 34b5
00000280: c0a2 5934 80f7 9133 edab 6833 87da a0b3
00000290: 3675 9434 7e31 06b5 36c0 c133 85e1 1ab4
000002a0: 6de5 b733 88ce 62b4 a947 2332 1995 8bb4
000002b0: b036 ac33 e458 5733 660d 5d33 6dc7 6b31
000002c0: 68a3 e332 3c2c 7932 bf58 01b1 a5dc 1c34
000002d0: 13ee c2b3 cbf9 1233 36f6 c533 763b 8c33
000002e0: ed7e deb3 c1dd 0ab3 eae9 9534 62c8 7ab4
000002f0: 301d b0b3 1a70 8ab2 2bea acb3 4b54 1434
00000300: 6f00 b633 7bc5 6ab4 9254 2d33 7d61 3e34
00000310: 50de 58b3 3bcd c533 415e b4b4 ee04 08b3
00000320: 1b24 ca33 edbe 5cb4 8dde c0b3 987a 8fb1
00000330: 474b 8532 e807 52b4 291e d233 aab8 b534
00000340: 38f0 7531 1555 b134 5898 0b34 aff6 ccb2
00000350: 81c9 52b4 9b4c 31b4 d0fd 9bb5 bc84 d534
00000360: 1792 96b4 1e7c a8b3 f20e bb33 95fc 09b4
00000370: 2540 3933 0604 67b5 c94d 0a34 c37d 36b4
00000380: bc00 92b4 b852 40b2 8cbd 2234 0866 6634
00000390: 189d 12b3 7089 ab33 265d 27b4 7a74 05b4
000003a0: 077d 9c33 ea71 06b4 8495 38b4 2843 b7b5
000003b0: ab66 3c34 688b 0cb5 139e 7ab3 599a 2eb3
000003c0: e162 9ab4 e8e2 2cb4 d5a9 6133 a857 8134
000003d0: ac60 8b34 2503 bb33 f85d d1b2 3a3b 1234
000003e0: 64ea b034 f615 0735 e512 a9b4 31e3 f834
000003f0: 08ec 6bb3 3fde 33b4 850d 2334 f293 1234

exp_avg_sq f4 [250, 7]
2.8611401e-13 2.709262e-13 1.5983659e-12 5.5149743e-12 9.472853e-13 9.136433e-13 5.754725e-13 8.74799e-13
5.8330684e-13 2.3990308e-12 1.422146e-12 5.4649212e-11 2.0084908e-11 6.1159467e-12 8.9768037e-13 3.2171841e-12
1.1880235e-11 1.4114779e-11 3.4570055e-12 1.9162018e-12 3.3100135e-12 6.5021833e-12 2.34134e-12 1.2899819e-11
1.5489491e-12 3.007276e-11 2.2021848e-11 2.4872571e-11 9.932065e-13 2.2920986e-12 6.0370616e-13 1.5136396e-12
4.306084e-12 3.637334e-11 6.822278e-11 1.2525784e-11 1.4715235e-12 1.1791515e-11 6.5938704e-12 1.2851085e-10
1.5897934e-11 3.5289754e-11 3.809821e-13 1.033188e-12 1.5245246e-11 9.614084e-13 1.8011051e-11 1.0442525e-11
4.2235885e-11 1.2372583e-11 3.2341688e-12 1.9819469e-11 7.2629073e-12 2.475471e-12 4.3239815e-11 3.5401827e-12
4.0817824e-13 1.07385624e-13 1.5203835e-13 1.278953e-13 1.9171032e-12 1.1265818e-12 1.6403387e-12 2.1633636e-11
5.9333136e-11 3.021518e-12 4.19311e-13 1.086871e-10 1.7737956e-12 2.4766002e-11 3.182033e-13 3.973027e-13
3.092367e-11 1.5855284e-13 1.9869564e-12 8.93352e-12 1.3728584e-11 7.683883e-12 5.8737905e-13 3.7022826e-13
2.810345e-13 1.3897426e-12 1.529187e-11 3.2367018e-13 5.915026e-12 1.9685998e-13 3.7333355e-11 3.7247587e-13
2.0061189e-11 3.2596746e-12 5.6567354e-13 1.3276009e-11 3.715616e-12 4.041966e-12 1.8294371e-13 5.5529206e-11
4.9107503e-11 1.2144476e-11 3.1570955e-12 4.3740727e-12 2.524649e-11 1.38846825e-11 7.915554e-11 2.3865836e-11
4.6380255e-13 1.1443742e-12 1.0036494e-12 3.968184e-12 3.7942906e-11 3.2773043e-10 1.426793e-10 1.2946067e-11
6.415544e-13 3.1945924e-12 6.384855e-13 9.51945e-12 4.2868823e-11 6.615582e-12 4.1164246e-12 1.4828545e-11
1.0637813e-12 1.94268e-12 2.688321e-11 5.954895e-11 1.8473403e-10 6.126868e-12 3.0897634e-13 5.2437574e-14
2.970179e-12 7.0267086e-12 2.909357e-12 2.4027883e-13 5.9968225e-13 3.174773e-13 3.481053e-13 2.8230313e-13
2.7381203e-12 1.3827879e-11 3.094361e-11 2.0829652e-11 4.877405e-12 1.37139735e-11 1.06883825e-11 1.3864674e-13
1.306895e-12 1.5164765e-12 3.1469096e-12 3.5676121e-12 1.7765943e-11 2.2011698e-12 4.4129747e-13 1.04236036e-10
1.8057974e-11 4.200103e-11 4.570271e-12 4.2707066e-12 3.0626564e-11 1.13287045e-11 4.862591e-10 4.690754e-10
1.7833221e-11 9.511758e-13 9.518253e-12 1.7348568e-12 5.1046827e-12 1.7969759e-10 4.6717085e-11 7.904781e-12
5.78486e-13 1.0846352e-11 8.5369277e-13 1.8247653e-11 2.8880556e-11 1.1232576e-11 8.2808147e-13 2.2269289e-13
3.8476836e-13 7.07952e-14 6.164323e-14 2.5441463e-12 1.7035842e-12 3.43898e-13 1.0972161e-11 5.1211474e-12
6.8909167e-12 5.967533e-13 6.668506e-11 3.071023e-11 5.3929534e-11 1.2781566e-13 1.5796678e-11 4.566862e-12
3.9317136e-13 2.3587946e-11 3.8952912e-13 3.5906052e-12 3.5037655e-13 8.733434e-13 9.105571e-12 2.4843842e-12
1.7633377e-12 5.6527318e-12 1.7942569e-12 1.0663411e-12 3.1240635e-13 1.063955e-11 2.5436415e-12 6.3458884e-11
4.4491576e-12 2.905806e-11 3.5953076e-12 1.5143515e-12 6.289729e-12 6.6580144e-12 2.597987e-10 7.864806e-11
4.8100163e-11 4.969738e-12 3.2770685e-12 2.2999894e-12 3.0847274e-12 1.4639788e-10 9.965422e-12 1.8506042e-11
2.0422157e-11 3.1441798e-12 4.677865e-12 4.245112e-12 4.7442893e-11 2.992325e-11 2.7045042e-11 1.2640527e-11
1.2092764e-12 6.663067e-12 4.603203e-12 4.889729e-10 1.4147018e-11 4.970848e-11 7.2519416e-13 2.75952e-12
9.940089e-12 1.3729841e-12 1.5332013e-11 2.1353922e-11 1.1852566e-11 4.106335e-13 1.4529578e-12 1.608244e-11
4.317912e-11 1.3826344e-10 4.7544694e-11 3.3487494e-11 1.999486e-12 1.2705925e-12 5.597659e-13 1.9959065e-12
00000000: 6011 a12a 9584 982a 33f3 e02b 790a c22c
00000010: 8d51 852b 7895 802b 2afb 212b e93b 762b
00000020: b02f 242b 19d1 282c 3626 c82b 8b59 702e
00000030: 31ab b02d 8d2f d72c b0ac 7c2b a363 622c
00000040: d2ff 502d 504f 782d e043 732c 39d7 062c
00000050: e7eb 682c 76c6 e42c d5c1 242c 9fef 622d
00000060: c6fe d92b eb42 042e cbb4 c12d 0dc8 da2d
00000070: 09c8 8b2b c74a 212c 9ded 292b 9d06 d52b
00000080: c281 972c bdf8 1f2e 0306 962e 1e5b 5c2d
00000090: 3919 cf2b 4370 4f2d 4e00 e82c 974c 0d2f
000000a0: f7d6 8b2d bb34 1b2e 4f79 d62a 8568 912b
000000b0: 3e19 862d 634e 872b 486d 9e2d f4b4 372d
000000c0: 61c1 392e 29a9 592d 9b95 632c 7a55 ae2d
000000d0: 748a ff2c 1f32 2e2c b42b 3e2e 431e 792c
000000e0: afc8 e52a 99cf f129 122e 2b2a 4fff 0f2a
000000f0: 76e7 062c 638d 9e2b 6edb e62b 9e4a be2d
00000100: 9679 822e d49e 542c 150d ec2a 6601 ef2e
00000110: b9a3 f92b 14d8 d92d ee21 b32a 5aa9 df2a
00000120: f500 082e bf83 322a d3d1 0b2c ff28 1d2d
00000130: 0c84 712d 222d 072d 1f55 252b 846b d02a
00000140: 5735 9e2a c196 c32b 3b82 862d ca35 b62a
00000150: d11d d02c 07a5 5d2a 9f31 242e 6eaf d12a
00000160: c875 b02d 1461 652c 1339 1f2b d48d 692d
00000170: 4bbb 822c cb36 8e2c eff9 4d2a 5438 742e
00000180: 22fa 572e dca5 552d 2d29 5e2c 25e6 992c
00000190: 0b12 de2d 0d43 742d 9c10 ae2e 16ed d12d
000001a0: 7f8c 022b 6d0e a12b 4840 8d2b 399e 8b2c
000001b0: eadf 262e f52b b42f a7e0 1c2f e7bf 632d
000001c0: de94 342b a9cc 602c bbb7 332b cb77 272d
000001d0: 018a 3c2e dec3 e82c 75d5 902c ea6e 822d
000001e0: c3b6 952b 36b4 082c 9b77 ec2d 14f3 822e
000001f0: 021e 4b2f ec91 d72c 2ff0 ad2a 6828 6c29
00000200: fd01 512c f73a f72c 51ba 4c2c d443 872a
00000210: a9cb 282b 4db9 b22a 43f7 c32a 2bec 9e2a
00000220: 97ad 402c 3b43 732d 6817 082e 3538 b72d
00000230: c29b ab2c 3f42 712d 3208 3c2d 341a 1c2a
00000240: dbed b72b d36c d52b af71 5d2c 630c 7b2c
00000250: 5945 9c2d c0e4 1a2c ab6d f82a ac37 e52e
00000260: f1d6 9e2d f5b8 382e 57cd a02c 1b43 962c
00000270: 72b2 062e f34b 472d 71a9 0530 3ff0 0030
00000280: d8dc 9c2d b8dd 852b 6772 272d ce28 f42b
00000290: e59a b32c 6094 452f c376 4d2e f80f 0b2d
000002a0: 4fd4 222b a0cf 3e2d 0c4b 702b 1082 a02d
000002b0: 3b09 fe2d 069b 452d 8f15 692b dbba 7a2a
000002c0: f79a d82a a76a 9f29 e7ce 8a29 4407 332c
000002d0: 17c2 ef2b ed98 c12a 3806 412d 322f b42c
000002e0: dc73 f22c 9bf8 272b 5aa4 922e a510 072e
000002f0: 422f 6d2e 5be8 0f2a f5f2 8a2d a3ae a02c
00000300: f755 dd2a 557b cf2d 1049 db2a 98aa 7c2c
00000310: 953e c52a 06d3 752b d92f 202d b0d2 2e2c
00000320: f02a f82b 48e3 c62c eb84 fc2b fd12 962b
00000330: 80de af2a 462c 3b2d 2cfe 322c 2d8c 8b2e
00000340: 738a 9c2c ef98 ff2d 4eff 7c2c 4320 d52b
00000350: d84c dd2c 1042 ea2c 6bd3 8e2f ecf2 ac2e
00000360: f88b 532e 6cdb ae2c 6b9a 662c edd8 212c
00000370: 8211 592c 57f7 202f 4550 2f2d e7c7 a22d
00000380: 9ca2 b32d 8240 5d2c 7696 a42c 925c 952c
00000390: f3a7 502e 969a 032e 05e4 ed2d df5f 5e2d
000003a0: c630 aa2b 926f ea2c f7f5 a12c 6968 0630
000003b0: 81e0 782d c69e 5a2e bf1f 4c2b 182f 422c
000003c0: 2ede 2e2d f73a c12b a0dc 862d c2d4 bb2d
000003d0: 3683 502d 862a e72a 527c cc2b 6f76 8d2d
000003e0: 5ee7 3d2e b305 182f 911a 512e 9147 132e
000003f0: 8ab3 0c2c ebd1 b22b 628f 1d2b 0e73 0c2c
