motion_planning/NN_model/models/single_102_left.pt (torch, 505434 bytes, 24 tensors)

l1.weight f4 [250, 7]
-0.022670079 -0.10148555 -0.007037309 -0.0023635484 -0.5512438 0.43675873 -0.27017963 0.18806762
-0.29015866 0.043567583 -0.016440088 -0.06552861 0.38297057 0.40929392 -0.01875445 -0.3800654
-0.37966475 -0.4756325 0.20146707 0.032445904 -0.19094801 -0.017837074 0.09972096 -0.37210327
0.041453652 -0.48246318 -0.09016481 0.43964753 0.0023767068 0.37643296 0.27508655 -0.05864715
-0.06056659 -0.03967147 0.24068698 0.07558726 -0.016207147 -0.008033516 0.0036982272 0.12145532
-0.7960146 -0.5151397 0.07519566 0.426335 -0.008398517 0.0053931526 -0.090807915 0.13441904
-0.7539922 0.037668303 -0.0032740938 -0.00037825457 -0.0016546954 -0.5903276 0.34602264 0.33381185
0.014625968 0.64791 0.011843857 -0.007263642 0.27523962 0.121918984 -0.14076725 0.031979248
-0.29227665 -0.001051079 -0.0017724767 0.45543587 0.3179002 0.29532546 -0.2897437 0.43265927
0.21264307 0.02717526 0.18005869 0.6213566 0.57448465 0.033333734 -0.032540843 0.043301083
0.007382862 0.27882174 0.31695575 -0.4195177 0.13378628 -0.074530385 0.0041542086 -0.0029439623
-0.2587036 -1.0117935 -0.30048484 -0.06645229 -0.38085192 0.11145715 0.003377224 -0.020460974
-0.11896139 0.39606813 -0.007336333 -0.25443777 -0.19206254 0.0090833735 0.38484898 -0.25826126
0.7175561 0.042218417 0.4784338 -0.1305277 -0.004426559 0.2293878 -0.11333497 0.16858678
-0.05644605 -0.1734773 -0.40843824 -0.0068577724 0.39824945 -0.40362716 0.16732083 -0.19905642
0.42302337 0.17812242 0.022444708 0.15687782 -0.082204536 -0.07648764 0.37208733 0.17567642
0.08027338 -0.007885561 0.3317529 -0.51014876 0.12221635 -0.18343724 -0.0089816535 -0.027978225
0.009707347 -0.2954149 -0.65668535 -0.3586469 -0.017018367 -0.0114794625 0.0010629335 0.000546566
0.36192766 0.3958206 -0.45545527 -0.22075032 -0.09559784 -0.10093295 0.009239218 0.03137303
-0.52777797 0.10862939 -0.057404164 0.105725676 0.28856766 -0.0057547316 0.38447776 0.087766305
-0.41200554 -0.0062172664 0.019624148 0.15375915 0.013542975 0.3959609 0.006495771 -0.07167954
-0.121841386 0.07119714 0.005399378 0.0048093023 0.49658257 0.22409938 0.31865788 0.07501345
0.02149308 0.0065647424 -0.003189845 -0.57967013 0.48545742 -0.24739584 -0.40988725 0.31096324
0.15574466 0.028671479 0.25635132 0.46555978 0.15454526 -0.22642408 0.23017891 0.26650292
0.009206576 0.5124607 -0.2541265 0.04190147 -0.018427243 0.56019914 0.025071746 0.009284223
-0.23585354 0.042845454 0.6566263 0.09999663 0.32000193 -0.39937487 -0.07164702 -0.18829851
-0.106556274 -0.06030647 -0.28704882 -0.31439704 -0.011542042 0.002037242 0.4295127 -0.6774616
-0.06609192 0.012977773 0.23743048 0.032329217 0.002615347 -0.5009264 -0.22814624 0.34225026
0.2597609 -0.66714936 -0.2391926 -0.013741384 -0.2650809 0.11842759 0.1522429 -0.18534361
0.29540038 -0.08212305 0.09650254 -0.4451149 0.6390563 -0.32954136 -0.2110687 -0.07274015
-0.00050264184 0.0007496566 -0.35348383 0.9530965 0.008590436 -0.34930468 -0.098027065 0.09387716
0.0014324966 0.6841196 0.017509397 0.069994055 -0.32263303 -0.14079288 -0.0023270168 0.16105261
00000000: 9ab6 b9bc a8d7 cfbd 3a99 e6bb c3e5 1abb
00000010: 501e 0dbf d79e df3e fc54 8abe cc94 403e
00000020: ad8f 94be ec73 323d 5dad 86bc dd33 86bd
00000030: b814 c43e f98e d13e efa2 99bc ef97 c2be
00000040: 6b63 c2be 1a86 f3be 624d 4e3e ffe5 043d
00000050: e087 43be 0e1f 92bc 813a cc3d 5284 bebe
00000060: 4ecb 293d 6a05 f7be 54a8 b8bd 7b19 e13e
00000070: 86c2 1b3b d2bb c03e 25d8 8c3e fe37 70bd
00000080: ac14 78bd 8d7e 22bd a676 763e 7ecd 9a3d
00000090: dac4 84bc 029f 03bc f55d 723b 91bd f83d
000000a0: 9dc7 4bbf 32e0 03bf 2f00 9a3d 9548 da3e
000000b0: ef99 09bc 0bb9 b03b 80f9 b9bd 25a5 093e
000000c0: a205 41bf 144a 1a3d 2e92 56bb 7850 c6b9
000000d0: 5de2 d8ba b61f 17bf e129 b13e 63e9 aa3e
000000e0: c2a1 6f3c 6edd 253f bd0c 423c d803 eebb
000000f0: 35ec 8c3e a9b0 f93d 4a25 10be acfc 023d
00000100: 49a5 95be 5cc4 89ba 7352 e8ba e42e e93e
00000110: d1c3 a23e e634 973e 4959 94be 8485 dd3e
00000120: 1bbf 593e a79e de3c 4e61 383e 3a11 1f3f
00000130: 6d11 133f f488 083d 8c49 05bd 7a5c 313d
00000140: efeb f13b b9c1 8e3e 0648 a23e 06cb d6be
00000150: 45ff 083e 63a3 98bd 0720 883b 7eef 40bb
00000160: cc74 84be 7382 81bf 26d9 99be 2318 88bd
00000170: 06ff c2be a543 e43d 6b54 5d3b c69d a7bc
00000180: 07a2 f3bd 71c9 ca3e 9f65 f0bb ab45 82be
00000190: 0bac 44be 6ed2 143c ed0a c53e d23a 84be
000001a0: c2b1 373f 38ed 2c3d 46f5 f43e 0ea9 05be
000001b0: ab0c 91bb a3e4 6a3e 2a1c e8bd 03a2 2c3e
000001c0: f933 67bd 09a4 31be d11e d1be 2ab7 e0bb
000001d0: 5ae7 cb3e 38a8 cebe 2756 2b3e 72d5 4bbe
000001e0: 8596 d83e b965 363e f7dd b73c 94a4 203e
000001f0: da5a a8bd 8da5 9cbd 3b82 be3e 85e4 333e
00000200: 5f66 a43d 7132 01bc 84db a93e 1c99 02bf
00000210: 914c fa3d f9d6 3bbe c927 13bc 9732 e5bc
00000220: 900b 1f3c 9f40 97be 881c 28bf 91a0 b7be
00000230: 1a6a 8bbc 5b14 3cbc 2152 8b3a 6c47 0f3a
00000240: 954e b93e ffa8 ca3e 6f31 e9be 5f0c 62be
00000250: cdc8 c3bd efb5 cebd 1760 173c 0281 003d
00000260: 751c 07bf 1679 de3d a120 6bbd b486 d83d
00000270: 24bf 933e 3092 bcbb 45da c43e d2be b33d
00000280: 64f2 d2be 36ba cbbb d2c2 a03c 0a73 1d3e
00000290: 5be3 5d3c 63bb ca3e 7ada d43b b9cc 92bd
000002a0: fa87 f9bd cecf 913d 44ed b03b 5a97 9d3b
000002b0: 1240 fe3e 4f7a 653e 2027 a33e a7a0 993d
000002c0: 4112 b03c 0d1d d73b b80c 51bb 4365 14bf
000002d0: e08d f83e 5655 7dbe bedc d1be 9336 9f3e
000002e0: 877b 1f3e 73e0 ea3c 7b40 833e da5d ee3e
000002f0: 1d41 1e3e b7db 67be 05b4 6b3e 1273 883e
00000300: 2ed7 163c a030 033f de1c 82be e0a0 2b3d
00000310: bbf4 96bc 3669 0f3f 4363 cd3c db1c 183c
00000320: 9783 71be b77e 2f3d a918 283f 08cb cc3d
00000330: 4bd7 a33e dd7a ccbe acbb 92bd 53d1 40be
00000340: 2d3a dabd eb03 77bd 10f8 92be a6f8 a0be
00000350: d51a 3dbc 4083 053b 17e9 db3e 206e 2dbf
00000360: 335b 87bd baa0 543c fa20 733e a46b 043d
00000370: 3e66 2b3b b63c 00bf 2b9f 69be 6d3b af3e
00000380: 61ff 843e 4dca 2abf e8ee 74be 8b23 61bc
00000390: afb8 87be 2a8a f23d 90e5 1b3e b7ca 3dbe
000003a0: b83e 973e 2130 a8bd 20a3 c53d 1ae6 e3be
000003b0: 3299 233f a5b9 a8be 6522 58be caf8 94bd
000003c0: b9c3 03ba 9a84 443a d5fb b4be 22fe 733f
000003d0: e6be 0c3c 10d8 b2be 6ac2 c8bd ab42 c03d
000003e0: 9cc2 bb3a 7622 2f3f de6f 8f3c 0b59 8f3d
000003f0: 2830 a5be 022c 10be dd80 18bb faea 243e

l1.bias f4 [250]
-0.17265083 -0.35525635 0.526744 -0.5133756 0.3198016 0.03470788 0.2238996 -0.10985384
-0.6206506 -0.205292 0.051866386 0.19144116 -0.072578 0.17155448 -0.4984946 -0.43645087
-0.43014714 0.16976385 -0.21971478 0.0429915 -0.040036365 0.41738814 -0.19392903 -0.22497872
-0.16599211 -0.20242913 0.44508505 -0.39099276 0.40527996 0.07396689 0.03405332 -0.14257418
-0.58156514 0.43891266 -0.10813948 -0.2411462 0.037968077 -0.11898328 -0.031359285 -0.046690047
-0.44038358 -0.059900604 -0.2703215 0.39831215 0.47288555 0.41524005 0.10606778 0.4361923
-0.18491067 -0.32890972 -0.19742236 -0.4765851 -0.35931057 0.31504372 0.3579818 -0.23537423
0.3621287 0.08341575 0.32682157 -0.5983522 0.30368173 -0.0799814 -0.3439915 -0.14445469
-0.112799734 -0.6645532 0.36137858 0.2896235 0.23009193 0.118372105 -0.10233918 -0.20756522
-0.25641528 0.046327867 -0.10563432 -0.2660248 0.31149456 0.1849345 -0.184807 -0.46598515
0.4177434 0.10480674 0.3155321 -0.15965554 -0.20056434 0.4779958 -0.42123905 -0.18062812
0.41846532 0.4372644 0.007493413 -0.34433416 0.23444185 0.039610457 0.31421962 -0.12586415
-0.42256874 0.21592939 -0.28881332 0.23006313 0.031253207 -0.71854395 0.14025979 0.33043674
-0.09742105 -0.059180323 0.13072449 0.2897568 0.2641987 0.2509169 -0.3565682 0.377438
-0.14834793 -0.11670646 0.13783069 0.2988322 0.281685 -0.07760375 0.152525 -0.1017223
0.08615257 -0.36415884 0.12048803 0.20179793 0.023627017 -0.33340845 -0.4058922 0.26304966
0.03794085 0.45552444 0.27886474 -0.1460648 0.30643648 0.34173474 -0.315275 -0.22733562
-0.087422244 0.21650344 -0.11085116 0.022416348 -0.07717425 0.4173936 0.22099967 -0.21274611
-0.32514974 -0.06123439 0.35783714 -0.18726559 0.20795298 0.14906378 -0.5285767 0.19934747
-0.31030846 -0.059702173 0.32600877 0.16963288 0.2998474 0.06268328 0.39918277 0.26882395
-0.099409 -0.2192772 0.11965807 0.3599296 0.18589701 0.32212692 -0.103783004 -0.21825665
-0.23366815 0.056357983 -0.033793006 0.5068747 0.012607399 0.19657196 0.07609213 -0.12265522
-0.097372144 0.2978077 -0.21598373 0.4556612 0.4627702 0.3029042 -0.41129425 -0.25105622
-0.02932475 -0.0028724165 -0.32998466 0.3419022 -0.20023175 0.29249752 -0.13931197 -0.23070596
-0.036841426 0.0071232957 0.12169025 0.03458337 0.16246517 -0.37396023 0.33736444 0.050687253
-0.4429074 0.07364367 -0.36283538 -0.6396989 0.15623522 -0.21157572 0.1943981 -0.24734233
0.41758996 0.009329392 -0.28236416 -0.019077638 -0.10533576 0.005152373 0.30058643 0.03958809
-0.047232967 0.4358281 0.09823567 -0.31060877 0.32090324 -0.5750993 0.3301185 0.15830764
0.26631984 0.04806466 -0.4447116 -0.4714439 0.21685243 0.23859176 0.07579626 0.43328366
-0.3672899 0.23506027 0.25809205 0.060586788 0.18882896 0.10035188 -0.046558473 -0.36431998
-0.28902495 -0.15348497 0.34969255 0.29075575 -0.27845064 0.42584443 0.062354367 0.35178164
-0.3317109 0.041093837
00000000: 61cb 30be 29e4 b5be b2d8 063f 956c 03bf
00000010: 09bd a33e da29 0e3d f045 653e 0dfb e0bd
00000020: f5e2 1ebf 1138 52be d971 543d 2709 443e
00000030: c6a3 94bd faab 2f3e af3a ffbe 7d76 dfbe
00000040: 3f3c dcbe 93d6 2d3e e9fc 60be db17 303d
00000050: 2cfd 23bd e6b3 d53e 5595 46be d260 66be
00000060: d6f9 29be 9549 4fbe 30e2 e33e 3430 c8be
00000070: db80 cf3e f47b 973d 7e7b 0b3d f7fe 11be
00000080: 74e1 14bf 29b9 e03e 3b78 ddbd 08ef 76be
00000090: 6a84 1b3d 82ad f3bd 9872 00bd 103e 3fbd
000000a0: f579 e1be 565a 75bd 9467 8abe 92ef cb3e
000000b0: 0e1e f23e 589a d43e 103a d93d 9954 df3e
000000c0: 3959 3dbe db66 a8be 1629 4abe f602 f4be
000000d0: 8ef7 b7be 694d a13e 6449 b73e f105 71be
000000e0: ef68 b93e e0d5 aa3d 2855 a73e 9c2d 19bf
000000f0: 2c7c 9b3e 4acd a3bd a71f b0be eeeb 13be
00000100: 8c03 e7bd 2920 2abf 9d06 b93e 8849 943e
00000110: 389d 6b3e 136d f23d 3497 d1bd fa8b 54be
00000120: dd48 83be 4ac2 3d3d ce56 d8bd 6734 88be
00000130: 377c 9f3e 785f 3d3e 0c3e 3dbe 9b95 eebe
00000140: 77e2 d53e eba4 d63d 6c8d a13e be7c 23be
00000150: bd60 4dbe debb f43e a5ac d7be 94f6 38be
00000160: 1641 d63e 1fe1 df3e 4e8b f53b 914c b0be
00000170: 8611 703e 933e 223d 65e1 a03e 88e2 00be
00000180: ee5a d8be 981c 5d3e 57df 93be ab95 6b3e
00000190: 5d03 003d 7ff2 37bf 43a0 0f3e 012f a93e
000001a0: b084 c7bd 1167 72bd a4dc 053e 015b 943e
000001b0: 0d45 873e 2e78 803e 1b90 b6be 8e3f c13e
000001c0: 85e8 17be cc03 efbd 7d23 0d3e 8900 993e
000001d0: 0439 903e b7ee 9ebd 832f 1c3e c853 d0bd
000001e0: c270 b03d 0773 babe 6ec2 f63d 1ea4 4e3e
000001f0: 728d c13c 83b4 aabe 1ad1 cfbe 72ae 863e
00000200: dd67 1b3d 803a e93e 5cc7 8e3e 0392 15be
00000210: 3ee5 9c3e dbf7 ae3e ba6b a1be abca 68be
00000220: 6f0a b3bd 14b3 5d3e ef05 e3bd 7da2 b73c
00000230: 880d 9ebd 9db4 d53e bd4d 623e 1eda 59be
00000240: 077a a6be e9d0 7abd 6e36 b73e 8dc2 3fbe
00000250: a0f1 543e 2da4 183e cd50 07bf be21 4c3e
00000260: c0e0 9ebe 448a 74bd 9fea a63e 3eb4 2d3e
00000270: 9985 993e 1760 803d af61 cc3e 4ba3 893e
00000280: f296 cbbd 348a 60be 4a0f f53d b148 b83e
00000290: c95b 3e3e d2ed a43e 2f8c d4bd ac7e 5fbe
000002a0: b446 6fbe a1d7 663d 896a 0abd 8ac2 013f
000002b0: 448f 4e3c 294a 493e 31d6 9b3d a932 fbbd
000002c0: 0c6b c7bd 407a 983e d72a 5dbe 6d4c e93e
000002d0: 37f0 ec3e 4216 9b3e 2995 d2be 718a 80be
000002e0: 753a f0bc 273f 3cbb c0f3 a8be ce0d af3e
000002f0: 8d09 4dbe 3cc2 953e cca7 0ebe 2f3e 6cbe
00000300: 09e7 16bd 896a e93b bd38 f93d 4ba7 0d3d
00000310: 455d 263e b777 bfbe 08bb ac3e 709d 4f3d
00000320: c2c4 e2be 7ed2 963d 8fc5 b9be 4fc3 23bf
00000330: 20fc 1f3e 4ea7 58be 4c10 473e 4f47 7dbe
00000340: 5ace d53e 4eda 183c 0992 90be b548 9cbc
00000350: 46ba d7bd 3dd5 a83b 77e6 993e 1f27 223d
00000360: 5b77 41bd dc24 df3e c82f c93d 1d08 9fbe
00000370: 6e4d a43e b539 13bf 4b05 a93e 661b 223e
00000380: 135b 883e 73df 443d 3db1 e3be 1861 f1be
00000390: 900e 5e3e 6651 743e 123b 9b3d 5bd7 dd3e
000003a0: 6c0d bcbe a4b3 703e a424 843e da29 783d
000003b0: 615c 413e 4985 cd3d 19b4 3ebd 2688 babe
000003c0: 14fb 93be 2a2b 1dbe e70a b33e f0dd 943e
000003d0: 1591 8ebe 4808 da3e 4b67 7f3d b91c b43e
000003e0: 03d6 a9be 0352 283d

l2.weight f4 [130, 250]
-0.40437335 -0.026251687 0.043758508 -0.28299412 0.11827516 -0.44187558 -0.21037963 -0.15835299
0.20458432 -0.46603972 -0.13093951 -0.16914602 -0.10818861 0.046997026 -0.26463112 -0.7978851
-0.20605476 0.10583565 0.25957164 -0.109368145 -0.1918725 0.025185838 0.1229258 -0.13468955
-0.07908636 -0.4653549 0.10644019 -0.099624135 0.045824114 0.02315011 0.06833327 -0.31482753
0.015889347 0.08402951 0.18895975 -0.07155872 -0.060190815 -0.004030997 -0.043667156 -0.45999402
0.15120909 -0.2391584 -0.47158888 0.062699445 -0.07164243 0.051916167 -0.12391132 0.037391063
-0.47409636 -0.15520284 -0.11998757 0.10746891 -0.07140677 0.07181923 -0.05791151 -0.12091444
-0.1137609 -0.10071787 0.020880328 -0.33985788 0.10427727 -0.106334336 0.020659108 -0.28825098
-0.12699671 -0.3380455 0.11831847 -0.0042326925 -0.18435198 0.027966458 -0.036228135 0.12684569
0.13607033 -0.09197237 0.121856846 -0.046159104 0.03221023 0.28033867 -0.023328315 0.029427486
0.10996159 0.010954215 -0.034458302 -0.13293558 0.24274355 -0.023350658 -0.41213784 -0.32281926
0.098549604 0.11025804 -0.39359817 -0.03771332 0.041270703 -0.42594016 -0.0036534797 -0.10457416
-0.13906069 -0.08947189 0.064315125 0.032428455 0.11221239 0.21703693 -0.096727595 -0.11844308
0.21053259 0.15101981 0.19586608 -0.015561156 -0.10522603 0.025632733 -0.11239045 -0.011046865
-0.26591656 0.14475507 -0.17656192 0.034217 0.06266454 0.034858454 0.00686387 0.132933
0.24215508 0.020316085 0.05079955 0.083053514 0.15334514 -0.7529969 0.20410179 0.038722523
0.014923652 0.06783954 0.05872167 0.21017596 0.12366577 -0.036791865 0.10143238 -0.038413797
-0.2911507 0.039367888 0.06860182 -0.24962004 -0.13777871 0.037901286 -0.10751757 -0.19717316
-0.22243018 -0.012215869 0.079281546 0.0057728374 0.03764195 0.015268018 -0.21546325 0.12725917
0.060245015 -0.032919947 0.019119462 0.10675216 0.052951887 0.06671206 0.074877836 0.04575653
-0.15781817 -0.028019639 -0.1644393 0.036045592 0.15540566 -0.022859177 -0.17162734 0.18878666
-0.03219499 -0.004210799 -0.6293315 0.02679676 -0.02663249 0.018800173 0.14540453 -0.1773865
0.07082888 0.073706195 0.07491831 -0.042150386 0.030053748 -0.047162782 -0.046428915 -0.04781805
0.010021065 -0.0634956 -0.18806906 0.16317135 0.06300226 -0.16711393 0.0055895415 -0.20678264
0.07599756 0.0714598 -0.008370758 -0.039081547 -0.011880469 -0.010343729 0.09937365 -0.18810599
-0.3610502 0.076180734 -0.7421982 0.04106307 -0.016544852 -0.12492158 0.05671919 -0.026931766
0.11190597 0.01508617 -0.7523403 -0.029910853 -0.07839485 0.0125512285 -0.111905575 -0.3856212
-0.15425156 0.041283913 -5.730444e-05 -0.32532555 0.1479228 -0.030903652 0.110460356 -0.043595456
0.13149112 -0.24842057 -0.5354812 0.16619028 -0.12765531 -0.15327793 -0.06626595 0.0047603482
-0.048144177 0.04519322 0.042992678 -0.0073260944 -0.058496248 -0.08696105 -0.08908353 0.15599282
-0.16408578 -0.02135983 0.1680221 -0.13318065 -0.2994456 0.017419783 -0.031038476 0.05849754
-0.40326652 0.0293098 0.23108001 0.06457599 -0.021946175 0.023197837 0.015112383 0.16256072
00000000: 060a cfbe c70d d7bc 1f3c 333d 9be4 90be
00000010: 3f3a f23d 843d e2be c26d 57be 4927 22be
00000020: 8d7e 513e c29c eebe 0215 06be 9d34 2dbe
00000030: fd91 ddbd f47f 403d bb7d 87be 3342 4cbf
00000040: 0500 53be 5cc0 d83d 93e6 843e 68fc dfbd
00000050: 3a7a 44be 8852 ce3c 86c0 fb3d 0fec 09be
00000060: 08f8 a1bd ff42 eebe 50fd d93d bd07 ccbd
00000070: 11b2 3b3d 4da5 bd3c 50f2 8b3d 1331 a1be
00000080: 602a 823c aa17 ac3d aa7e 413e 618d 92bd
00000090: a58a 76bd 7416 84bb 55dc 32bd 5684 ebbe
000000a0: 8ed6 1a3e f1e5 74be 1974 f1be 9168 803d
000000b0: 44b9 92bd 0ca6 543d 38c5 fdbd 5f27 193d
000000c0: c2bc f2be 7eed 1ebe 0bbc f5bd a918 dc3d
000000d0: b63d 92bd f615 933d 9f34 6dbd fda1 f7bd
000000e0: 7afb e8bd 2c45 cebd 390d ab3c da01 aebe
000000f0: 528f d53d d1c5 d9bd 4a3d a93c a295 93be
00000100: 6d0b 02be 4d14 adbe f450 f23d 66b2 8abb
00000110: c4c6 3cbe ea19 e53c f463 14bd d6e3 013e
00000120: 0556 0b3e 035c bcbd 1590 f93d 5411 3dbd
00000130: e0ee 033d 8d88 8f3e 061b bfbc e911 f13c
00000140: 8b33 e13d 4f79 333c 2624 0dbd 4420 08be
00000150: c491 783e e149 bfbc bb03 d3be 9148 a5be
00000160: 60d4 c93d f8ce e13d b385 c9be 4879 1abd
00000170: 780b 293d d414 dabe 386f 6fbb fa2a d6bd
00000180: ed65 0ebe 0a3d b7bd a6b7 833d b3d3 043d
00000190: 9ccf e53d ee3e 5e3e 1e19 c6bd 4992 f2bd
000001a0: db95 573e f0a4 1a3e 1e91 483e 38f4 7ebc
000001b0: bf80 d7bd bdfb d13c f72c e6bd e9fd 34bc
000001c0: 3726 88be ac3a 143e a6cc 34be 2027 0c3d
000001d0: 4456 803d bdc7 0e3d 51ea e03b 971f 083e
000001e0: 80f7 773e eb6d a63c 3013 503d f617 aa3d
000001f0: 8206 1d3e 68c4 40bf 0f00 513e 829b 1e3d
00000200: 5582 743c 75ef 8a3d 2286 703d 5e38 573e
00000210: 7b44 fd3d 11b3 16bd c8bb cf3d c957 1dbd
00000220: b411 95be 3940 213d 1c7f 8c3d 659c 7fbe
00000230: dd15 0dbe 613e 1b3d 2c32 dcbd c3e7 49be
00000240: bdc4 63be 1125 48bc 5d5e a23d 122a bd3b
00000250: 722e 1a3d b526 7a3c 66a2 5cbe 3a50 023e
00000260: 7ac3 763d 11d7 06bd 6ba0 9c3c e0a0 da3d
00000270: 14e4 583d 55a0 883d 8d59 993d 336b 3b3d
00000280: 169b 21be 7189 e5bc c762 28be 8ba4 133d
00000290: a922 1f3e 2b43 bbbc 14bf 2fbe 4a51 413e
000002a0: e5de 03bd befa 89bb df1b 21bf e184 db3c
000002b0: 612c dabc d202 9a3c ede4 143e cfa4 35be
000002c0: bb0e 913d 46f3 963d c56e 993d e2a5 2cbd
000002d0: 4733 f63c c32d 41bd 3f2c 3ebd dcdc 43bd
000002e0: 652f 243c fb09 82bd 2d95 40be 6416 273e
000002f0: 5407 813d ea1f 2bbe 7928 b73b d4be 53be
00000300: 9ca4 9b3d 8459 923d 8125 09bc f913 20bd
00000310: 4ca6 42bc be78 29bc 6a84 cb3d db9e 40be
00000320: 92db b8be a504 9c3d b400 3ebf c031 283d
00000330: 1289 87bc e3d6 ffbd 6252 683d 02a0 dcbc
00000340: f52e e53d fc2b 773c 6099 40bf 9b07 f5bc
00000350: 7b8d a0bd aba3 4d3c c02e e5bd 2470 c5be
00000360: 1ff4 1dbe 5219 293d 2d5a 70b8 1291 a6be
00000370: 1379 173e a829 fdbc 0a39 e23d 2691 32bd
00000380: 9ca5 063e f661 7ebe 4c15 09bf c92d 2a3e
00000390: 13b8 02be e4f4 1cbe 71b6 87bd b2fc 9b3b
000003a0: d432 45bd 871c 393d 1719 303d bc0f f0bb
000003b0: c399 6fbd a318 b2bd 6d71 b6bd 95bc 1f3e
000003c0: 1a06 28be cffa aebc fc0d 2c3e 8260 08be
000003d0: ef50 99be efb3 8e3c 6744 febc 1e9b 6f3d
000003e0: f378 cebe 1b1b f03c 3da0 6c3e 6b40 843d
000003f0: 77c8 b3bc 6409 be3c ee99 773c 5176 263e

l2.bias f4 [130]
0.093573675 -0.04522596 -0.054323837 0.052709002 -0.047989 0.01586807 -0.04539269 -0.052191373
0.05118023 0.039669327 0.050987426 0.0023775578 0.0907242 0.17497693 0.07523082 0.058885254
-0.038496424 0.0035400754 0.037623268 -0.016088892 -0.004559554 0.060893998 0.12204662 -0.05732174
0.055175655 0.059691504 0.14567213 0.042686924 0.06450364 0.09379137 -0.0046842946 0.010367084
-0.016178794 0.000876393 0.117051356 0.012628376 -0.06635934 0.022502998 -0.014548009 -0.020172084
0.039505243 -0.029131321 -0.048402473 -0.05966344 0.10215135 -0.025382612 -0.01701916 -0.015305324
0.027201883 0.0873599 -0.08283425 0.012172552 0.013173904 -0.012739611 -0.074468985 0.04752907
0.01866903 0.05657258 -0.048122562 0.087402575 0.013111351 -0.05242084 0.006750448 -0.0016307271
-0.07503633 0.09562418 0.017685527 -0.018751156 -0.0017445078 0.025951581 -0.05994049 0.064512424
-0.02442545 -0.00012254434 -0.06675137 0.03993615 0.098944224 -0.0031160254 -0.017353328 0.014804858
0.0043064207 0.021214496 -0.057736047 0.059533674 0.15909216 -0.053755887 0.014517895 0.047648847
0.0044500125 0.008896329 3.3892644e-05 -0.039281547 -0.071044005 0.00538516 -0.0022610193 0.08596599
-0.047986925 -0.08591081 -0.054021835 0.109453864 -0.056633107 0.057786357 0.074928835 -0.049709685
0.022199607 0.044464797 -0.06804073 0.093807355 -0.010006699 0.0015046725 0.018803805 0.03151575
-0.023126619 0.06015745 0.03486121 -0.06595213 0.029032802 0.050491992 0.029622838 0.0867684
0.110489115 -0.041255474 0.049897816 0.013595741 0.050839152 -0.027952906 0.0032600358 0.006866038
0.09681491 -0.01958845
00000000: 8ea3 bf3d db3e 39bd ac82 5ebd 65e5 573d
00000010: 1d90 44bd c1fd 813c afed 39bd 9fc6 55bd
00000020: 5ca2 513d 4e7c 223d 31d8 503d cdd0 1b3b
00000030: 9ccd b93d 272d 333e 9e12 9a3d aa31 713d
00000040: 6dae 1dbd 9c00 683b db1a 1a3d dacc 83bc
00000050: 5068 95bb fc6b 793d 94f3 f93d 33ca 6abd
00000060: deff 613d 147f 743d 132b 153e 7cd8 2e3d
00000070: 7c1a 843d b115 c03d b67e 99bb b4da 293c
00000080: 6489 84bc bdbd 653a 9fb8 ef3d 3fe7 4e3c
00000090: 68e7 87bd 3558 b83c c65a 6ebc ed3f a5bc
000000a0: 40d0 213d cfa4 eebc ac41 46bd a761 74bd
000000b0: ba34 d13d 32ef cfbc c46b 8bbc 2fc3 7abc
000000c0: 7cd6 de3c bfe9 b23d 01a5 a9bd 626f 473c
000000d0: 5cd7 573c cdb9 50bc 3283 98bd d8ad 423d
000000e0: cbef 983c a6b8 673d 2a1c 45bd 1f00 b33d
000000f0: fed0 563c 3cb7 56bd dd32 dd3b 1fbe d5ba
00000100: a6ac 99bd 9cd6 c33d 3de1 903c 069c 99bc
00000110: f8a7 e4ba 6998 d43c 2984 75bd 171f 843d
00000120: e217 c8bc 3f7f 00b9 f1b4 88bd 1794 233d
00000130: 45a3 ca3d 3b36 4cbb 9128 8ebc 1390 723c
00000140: e01c 8d3b 06ca ad3c a27c 6cbd 95d9 733d
00000150: 0ee9 223e 222f 5cbd 77dc 6d3c 702b 433d
00000160: 69d1 913b e9c1 113c f327 0e38 b0e5 20bd
00000170: 857f 91bd ff75 b03b 9c2d 14bb f00e b03d
00000180: f08d 44bd 02f2 afbd 0046 5dbd 5929 e03d
00000190: 1ef8 67bd 63b1 6c3d 4a74 993d 629c 4bbd
000001a0: f3db b53c b820 363d f058 8bbd 121e c03d
000001b0: 23f3 23bc 6e38 c53a 700a 9a3c a916 013d
000001c0: 0974 bdbc a967 763d a1ca 0e3d e911 87bd
000001d0: 33d6 ed3c b1d0 4e3d 98ab f23c a2b3 b13d
000001e0: 1e48 e23d 80fb 28bd a761 4c3d acc0 5e3c
000001f0: b73c 503d 7efd e4bc 53a6 553b 80fc e03b
00000200: e546 c63d f577 a0bc

l3.weight f4 [50, 130]
-0.0018687331 0.10743491 -0.08999741 -0.060730744 -0.041029572 0.16357628 -0.012833786 0.1204098
-0.015821362 0.64530736 -0.084060565 -0.13227011 0.030867744 0.029912582 -0.06009022 0.06897734
0.009326138 -0.039344214 0.005811753 -0.0031727697 -0.13730972 0.009734454 -0.047454864 -0.02619169
0.15513118 0.022829419 0.025403863 0.04934968 -0.087207705 0.08376216 -0.029639011 -0.14437838
-0.05813826 -0.029628748 -0.14702912 0.011128655 -0.046813548 -0.10281801 0.061412025 -0.0038134034
-0.11179234 0.025743145 -0.17531554 -0.0060581565 0.13831486 -0.037447065 -0.024626344 0.03137687
0.059249554 0.041194 0.08649458 0.03014436 0.034628805 0.03844387 0.07937808 0.072256856
-0.11211397 -0.12277236 0.050659277 0.0924652 0.05186946 -0.03227358 -0.06185512 0.12279988
-0.26793003 -0.07550108 -0.23491766 0.051880337 0.08869058 0.09000106 -0.08237108 -0.039233
0.103945635 0.07797272 0.026849676 -0.10698266 0.00044130435 -0.019438567 0.16531354 0.09434295
-0.09370157 0.040715333 0.26407576 -0.24426574 0.047906365 -0.10270135 0.012454905 -0.01498124
-0.0489195 0.013516684 -0.08100647 -0.043602627 -0.18249284 0.00793592 0.081386894 0.035593655
-0.09243546 0.010830548 -0.035138357 -0.06511315 -0.08409409 -0.09030368 0.08847076 0.27154112
0.27724227 0.020056747 -0.18603244 -0.051860984 -0.06613376 -0.007220251 0.0694527 0.065484874
0.16886988 -0.0045457385 -0.05273859 0.08466731 -0.00878343 0.13977581 -0.039714597 0.06530588
-0.059024017 0.019245712 -0.10009303 0.033000946 -0.030897457 0.028378777 0.16621943 0.06471583
-0.0571552 -0.04584296 -0.16005535 -0.61887157 -0.13772865 -0.30257103 -0.11057942 -0.016294353
-0.45078024 -0.0288636 -0.29885623 0.15442277 0.17004196 0.052892655 -0.41049612 0.267881
0.1494526 0.026302816 0.083217084 -0.04144079 -0.06638636 0.76835275 0.041334946 -0.13276099
0.29088518 -0.3565428 -0.23476417 -0.21183673 -0.008148775 0.2613442 0.048881438 -0.07452373
0.088523194 -0.83268297 0.060670167 -0.3869624 -0.34198985 0.17287347 -0.20212604 0.25936818
0.06928022 -0.13319623 -0.013522099 0.15873614 0.061553195 -0.028920915 0.1417665 0.41364148
-0.118805274 0.20917779 0.21581829 -0.0958415 -0.3098865 0.1607207 0.05064861 0.0770372
-0.35560247 -0.04390762 0.017193057 -0.2647846 0.3211573 0.12832348 0.023251684 -0.51713765
0.627769 -0.3095752 -0.36118552 0.14864351 -0.17154782 -0.03478943 0.047274306 0.014472929
-0.21802984 0.017079454 -0.020604001 0.11620954 0.28273788 0.18089108 -0.13832918 0.09932884
-0.03472049 0.08645001 -0.2857793 0.25393012 0.41148046 -0.32164112 -0.20006604 -0.18224016
0.006812899 -0.015555054 -0.0621723 0.016934244 0.14481825 -0.5896974 0.37624142 0.016157417
0.04630558 0.12012963 -0.8099586 -0.062828004 0.16220444 -0.058455843 0.19411105 -0.33640105
0.27553254 -0.017258836 0.17560603 0.5034797 -0.07118535 -0.076383464 -0.001552263 -0.32599849
-0.21516143 -0.31897426 0.2869512 -0.3934945 0.049342006 -0.058476336 0.08038419 0.33620393
-0.02108977 0.5768598 -0.26723477 -0.29748976 -0.5291628 0.22269426 -0.090474084 -0.31952044
00000000: 47f0 f4ba d606 dc3d 9050 b8bd cdc0 78bd
00000010: a00e 28bd 8a80 273e cd44 52bc 6a99 f63d
00000020: cd9b 81bc dd32 253f f227 acbd d171 07be
00000030: 5ade fc3c 3b0b f53c 2a21 76bd fe43 8d3d
00000040: a8cc 183c 6627 21bd 8570 be3b 3eee 4fbb
00000050: eb9a 0cbe 427d 1f3c 0860 42bd f48f d6bc
00000060: b5da 1e3e c304 bb3c c31b d03c e422 4a3d
00000070: f499 b2bd 7f8b ab3d 83cd f2bc edd7 13be
00000080: 6222 6ebd fdb7 f2bc cd8e 16be f654 363c
00000090: 90bf 3fbd 4092 d2bd 2d8b 7b3d 4bea 79bb
000000a0: 62f3 e4bd 4ae3 d23c eb85 33be 8083 c6bb
000000b0: 69a2 0d3e 1862 19bd 30bd c9bc 0885 003d
000000c0: a9af 723d 0abb 283d 1224 b13d 4ef1 f63c
000000d0: efd6 0d3d 5277 1d3d fa90 a23d 67fb 933d
000000e0: 029c e5bd 1370 fbbd 1a80 4f3d 655e bd3d
000000f0: 1275 543d 4d31 04bd cb5b 7dbd 817e fb3d
00000100: 202e 89be 4fa0 9abd 418e 70be 7a80 543d
00000110: 68a3 b53d 7a52 b83d 2bb2 a8bd c8b2 20bd
00000120: 73e1 d43d 29b0 9f3d daf3 db3c ba19 dbbd
00000130: de5e e739 a13d 9fbc f447 293e e036 c13d
00000140: 9ce6 bfbd 1fc5 263d f034 873e cc20 7abe
00000150: 7739 443d 1655 d2bd a80f 4c3c e073 75bc
00000160: d05f 48bd 1575 5d3c b8e6 a5bd ab98 32bd
00000170: 67df 3abe a905 023c 2cae a63d a7ca 113d
00000180: cd4e bdbd 9c72 313c 3ded 0fbd 0b5a 85bd
00000190: 8639 acbd 23f1 b8bd 2830 b53d 7007 8b3e
000001a0: b3f2 8d3e 0c4e a43c 4a7f 3ebe 2f6c 54bd
000001b0: 2371 87bd db97 ecbb 383d 8e3d ef1c 863d
000001c0: 3aec 2c3e 6bf4 94bb 6b04 58bd 0e66 ad3d
000001d0: 60e8 0fbc 6421 0f3e c6ab 22bd 17bf 853d
000001e0: 2bc3 71bd 2fa9 9d3c 93fd ccbd 002c 073d
000001f0: aa1c fdbc 9c7a e83c 6d35 2a3e bc89 843d
00000200: 921b 6abd d4c5 3bbd 8de5 23be 5e6e 1ebf
00000210: bd08 0dbe 97ea 9abe 7777 e2bd bc7b 85bc
00000220: abcc e6be 5b73 ecbc af03 99be 0121 1e3e
00000230: 7b1f 2e3e f8a5 583d 8c2c d2be b327 893e
00000240: 1a0a 193e 0179 d73c b86d aa3d d1bd 29bd
00000250: 92f5 87bd c4b2 443f d54e 293d 7ff2 07be
00000260: e7ee 943e c78c b6be 0566 70be baeb 58be
00000270: 7182 05bc e8ce 853e e737 483d e69f 98bd
00000280: a64b b53d b62a 55bf 4881 783d f01f c6be
00000290: 4b19 afbe be05 313e 21fa 4ebe e8cb 843e
000002a0: cae2 8d3d 9864 08be cb8b 5dbc ba8b 223e
000002b0: 341f 7c3d 8eeb ecbc 3d2b 113e d1c8 d33e
000002c0: 2e50 f3bd b432 563e 78ff 5c3e 8c48 c4bd
000002d0: 71a9 9ebe f893 243e eb74 4f3d aec5 9d3d
000002e0: 8711 b6be 7ad8 33bd 74d8 8c3c d991 87be
000002f0: bb6e a43e 3b67 033e 517a be3c 2263 04bf
00000300: 78b5 203f a480 9ebe 4fed b8be 0136 183e
00000310: 3baa 2fbe 5d7f 0ebd b4a2 413d dd1f 6d3c
00000320: 3743 5fbe 36ea 8b3c b9c9 a8bc 44ff ed3d
00000330: 05c3 903e 833b 393e 2aa6 0dbe eb6c cb3d
00000340: 1337 0ebd b40c b13d aa51 92be 2103 823e
00000350: 91ad d23e 25ae a4be 1dde 4cbe 2a9d 3abe
00000360: bd3e df3b a0da 7ebc 62a8 7ebd afb9 8a3c
00000370: 3c4b 143e 69f6 16bf b7a2 c03e 8f5c 843c
00000380: ebaa 3d3d 8606 f63d 7259 4fbf f8ab 80bd
00000390: ec18 263e 656f 6fbd 0cc5 463e c23c acbe
000003a0: 9a12 8d3e 6762 8dbc 11d2 333e 0ce4 003f
000003b0: a0c9 91bd ef6e 9cbd 4e75 cbba 46e9 a6be
000003c0: 4753 5cbe 9850 a3be 45eb 923e 1c78 c9be
000003d0: d81a 4a3d e284 6fbd 77a0 a43d ec22 ac3e
000003e0: 74c4 acbc 15ad 133f ffd2 88be 9450 98be
000003f0: 3777 07bf f709 643e 7a4a b9bd 2f98 a3be

l3.bias f4 [50]
-0.019772857 0.13939054 0.056442816 0.025875563 0.062201325 0.062032588 0.08522896 -0.06439793
0.02679533 0.06536112 -0.023929926 -0.01560342 0.08654382 0.04436116 -0.0017309497 -0.0076146876
-0.008422556 0.06347894 -0.040226456 0.0056288084 -0.0015378499 0.072942905 0.054823823 -0.017362569
0.010107151 0.060849566 0.014078934 -0.117485516 -0.015882166 -0.07441718 0.052260302 -0.01373162
0.06521062 -0.06300778 -0.03811878 -0.030912763 -0.026897263 -0.019621395 -0.027223038 -0.08375133
-0.0018573006 0.084747255 -0.077256456 -0.024923401 0.002024126 -0.087402016 -0.121583514 0.013437496
-0.10261813 -0.02330919
00000000: b0fa a1bc 65bc 0e3e 9530 673d fdf8 d33c
00000010: d1c6 7e3d e215 7e3d 858c ae3d 10e3 83bd
00000020: e181 db3c 0ddc 853d b108 c4bc 7da5 7fbc
00000030: e33d b13d 0cb4 353d 09e1 e2ba a184 f9bb
00000040: c3fe 09bc 3f01 823d 7fc4 24bd de71 b83b
00000050: ae91 c9ba 1763 953d f28e 603d f23b 8ebc
00000060: 7798 253c 653d 793d 54ab 663c 3f9c f0bd
00000070: 511b 82bc 0968 98bd e60e 563d 97fa 60bc
00000080: 258d 853d 390a 81bd 7022 1cbd c33c fdbc
00000090: a657 dcbc 0cbd a0bc d902 dfbc d185 abbd
000000a0: ab70 f3ba f88f ad3d a238 9ebd 292c ccbc
000000b0: 33a7 043b d4ff b2bd c700 f9bd f128 5c3c
000000c0: 7429 d2bd eaf2 bebc

l4.weight f4 [5, 50]
0.00017724937 -0.045326754 0.075897925 -0.09503456 -1.3419194 -0.0037618687 0.026718823 -0.030583344
-0.0021328968 0.015617547 0.00209761 -0.044403672 -0.020866921 -0.020272864 0.0003739066 -0.088981494
0.18040611 0.10988812 0.019546166 0.049523894 -0.008462773 -0.106053405 -0.04217994 0.011826365
-0.014695343 -0.068342276 0.12771238 0.007247218 0.1375575 -0.06241031 0.076670595 -0.058982573
-0.003303522 -0.018340027 -0.09193885 0.13375646 -0.0370692 -0.015822863 -0.023190292 0.15946047
-0.007333662 0.066608615 0.21926558 0.16069227 -0.007720368 0.03009682 0.16188042 0.021680482
-0.021771515 0.0018064752 -0.007446682 0.077975884 0.17423785 0.03575783 -0.017704157 0.04421055
0.024265034 0.107935876 0.010272407 0.006099839 0.033112098 0.13752636 0.32692873 -0.33426157
0.027427346 -0.0218314 -0.015016168 -0.15093425 -0.19884038 -0.69071203 0.00871716 0.13816102
-0.007485548 -0.06068124 -0.97547096 0.10524922 -0.07707849 -0.027594015 -0.021998677 0.030934902
-0.87685424 -0.099107206 0.0007355666 -0.09789187 0.09163398 0.015669236 -0.2843996 0.19588184
0.13652027 -0.064346276 0.0308442 0.08989651 0.21757086 0.14368291 -0.13033015 -0.75591946
-0.098981895 -0.026886627 0.14007524 0.06113536 -0.12020786 -0.7199865 0.12011264 0.013611809
0.2409035 0.058512866 -0.013312108 0.22011851 -1.4642345 -0.011004673 -0.15263149 0.17201075
-0.038028814 1.3112652 0.13151133 0.20353468 0.10485487 -0.18894613 -0.13363048 0.071704105
0.2807703 -0.12111456 0.11055442 -0.05506781 -0.7109086 0.13006848 -0.062036492 -0.6225344
0.1820453 0.11524713 -0.07562863 0.15780436 0.022192283 -0.03882151 0.11017637 -0.091932625
0.4483565 0.0054681003 0.04058218 0.10095752 -0.046008892 -0.1028643 0.046274506 -0.010605496
-0.030196525 -0.035635587 -0.35560513 -0.08530955 0.0031843393 -0.042198513 0.026783071 0.130262
-0.054008808 -0.13074018 -0.046953116 0.18275115 0.018321883 -0.10869747 -0.07978658 -1.5399374
-0.09366835 -0.085273795 -0.037171967 0.058029097 0.022905448 0.04799681 -0.08391351 -0.08959623
0.24358045 0.05061228 0.01652183 0.12016678 0.1647114 -0.11703807 0.07350728 0.08652184
-0.12657848 -0.00076251983 -0.009403508 -0.046603337 0.025051061 0.050195754 0.061549257 0.12068017
0.01389268 0.09296377 -0.039822657 -0.14635174 -0.008144704 -0.03400584 -0.37592173 0.16047671
0.04146527 -0.0490097 0.06391531 0.0017049334 0.12012398 0.025912665 0.18147303 0.27601656
0.29271036 -0.019878402 0.095825076 -0.12588823 0.0012993098 0.021219932 0.29145136 0.023691053
0.006634193 -0.016767131 -0.11092123 0.0076280036 -0.037447415 0.025116868 0.11847646 0.1469373
-0.011137917 -0.041333742 -0.23038188 -0.006472758 -0.0045925137 0.023814563 -0.10456181 0.12829016
0.048691608 -0.16018027 -0.014387771 -0.031532306 0.016701322 -0.04715518 -0.011478307 0.014004916
-1.4163277 -0.0750545 0.09979809 -0.11123273 -0.030559454 0.15238714 0.15614942 0.08409156
0.29609394 -0.01300947 0.0130482735 -0.060801722 0.20320402 -0.001630805 -0.0151259415 0.18264414
-0.038270585 -0.026634747
00000000: 04dc 3939 8ca8 39bd 5f70 9b3d 7ba1 c2bd
00000010: 04c4 abbf af89 76bb 6fe1 da3c ec89 fabc
00000020: 12c8 0bbb bde0 7f3c 0e78 093b a0e0 35bd
00000030: 1bf1 aabc 4713 a6bc e508 c439 ee3b b6bd
00000040: 61bc 383e 060d e13d 481f a03c 91d9 4a3d
00000050: 71a7 0abc 8732 d9bd dfc4 2cbd 5fc3 413c
00000060: bcc4 70bc 09f7 8bbd 09c7 023e 127a ed3b
00000070: e0db 0c3e f4a1 7fbd 7905 9d3d b697 71bd
00000080: e77f 58bb d33d 96bc 704a bcbd 74f7 083e
00000090: e0d5 17bd f39e 81bc 91f9 bdbc 9b49 233e
000000a0: 374f f0bb 196a 883d 2887 603e 848c 243e
000000b0: 24fb fcbb 9b8d f63c fbc3 253e 449b b13c
000000c0: 2d5a b2bc 40c7 ec3a 4c03 f4bb d2b1 9f3d
000000d0: 686b 323e cd76 123d 4f08 91bc 1f16 353d
000000e0: 77c7 c63c 7c0d dd3d 994d 283c 29e1 c73b
000000f0: 8da0 073d b6d3 0c3e 3463 a73e 5524 abbe
00000100: 50af e03c c4d7 b2bc 6006 76bc 828e 1abe
00000110: d09c 4bbe 81d2 30bf 6bd2 0e3c 157a 0d3e
00000120: 5449 f5bb e48c 78bd 77b8 79bf e78c d73d
00000130: 54db 9dbd d80c e2bc 9236 b4bc 316b fd3c
00000140: 8579 60bf b8f8 cabd 0ad3 403a 887b c8bd
00000150: 99aa bb3d c55c 803c d39c 91be 4095 483e
00000160: f8cb 0b3e fbc7 83bd faac fc3c a91b b83d
00000170: e5ca 5e3e 9d21 133e 4475 05be f083 41bf
00000180: 05b7 cabd 5841 dcbc e26f 0f3e 1269 7a3d
00000190: 8a2f f6bd 0951 38bf 9efd f53d 1104 5f3c
000001a0: 68af 763e 30ab 6f3d 071b 5abc bf66 613e
000001b0: 096c bbbf f24c 34bc 6e4b 1cbe 9623 303e
000001c0: 1ac4 1bbd 8ad7 a73f e8aa 063e 656b 503e
000001d0: 26be d63d 187b 41be 6ed6 08be 9ad9 923d
000001e0: 20c1 8f3e e90a f8bd 5b6a e23d c98e 61bd
000001f0: 1bfe 35bf ac30 053e fa19 7ebd 6a5e 1fbf
00000200: 156a 3a3e b006 ec3d 2fe3 9abd 7797 213e
00000210: 97cc b53c 4e03 1fbd 26a4 e13d 2c47 bcbd
00000220: fc8e e53e c02d b33b 8039 263d d1c2 ce3d
00000230: d273 3cbd 85aa d2bd 568a 3d3d adc2 2dbc
00000240: b45e f7bc 9ff6 11bd e011 b6be c6b6 aebd
00000250: 59b0 503b 59d8 2cbd 2c68 db3c 6763 053e
00000260: 5738 5dbd c1e0 05be e951 40bd 1e23 3b3e
00000270: c617 963c c79c debd 2567 a3bd ab1c c5bf
00000280: 31d5 bfbd 07a4 aebd a241 18bd ebaf 6d3d
00000290: 35a4 bb3c 4e98 443d d9da abbd 3a7e b7bd
000002a0: 276d 793e d24e 4f3d ca58 873c 001a f63d
000002b0: 1baa 283e a8b1 efbd fc8a 963d 5d32 b13d
000002c0: ca9d 01be d7e3 47ba 2c11 1abc 24e3 3ebd
000002d0: e237 cd3c 109a 4d3d 131b 7c3d 2a27 f73d
000002e0: 209e 633c ca63 be3d 151d 23bd 3bdd 15be
000002f0: 5d71 05bc b549 0bbd d078 c0be 0254 243e
00000300: 7dd7 293d 65be 48bd 08e6 823d 1278 df3a
00000310: 9003 f63d cc46 d43c 11d4 393e 0b52 8d3e
00000320: 22de 953e 08d8 a2bc f03f c43d d8e8 00be
00000330: 9a4d aa3a 6cd5 ad3c 1d39 953e bd13 c23c
00000340: a563 d93b 395b 89bc ab2a e3bd 55f4 f93b
00000350: 7662 19bd e4c1 cd3c c9a3 f23d bb76 163e
00000360: cf7b 36bc 924d 29bd 3ae9 6bbe 6e19 d4bb
00000370: cc7c 96bb c216 c33c 8124 d6bd 7f5e 033e
00000380: da70 473d 4c06 24be afba 6bbc 0528 01bd
00000390: 36d1 883c ca25 41bd 820f 3cbc e074 653c
000003a0: 3a4a b5bf 2cb6 99bd f162 cc3d fccd e3bd
000003b0: d257 fabc 600b 1c3e a2e5 1f3e 3238 ac3d
000003c0: a099 973e ac25 55bc 6dc8 553c 3a0b 79bd
000003d0: b714 503e bcc0 d5ba ccd2 77bc 1107 3b3e
000003e0: 9ec1 1cbd 1d31 dabc

l4.bias f4 [5]
0.017593224 -0.03562924 -0.10476304 0.040145412 0.09906582
00000000: aa1f 903c f7ef 11bd 018e d6bd 846f 243d
00000010: 05e3 ca3d

exp_avg f4 [250, 7]
1.1594064e-08 -3.0854238e-07 -6.363927e-10 -1.6042566e-08 1.5039876e-07 2.0778302e-08 -1.5706193e-07 -1.5490967e-07
3.8583025e-07 1.5561196e-07 1.47287835e-08 4.811706e-08 -1.5277047e-07 -7.4455994e-07 -7.526477e-08 -8.915302e-08
3.9608473e-08 -1.1613159e-07 -1.8521521e-07 -1.5883958e-07 5.1811515e-08 -1.535104e-08 -1.102293e-07 1.5307903e-08
-2.2946864e-08 -4.3037026e-08 1.1903088e-08 1.7044202e-08 -6.063431e-08 2.1431822e-07 -1.527574e-07 4.5454673e-08
8.5123503e-07 6.235338e-08 4.9854776e-07 1.6282755e-07 -6.060399e-08 4.7739666e-09 7.6636915e-08 3.3706918e-08
2.2335095e-07 5.4888017e-07 -4.0725304e-08 2.3875629e-08 -1.2821069e-07 1.5839915e-09 -4.0889978e-07 -2.0764881e-08
1.2387791e-07 -9.25862e-09 2.9368712e-07 1.6072296e-07 1.0928951e-07 3.6378844e-07 -1.1421134e-07 -1.8183923e-07
4.7448246e-08 1.8004249e-07 2.2109054e-08 3.584775e-08 3.8762828e-08 8.81154e-08 -1.8980445e-07 -1.769866e-07
5.980589e-07 3.5545028e-07 2.7590845e-09 -3.998203e-07 -2.0572388e-07 -1.0054333e-06 1.6894033e-07 7.8893834e-08
1.5025311e-07 1.9516142e-07 1.4250588e-08 -2.858541e-07 -3.4043757e-07 -1.2950899e-07 -4.016774e-07 -1.1614782e-07
-1.3442194e-07 -3.1515813e-07 -2.2273035e-07 6.4096315e-07 1.9478844e-07 5.8740728e-08 5.3422365e-08 7.208847e-09
1.0248537e-07 3.6495254e-07 -6.6154485e-08 -1.5124039e-07 -8.562001e-07 -1.1114202e-07 6.614565e-08 -7.370122e-08
-9.912062e-08 1.0408997e-06 -2.0634387e-08 6.398308e-08 1.4859803e-07 -1.500362e-07 -1.8186152e-07 1.8199612e-08
-1.545341e-07 3.29683e-08 -3.6340512e-07 3.2782944e-07 2.2440899e-08 -4.5237428e-07 2.5495082e-08 4.0707615e-08
-4.4600935e-08 4.788519e-08 9.536834e-10 -1.42725725e-08 2.052265e-09 -5.402824e-10 -6.296491e-08 -2.9786275e-07
8.975143e-07 2.8763273e-07 7.790995e-08 2.9401798e-07 -1.7359257e-07 -3.3042258e-07 -6.7417595e-08 -1.6725765e-07
-8.924785e-08 3.9107695e-09 -3.68068e-07 3.9252714e-07 1.41439935e-08 -1.1135088e-09 1.4930431e-07 9.9722905e-09
-2.179607e-08 1.9508138e-07 2.0138182e-09 4.8818396e-07 3.1008042e-08 -4.1996515e-07 -4.653021e-08 -3.73113e-09
-3.6300327e-07 -1.7219547e-07 4.319006e-07 -1.3995914e-07 2.2855059e-07 -2.0855763e-08 1.6260568e-08 4.7800273e-07
4.4485322e-08 3.4128963e-08 4.8913343e-08 1.5764431e-07 2.028189e-07 1.2429282e-07 1.5970585e-08 6.229083e-08
-1.4698524e-07 6.914964e-08 -1.04016024e-07 -2.0752655e-07 6.471661e-08 -6.9008036e-07 5.453642e-08 7.415596e-08
2.7241157e-07 -2.580201e-07 1.8023509e-07 1.3088297e-07 -1.105975e-06 -1.9705722e-07 -5.8592326e-07 8.4484235e-08
1.879661e-07 3.7308567e-08 -3.265401e-08 9.120609e-08 -1.06633244e-07 -6.430752e-08 -2.3340701e-07 2.93748e-07
3.1213297e-08 8.641043e-08 8.99337e-07 -2.684868e-07 3.8096388e-07 -6.036961e-08 8.556105e-08 -9.313359e-09
6.988675e-09 -2.635713e-07 -6.304947e-10 -7.138046e-08 7.771332e-08 -6.910483e-08 -1.5878427e-07 1.2062162e-07
8.9322e-07 2.1038801e-07 3.7138545e-07 4.8416325e-08 1.7472313e-07 -1.64164e-07 4.123469e-08 -4.2915982e-08
4.6170804e-08 -1.7136232e-07 -1.1018816e-07 5.821698e-08 -1.9275788e-08 1.6588574e-08 -1.1973844e-07 -1.10904814e-07
5.1841216e-08 7.564323e-08 9.718932e-07 5.049702e-07 1.3929424e-08 7.287722e-07 9.793444e-08 -8.090579e-07
6.1110144e-09 -8.3266505e-10 4.982784e-08 -5.7854077e-08 -9.599219e-08 -8.625249e-08 -1.08387376e-07 -2.2803745e-08
1.5636937e-07 1.1277028e-07 1.3267291e-09 -1.3261267e-07 -5.221547e-08 -2.2756018e-07 -1.6131122e-07 1.2009227e-07
9.741291e-08 -1.559183e-08 1.5892402e-07 -7.097147e-07 -4.0444888e-07 2.600902e-07 -1.1127753e-08 7.0600086e-09
-4.4172076e-08 -4.067228e-07 -1.11874286e-07 -1.10153216e-07 4.0146716e-08 -4.535714e-08 2.2297879e-08 3.3376452e-08
00000000: 3c2f 4732 bea5 a5b4 28ee 2eb0 facd 89b2
00000010: 4c7d 2134 f87b b232 dba4 28b4 3f55 26b4
00000020: 1b24 cf34 4a16 2734 e009 7d32 44a9 4e33
00000030: 3a09 24b4 c5dd 47b5 3fa1 a1b3 6474 bfb3
00000040: fa1d 2a33 0464 f9b3 92df 46b4 7e8d 2ab4
00000050: 5d87 5e33 4bdd 83b2 33b7 ecb3 6f7e 8332
00000060: b01c c5b2 b6d7 38b3 567e 4c32 9968 9232
00000070: 1036 82b3 581f 6634 a205 24b4 f139 4333
00000080: 6d80 6435 22e7 8533 f1d3 0535 b2d5 2e34
00000090: 6525 82b3 4108 a431 9793 a433 26c5 1033
000000a0: 3ed2 6f34 c256 1335 f2e9 2eb3 1017 cd32
000000b0: 49aa 09b4 bfb3 d930 c286 dbb4 755e b2b2
000000c0: 4d03 0534 d70f 1fb2 0dac 9d34 3193 2c34
000000d0: 8bb2 ea33 b44e c334 5944 f5b3 963f 43b4
000000e0: e6c9 4b33 b451 4134 53ea bd32 05f7 1933
000000f0: 2e7c 2633 f439 bd33 0dcd 4bb4 b509 3eb4
00000100: 4b8a 2035 b7d4 be34 549a 3d31 e2a6 d6b4
00000110: f3e4 5cb4 6df2 86b5 f765 3534 586c a933
00000120: 4355 2134 908d 5134 c0d2 7432 7d77 99b4
00000130: 62c5 b6b4 290f 0bb4 1fa6 d7b4 f06c f9b3
00000140: 9f55 10b4 0133 a9b4 a727 6fb4 a70e 2c35
00000150: 0a27 5134 1d4a 7c33 8372 6533 b0b1 f731
00000160: ee15 dc33 b2ee c334 d010 8eb3 a464 22b4
00000170: 9fd5 65b5 f9ac eeb3 f50b 8e33 ad45 9eb3
00000180: 23dc d4b3 0bb5 8b35 7f3f b1b2 1267 8933
00000190: 518e 1f34 a319 21b4 b745 43b4 5f55 9c32
000001a0: 03ee 25b4 0799 0d33 051a c3b4 8900 b034
000001b0: 0fc4 c032 d9dd f2b4 4700 db32 7fd6 2e33
000001c0: 3f8f 3fb3 53aa 4d33 c012 8330 7033 75b2
000001d0: d407 0d31 fe82 14b0 5337 87b3 f2e9 9fb4
000001e0: b7ec 7035 f16b 9a34 734f a733 86d9 9d34
000001f0: c364 3ab4 ef64 b1b4 37c7 90b3 6f97 33b4
00000200: 86a8 bfb3 7e5f 8631 e19a c5b4 85bc d234
00000210: f1fd 7232 1c0a 99b0 7550 2034 9952 2b32
00000220: 113a bbb2 9077 5134 7763 0a31 bf0b 0335
00000230: b42d 0533 9277 e1b4 82d8 47b3 5e33 80b1
00000240: cae2 c2b4 bbe4 38b4 f7df e734 ad47 16b4
00000250: 8267 7534 4f26 b3b2 5ead 8b32 1950 0035
00000260: 2110 3f33 3195 1233 ca14 5233 f044 2934
00000270: 6fc6 5934 5a75 0534 b02f 8932 bfc4 8533
00000280: ffd2 1db4 6b7f 9433 6a5f dfb3 77d4 5eb4
00000290: 55fa 8a33 f63d 39b5 6e3b 6a33 ac3f 9f33
000002a0: f63f 9234 0386 8ab4 a586 4134 d688 0c34
000002b0: 0371 94b5 ad96 53b4 5748 1db5 b36d b533
000002c0: bad3 4934 343d 2033 773f 0cb3 14dd c333
000002d0: 3ffe e4b3 6f19 8ab3 6e9e 7ab4 6bb4 9d34
000002e0: 620f 0633 a390 b933 f869 7135 8b24 90b4
000002f0: 4787 cc34 8ba4 81b3 afbd b733 9600 20b2
00000300: 0921 f031 f780 8db4 1f4f 2db0 d349 99b3
00000310: 59e3 a633 c866 94b3 4a7e 2ab4 3884 0134
00000320: 9cc5 6f35 04e7 6134 d462 c734 50f2 4f33
00000330: 879b 3b34 0f45 30b4 051a 3133 9f52 38b3
00000340: 564d 4633 b7ff 37b4 95a0 ecb3 3f0a 7a33
00000350: e893 a5b2 a97e 8e32 7491 00b4 912a eeb3
00000360: 05a8 5e33 4e71 a233 ff71 8235 4a8d 0735
00000370: 414e 6f32 d8a0 4335 0750 d233 092e 59b5
00000380: 0df9 d131 98e1 64b0 4a02 5633 3b7b 78b3
00000390: 4424 ceb3 cf39 b9b3 97c2 e8b3 f7e1 c3b2
000003a0: 7ce6 2734 1e2c f233 2158 b630 4b64 0eb4
000003b0: 8443 60b3 4457 74b4 e434 2db4 b6f2 0034
000003c0: 5031 d133 ccee 85b2 b4a4 2a34 3983 3eb5
000003d0: 0823 d9b4 86a2 8b34 602c 3fb2 7e94 f231
000003e0: b6b7 3db3 8e5b dab4 8a3f f0b3 5f8d ecb3
000003f0: c86d 2c33 b4ce 42b3 8e89 bf32 cc59 0f33

exp_avg_sq f4 [250, 7]
9.386504e-13 3.1663328e-11 6.8238725e-13 1.4996667e-13 2.1190225e-11 1.5098221e-12 4.267273e-12 1.05641025e-11
6.20974e-11 2.172457e-12 3.904275e-13 9.944311e-13 3.9508397e-12 9.1089844e-11 3.8306419e-13 1.7089384e-12
1.3171936e-12 7.205694e-12 1.9208912e-10 2.1376347e-12 1.2317333e-10 1.2108759e-13 2.7330772e-12 2.3254434e-12
2.350035e-13 1.0213487e-12 4.1248312e-14 1.9590002e-12 4.173734e-13 7.866295e-12 1.258707e-11 6.441231e-12
4.7070614e-10 1.653544e-12 1.0094071e-10 5.6269815e-12 3.313809e-12 6.805681e-13 3.7331162e-13 3.8523802e-11
2.1258917e-11 2.569802e-10 7.8819834e-13 5.034191e-13 2.9111759e-12 1.1780243e-12 7.555222e-11 2.7202433e-14
1.0644235e-11 4.23137e-12 6.326258e-11 7.748582e-12 2.3021795e-12 3.852361e-10 1.6168216e-11 2.313943e-11
4.1298754e-13 1.3748688e-12 9.112786e-13 2.890391e-13 2.5908483e-12 7.719079e-13 3.781037e-12 1.7725783e-11
1.3434255e-10 4.7176322e-11 2.7635314e-12 1.419218e-10 1.679232e-11 3.9584344e-10 1.98398e-12 2.942913e-11
3.187906e-12 2.3307816e-12 2.0197573e-10 6.6169334e-11 1.13135036e-10 7.054909e-12 5.347818e-11 2.2934911e-12
5.658791e-13 8.030105e-12 1.5982366e-11 1.3460674e-10 1.4123888e-11 6.6233645e-13 1.0231633e-12 1.8415494e-13
7.1531865e-12 6.0534036e-11 5.6002354e-13 2.802297e-12 2.9488367e-10 1.5341003e-11 4.5739676e-13 4.4372652e-12
3.4345886e-12 2.2185653e-10 8.4795886e-14 8.020423e-12 7.508072e-12 8.096379e-13 1.2217411e-11 2.1773573e-14
4.982053e-12 1.0493755e-13 1.14364525e-11 9.370585e-12 1.2253135e-12 5.92474e-11 1.2498403e-13 2.8188826e-13
2.702915e-13 3.3347567e-12 1.264516e-13 1.3181471e-13 2.332963e-13 3.5740063e-13 7.98026e-13 2.5478836e-11
5.3457305e-10 5.1593323e-11 2.862993e-13 2.947377e-10 8.95912e-12 1.902906e-10 9.304946e-12 2.4176187e-11
2.029624e-12 8.010819e-12 1.07485805e-10 3.1891267e-11 4.214552e-12 3.5796138e-12 8.996036e-12 9.0168053e-13
1.8070407e-13 9.218431e-11 3.7755617e-13 7.338781e-11 1.7477579e-12 6.770919e-11 2.6119122e-12 7.1127533e-13
7.755341e-11 6.431305e-11 2.50193e-10 9.473871e-12 5.365049e-12 3.214169e-13 6.904941e-13 5.7219455e-11
3.4689298e-12 4.49316e-12 1.4304125e-13 1.5575081e-12 2.5572005e-12 3.8020654e-12 2.3458931e-11 9.4352836e-14
6.0931473e-12 5.610233e-13 2.001905e-10 7.2868274e-11 6.829271e-12 6.180072e-10 2.8082512e-12 4.2338685e-11
4.9417844e-12 3.2329805e-11 1.6121625e-11 7.806096e-12 6.7534145e-10 2.172389e-11 2.3862043e-10 3.974158e-12
4.9612727e-12 2.0290653e-13 2.2726678e-14 2.823919e-12 1.766384e-12 1.181955e-12 1.0475808e-11 1.3541909e-11
3.2160078e-12 1.562812e-12 5.98902e-10 1.9639755e-11 3.862482e-11 2.4973576e-12 3.1834147e-12 8.1996654e-13
1.7673794e-13 2.129493e-11 3.9777125e-14 1.118729e-12 1.5386497e-12 3.2726523e-12 2.0253708e-12 3.6045846e-13
1.1555806e-10 4.2053357e-12 1.6203797e-11 7.5828666e-13 8.3889805e-12 1.4485135e-11 4.6079134e-13 1.4505563e-12
3.5767204e-13 1.2835399e-11 1.0292484e-11 9.837103e-13 2.1771928e-13 1.2276843e-12 5.84973e-12 9.7289485e-12
6.829839e-13 1.0506608e-12 2.5933944e-10 9.657413e-11 6.5486337e-13 1.4821926e-10 5.062546e-12 3.5222958e-10
2.3540135e-12 1.1193657e-11 2.5338455e-12 7.2002316e-13 9.734959e-12 2.2664125e-12 2.2433104e-12 2.6004085e-13
9.0713305e-12 5.4305263e-12 2.3513281e-12 6.8485174e-12 1.1270182e-12 6.2394735e-11 3.05665e-11 8.5469555e-13
2.376824e-12 2.3972285e-13 5.908452e-12 8.032303e-11 3.6704098e-11 2.2784784e-11 5.8509985e-12 1.2955e-12
1.2824295e-12 5.1784e-11 1.1246138e-11 1.885691e-12 2.0243033e-13 7.3732334e-13 3.436644e-13 6.5817143e-13
00000000: 721a 842b bd41 0b2e 2f13 402b f3d8 282a
00000010: 2564 ba2d 137d d42b 2e24 962c 7dd8 392d
00000020: ba8d 882e 82df 182c 88ca db2a 28f4 8b2b
00000030: 0002 8b2c 064f c82e 5ea5 d72a ff82 f02b
00000040: e760 b92b 1f87 fd2c 4834 532f 346c 162c
00000050: 366e 072f 1f55 082a be52 402c 77a3 232c
00000060: 934b 842a f7bd 8f2b 11c4 3929 36da 092c
00000070: d9f5 ea2a a562 0a2d 206f 5d2d 73a1 e22c
00000080: 0063 0130 33b7 e82b 91f8 dd2e 58fb c52c
00000090: 4730 692c 1a90 3f2b e027 d22a f26d 292e
000000a0: d3fe ba2d bf46 8d2f addb 5d2b 2bb3 0d2b
000000b0: 15db 4c2c ccca a52b 1e24 a62e 8a04 f528
000000c0: 5f41 3b2d cbe0 942c ab1d 8b2e 8350 082d
000000d0: 6100 222c 29c9 d32f 9637 8e2d 5d89 cb2d
000000e0: c77d e82a de7e c12b 4640 802b edb6 a22a
000000f0: 9350 362c d345 592b 8e08 852c eaea 9b2d
00000100: 11b6 132f d17b 4f2e 5b77 422c 6f0b 1c2f
00000110: f1b4 932d 039e d92f 359c 0b2c 416e 012e
00000120: 3654 602c a103 242c 1d13 5e2f 0682 912e
00000130: 5dc9 f82e f938 f82c 1433 6b2e dd63 212c
00000140: e347 1f2b 6144 0d2d 1795 8c2d 6e00 142f
00000150: 5678 782d 5f6e 3a2b 58ff 8f2b 0c57 4f2a
00000160: 2dae fb2c a21d 852e f3a1 1d2b b231 452c
00000170: 301d a22f def0 862d e9be 002b 551f 9c2c
00000180: 0cb0 712c 10ef 732f 80f1 be29 c618 0d2d
00000190: 5a15 042d 8fe4 632b 54ee 562d 711e c428
000001a0: 584a af2c 614c ec29 3431 492d 5dd9 242d
000001b0: 9272 ac2b 5249 822e 32b8 0c2a 61b0 9e2a
000001c0: 1c29 982a a3a9 6a2c 315f 0e2a 0169 142a
000001d0: 8a55 832a dc32 c92a d59f 602b 3d1d e02d
000001e0: 3cf1 1230 ebe8 622e 142c a12a a508 a22f
000001f0: 4a9c 1d2d 0b3a 512f c0b1 232d efa7 d42d
00000200: 75d2 0e2c 85ed 0c2d 215d ec2e 6042 0c2e
00000210: 4f49 942c 97e4 7b2c 8b42 1e2d eecc 7d2b
00000220: 6774 4b2a 27b7 ca2e 948b d42a aa61 a12e
00000230: 9df9 f52b e3e4 942e 07cc 372c ca34 482b
00000240: b08a aa2e 076d 8d2e 898b 892f 86aa 262d
00000250: 11c4 bc2c 0ff1 b42a 585b 422b 61a7 7b2e
00000260: af1a 742c ca16 9e2c d50c 212a 2533 db2b
00000270: 6ef2 332c f6c5 852c d158 ce2d b576 d429
00000280: 3162 d62c fde9 1d2b 9e1c 5c2f 313d a02e
00000290: 9b48 f02c 64e0 2930 f59c 452c 1f35 3a2e
000002a0: a3df ad2c 2030 0e2e acce 8d2d 8853 092d
000002b0: eea2 3930 da15 bf2d d72e 832f 08d4 8b2c
000002c0: 2c8f ae2c d373 642a 27b4 cc28 34b7 462c
000002d0: b198 f82b 6b58 a62b d84a 382d 563b 6e2d
000002e0: 724e 622c 3cf2 db2b fb9f 2430 ccc0 ac2d
000002f0: aedf 292e 65bc 2f2c 4d03 602c d1cc 662b
00000300: 3efd 462a eb4f bb2d e723 3329 7672 9d2b
00000310: b38b d82b dd4a 662c d685 0e2c 8aeb ca2a
00000320: 681d fe2e 4cf6 932c b587 8e2d 5070 552b
00000330: 9c94 132d 40d3 7e2d 84b3 012b cc25 cc2b
00000340: f959 c92a 80cd 612d 3a11 352d e671 8a2b
00000350: 4f21 752a fdc7 ac2b afd1 cd2c 4a27 2b2d
00000360: 2d3e 402b 0bde 932b c892 8e2f 675e d42e
00000370: e153 382b 03f8 222f 5c1f b22c e8a3 c12f
00000380: 23a6 252c c0eb 442d b44d 322c 23ab 4a2b
00000390: 5c42 2b2d 0f7c 1f2c e3db 1d2c d663 922a
000003a0: a495 1f2d d511 bf2c c375 252c f6f5 f02c
000003b0: 1c9d 9e2b 1d35 892e d26e 062e 4e93 702b
000003c0: 0e41 272c b4f3 862a 9be2 cf2c d9a1 b02e
000003d0: 246d 212e c66a c82d 1cdd cd2c 4e53 b62b
000003e0: 647c b42b 9abf 632e 1ad8 452d 97b1 042c
000003f0: 92ea 632a bf89 4f2b 4277 c12a 4042 392b
