motion_planning/NN_model/models/single_4.pt (torch, 504730 bytes, 24 tensors)

l1.weight f4 [250, 7]
0	0x3e3f13d5	0.18659909
1	0x3eb654af	0.35611483
2	0x3db97858	0.09056157
3	0xbda7025a	-0.081547454
4	0xbfaa6415	-1.3311793
5	0x3ee31b21	0.44356635
6	0x3f6a01b0	0.91408825
7	0xbe7de492	-0.24794224
8	0x3e067f3a	0.1313447
9	0xbf2d3646	-0.6766094
10	0x3e7492ce	0.23884127
11	0xbc555a94	-0.013022084
12	0xbf218775	-0.63097316
13	0x3ea8c6ee	0.3296427
14	0xbb8da88c	-0.004323071
15	0xbe0e579e	-0.13900611
16	0xbf0f92e2	-0.560835
17	0x3d48d11e	0.049027555
18	0x3f38232f	0.71928686
19	0x3f47a428	0.7798486
20	0xbf5b8ec7	-0.85764736
21	0xbe366bf2	-0.17814615
22	0xbebff0de	-0.37488455
23	0x3f05f666	0.523291
24	0x3cb3aa4f	0.021931795
25	0xbf966bc8	-1.1751642
26	0x3e96a6ce	0.29424137
27	0x3f26a07b	0.65088624
28	0x3f318553	0.6934406
29	0xbe1db99c	-0.15402836
30	0x3ddd06a0	0.10792279
31	0xbd8b0d19	-0.067896076
32	0x3eceacad	0.40366116
33	0x3e36f387	0.17866336
34	0xbd1703b3	-0.036868762
35	0x3dde9e1e	0.10870002
36	0x3e65cc04	0.22441107
37	0xbe5aff73	-0.21386509
38	0x3bd7f8f7	0.006590958
39	0x3f382235	0.71927196
40	0x3f2b45a0	0.66903114
41	0xbed01fa9	-0.40649155
42	0xbd936dfd	-0.07198713
43	0x3efb93d5	0.49136224
44	0xbf2a0044	-0.66406655
45	0xbcae44ac	-0.02127298
46	0xbe60e3ab	-0.21961848
47	0xbf857d24	-1.0428815
48	0x3f942a42	1.1575396
49	0x3e2a8f65	0.16656263
50	0xbdb607b3	-0.08888187
51	0xbe27c3db	-0.16383307
52	0xbedbad70	-0.4290576
53	0x3dd196eb	0.102338634
54	0x3fb30623	1.3986248
55	0x3e4b2521	0.19838382
56	0xbc1c0250	-0.009522036
57	0x3e85a92d	0.26105633
58	0x3f2178e3	0.63075083
59	0xbe5486f1	-0.20754601
60	0x3ce8430d	0.028352285
61	0xbf0899a9	-0.53359467
62	0x3c61703d	0.01375967
63	0x3ee68d8a	0.4502986
64	0x3eeac1f0	0.45851088
65	0xbe6dfbf7	-0.23240648
66	0xbde77ef6	-0.11303513
67	0xbec4124f	-0.38295218
68	0xbf60b916	-0.8778242
69	0xbf551f02	-0.8325044
70	0x3de2643e	0.11054276
71	0xbd5e3451	-0.05424911
72	0x3f22d227	0.6360192
73	0xbe634f34	-0.22198182
74	0xbf4976f5	-0.7869714
75	0x3db72299	0.08942146
76	0xbf81e926	-1.0149276
77	0xbe60cc08	-0.21952832
78	0x3ecec2d6	0.40383023
79	0x3eeba803	0.4602662
80	0xbe0b5233	-0.13605575
81	0x3edd1b65	0.43184963
82	0xbfa14258	-1.2598372
83	0x3fbf6021	1.4951211
84	0xbe53626d	-0.20643015
85	0x3f160f49	0.58617073
86	0x3e44997d	0.19199176
87	0x3e5ec541	0.21754934
88	0xbf0eb5cf	-0.5574617
89	0xbf27b4fd	-0.6551054
90	0x3e0b6796	0.13613734
91	0xbebf19ce	-0.37324375
92	0xbf05270d	-0.5201271
93	0x3ed166ba	0.40898687
94	0xbe908710	-0.28228045
95	0xbec36de4	-0.38169777
96	0xbf38b848	-0.7215619
97	0x3c771d27	0.015082634
98	0xbea35c72	-0.31906468
99	0xbd21d867	-0.039513018
100	0x3df66d0c	0.12032518
101	0x3e2cfc4d	0.1689312
102	0xbf77d25d	-0.96805364
103	0xbf1d918f	-0.6155023
104	0x3e83ef61	0.2576857
105	0xbef9faf1	-0.48824266
106	0xbc94eb92	-0.018178735
107	0xbea4312a	-0.3206876
108	0xbd85d463	-0.0653465
109	0xbe9a5bf8	-0.30148292
110	0x3ebd8ade	0.3702001
111	0xbededcfb	-0.4352797
112	0xbeac5f1e	-0.3366632
113	0x3de30119	0.11084194
114	0xbe6f4105	-0.23364647
115	0x3f14e853	0.58167
116	0x3f896fc7	1.0737237
117	0x3f1ffb9c	0.624933
118	0x3e7ea8e5	0.24869116
119	0x3e92a0af	0.28638217
120	0x3e83df39	0.25756243
121	0x3eef14d8	0.4669559
122	0x3f112b04	0.5670626
123	0xbf03fe81	-0.5156022
124	0xbed9a015	-0.42504945
125	0x3f608565	0.87703544
126	0x3d7a24f9	0.061070416
127	0xbf011205	-0.5041812
128	0x3dda58f4	0.10661498
129	0x3cd43d28	0.025908068
130	0xbf604897	-0.87610763
131	0x3f64da86	0.8939594
132	0x3f8a0b0a	1.0784619
133	0xbe3898d1	-0.18027045
134	0x3ea7fd63	0.32810506
135	0xbf1f3123	-0.6218435
136	0x3dd8fd8d	0.10595236
137	0x3c103e8a	0.008803973
138	0x3f27c9b6	0.6554216
139	0xbea1a364	-0.3156997
140	0xbed54964	-0.41657555
141	0xbd91797f	-0.07103252
142	0xbf2c404d	-0.67285615
143	0xbe6bb802	-0.23019412
144	0x3f784984	0.96987176
145	0xbdd2444e	-0.10266934
146	0x3f929f4c	1.1454864
147	0x3d3a082e	0.045417957
148	0xbf1cbb8e	-0.61223686
149	0xbee50189	-0.44727734
150	0x3eddb069	0.43298653
151	0x3e3cbac3	0.18430619
152	0x3e7ba60d	0.24575062
153	0x3f363407	0.7117314
154	0xbef28744	-0.47368824
155	0x3ddfb9ff	0.10924148
156	0xbeb841f4	-0.35987818
157	0x3c927f76	0.017883044
158	0x3f8042de	1.0020406
159	0xbe1f100e	-0.15533468
160	0x3f01419b	0.5049073
161	0xbe920137	-0.28516552
162	0xbf19731e	-0.5994128
163	0x3e347593	0.17622976
164	0xbe390297	-0.18067394
165	0x3f27693e	0.6539496
166	0x3f454312	0.77055466
167	0x3f8344d0	1.0255375
168	0x3cf80e41	0.030280234
169	0xbded8492	-0.115975514
170	0xbc116728	-0.008874692
171	0xbd0412c0	-0.032244444
172	0x3f3b22b2	0.73099816
173	0xbf687528	-0.90803766
174	0xbf7c54c7	-0.9856686
175	0xbecd896d	-0.4014391
176	0x3d97ebf2	0.0741805
177	0x3df62f7b	0.12020775
178	0x3e8e7758	0.27825427
179	0xbf047ee0	-0.51756096
180	0xbf3907f3	-0.72277755
181	0xbf0bb54f	-0.5457353
182	0xbe5791cd	-0.21051712
183	0xbf251f3f	-0.645008
184	0x3eeb9da8	0.4601872
185	0xbc836e19	-0.01604371
186	0x3e78d8e9	0.24301495
187	0xbeb7fdf6	-0.35935944
188	0xbe1276b4	-0.14303094
189	0xbe8d2081	-0.2756386
190	0x3e1263cd	0.14295883
191	0xbedb75c9	-0.428633
192	0x3eab436c	0.33449876
193	0xbf08275e	-0.5318507
194	0xbe214b8e	-0.15751478
195	0xbefaf18a	-0.49012405
196	0x3e94b775	0.29046217
197	0xbe62267f	-0.22084998
198	0xbeefa3fb	-0.46804795
199	0x3dec5832	0.115402594
200	0xbf9620fc	-1.1728816
201	0x3fb4865b	1.4103502
202	0xbf66ebb0	-0.9020338
203	0x3f0af1d6	0.5427526
204	0xbe07fd1d	-0.13280149
205	0x3f125d7f	0.57173914
206	0x3eaa0dbb	0.332136
207	0x3f4b80f9	0.7949367
208	0xbf037a01	-0.5135804
209	0xbd8817d7	-0.06645172
210	0xbf273164	-0.6530974
211	0xbe7af04f	-0.24505733
212	0x3e9c3b4f	0.30514
213	0xbe1947ef	-0.14968847
214	0xbeb39f07	-0.35082266
215	0xbedab71d	-0.4271783
216	0xbd600751	-0.054694477
217	0xbedd894b	-0.4326881
218	0xbd0ac84b	-0.03388242
219	0xbea84b36	-0.3286988
220	0xbea71b4d	-0.32638016
221	0xbe5d9375	-0.21638282
222	0xbdd98d92	-0.106227055
223	0x3e968edf	0.29405877
224	0x3e2e587d	0.17025943
225	0x3bdb4745	0.0066918456
226	0x3f3ea6bd	0.7447317
227	0xbd05cca5	-0.032665867
228	0x3e6ed455	0.23323186
229	0x3f86ee8d	1.054155
230	0x3e0d2e16	0.13787112
231	0x3d8f7b08	0.07005888
232	0x3f281812	0.6566173
233	0x3eb21364	0.3478042
234	0x3ecf3aea	0.40474635
235	0x3eedd497	0.46451256
236	0xbe907902	-0.28217322
237	0x3f123d90	0.57125187
238	0xbccb21a5	-0.024796316
239	0x3e64a2b2	0.22327688
240	0xbf04f0ea	-0.51930106
241	0xbd444899	-0.047920797
242	0x3f24c65e	0.64365184
243	0x3f283611	0.657075
244	0x3d663e92	0.056212015
245	0xbeb97dfc	-0.3622893
246	0x3ec6df31	0.38842157
247	0x3e76111f	0.24029969
248	0xbdb3cbc4	-0.087790996
249	0x3e0518d9	0.1299776
250	0x3f6a24d4	0.91462445
251	0x3f00a2f4	0.50248647
252	0x3d9bc454	0.07605806
253	0xbde699e4	-0.11259821
254	0x3f0c5773	0.54820937
255	0x3ed0afc9	0.40759113

l1.bias f4 [250]
0	0xbd036a1a	-0.03208361
1	0x3e1f80d6	0.15576491
2	0x3f1ee48e	0.62067497
3	0xbefc5de8	-0.49290395
4	0x3f091edf	0.5356273
5	0x3ee59ab9	0.44844607
6	0xbe84e5e1	-0.25956634
7	0x3f08c264	0.53421617
8	0xbe9174d8	-0.28409457
9	0xbe9c4e7a	-0.30528623
10	0xbf16703e	-0.5876502
11	0x3dc3d12f	0.09561383
12	0x3f1c2149	0.6098829
13	0x3f27449d	0.6533907
14	0x3bebcd60	0.0071961135
15	0x3ef0096d	0.4688219
16	0xbef78434	-0.4834305
17	0x3ec8479b	0.3911713
18	0x3e855b4f	0.26046225
19	0x3eb07d0b	0.344704
20	0xbeb159b7	-0.3463876
21	0xbe636fde	-0.22210643
22	0x3eb7caab	0.3589681
23	0xbec73aff	-0.38912198
24	0xbe208308	-0.15674984
25	0x3e045883	0.1292439
26	0xbe5daf84	-0.21648985
27	0x3e90a4c3	0.28250703
28	0xbde5d56f	-0.1122235
29	0xbdbb57be	-0.09147595
30	0x3d074e39	0.033033583
31	0x3efad868	0.4899323
32	0xbd5e06ff	-0.05420589
33	0xbeca2a03	-0.39485177
34	0xbea5895f	-0.32331368
35	0x3ee6c188	0.45069528
36	0xbec92a3b	-0.39290032
37	0xbeb67368	-0.35634923
38	0xbe66686b	-0.2250077
39	0xbc964eab	-0.018348059
40	0x3f159fec	0.58447146
41	0xbd658ab9	-0.0560405
42	0x3ec7ef7a	0.39049894
43	0xbeacfb6a	-0.33785564
44	0x3df00e6d	0.117215015
45	0x3bf58a8c	0.0074933227
46	0x3f045ffd	0.51708966
47	0x3f04d623	0.51889247
48	0x3dbd4e8f	0.092434995
49	0x3ec766e8	0.389457
50	0x3eed9d5a	0.46409112
51	0x3d503361	0.05083025
52	0x3f1aa8eb	0.60414
53	0x3f156e9d	0.5837191
54	0x3e65b125	0.22430857
55	0x3eb4d70c	0.35320318
56	0x3e877ade	0.26460928
57	0xbe89bd0f	-0.26902053
58	0xbdaafa66	-0.08348541
59	0x3e0bc74a	0.13650241
60	0xbea2cb3a	-0.31795675
61	0xbf151187	-0.5822987
62	0xbe3fb2b9	-0.18720521
63	0xbe83a2a6	-0.25710028
64	0x3f499d22	0.7875539
65	0xbe31ca3b	-0.17362301
66	0xbed6e282	-0.41969687
67	0xbe86787b	-0.26263794
68	0x3e384bf4	0.17997724
69	0x3f075f8b	0.5288016
70	0xbe81f624	-0.25383103
71	0x3e7070c8	0.23480523
72	0xbe8e87a9	-0.27837875
73	0x3f202d0f	0.62568754
74	0x3dd2effe	0.10299681
75	0x3e3da867	0.18521272
76	0x3eef8bf4	0.46786463
77	0x3f07701e	0.5290545
78	0xbe912753	-0.28350314
79	0xbbbfe58d	-0.005856222
80	0x3e7e9f33	0.24865417
81	0x3ec8d44c	0.3922447
82	0x3e185b97	0.14878689
83	0x3e8acd85	0.27109924
84	0x3efde8b0	0.4959159
85	0x3dadeace	0.08492051
86	0xbe370b54	-0.17875415
87	0xbe24f843	-0.1611033
88	0x3f1a80c6	0.6035274
89	0xbe8cc01e	-0.27490324
90	0x3e6103bc	0.21974081
91	0xbea9114c	-0.3302101
92	0x3d8d1249	0.06888253
93	0xbe158770	-0.14602447
94	0xbd7ad4b1	-0.061237995
95	0x3eec931b	0.46205983
96	0x3ead530e	0.33852428
97	0xbdd7d1ac	-0.105380386
98	0xbec61944	-0.3869115
99	0x3f181ee9	0.59422165
100	0x3ed740f8	0.42041755
101	0x3eaa2d2a	0.33237582
102	0xbd7e7adc	-0.062128887
103	0xbe02ad15	-0.12761338
104	0xbed8148e	-0.42203182
105	0xbe364b0e	-0.17802069
106	0xbe774f25	-0.24151285
107	0x3cff4532	0.031160925
108	0xbea91e15	-0.33030763
109	0x3e8b3d78	0.27195334
110	0x3ecc03c3	0.3984662
111	0x3ed30334	0.4121338
112	0x3ecc98a7	0.39960214
113	0x3deefb72	0.11669053
114	0x3ec1ebb1	0.3787513
115	0x3ea55a2b	0.32295355
116	0x3e094999	0.13406982
117	0x3eaaad52	0.33335358
118	0x3dc3e6aa	0.0956548
119	0xbf123b22	-0.5712148
120	0x3f21f1db	0.6325967
121	0x3dae50a2	0.08511473
122	0xbd9589fc	-0.07301709
123	0xbebb0f39	-0.3653505
124	0xbd68b237	-0.056810584
125	0xbee73572	-0.45157963
126	0xbe92aed2	-0.28649002
127	0xbeb1e303	-0.3474351
128	0x3d8cb62a	0.068706825
129	0x3e61eecd	0.22063752
130	0xbe10e1ca	-0.14148632
131	0x3ec5a532	0.38602597
132	0xbdfcbf42	-0.12341167
133	0xbe9d9e53	-0.30784854
134	0x3ea2bf92	0.31786782
135	0xbd0fad8b	-0.035077613
136	0x3d882c98	0.066491306
137	0xbe9d0724	-0.3066951
138	0x3e8039fb	0.25044236
139	0xbda1c930	-0.078997016
140	0xbedf7d9e	-0.43650526
141	0x3edf092a	0.4356168
142	0x3ed88ba0	0.42294025
143	0x3e8ee993	0.27912578
144	0xbe5ebb23	-0.21751074
145	0x3e554d1e	0.20830199
146	0x3f471e06	0.7778019
147	0xb96e4900	-0.00022724643
148	0x3edd2a80	0.43196487
149	0xbe92449a	-0.28567964
150	0xbe609d9f	-0.21935128
151	0xbe11b103	-0.14227681
152	0xbf20d682	-0.6282731
153	0xbf1a66a0	-0.60312843
154	0x3e809eb5	0.25121084
155	0x3edc555d	0.43033877
156	0xbf0a7441	-0.5408364
157	0x3e2d5749	0.16927828
158	0xbe67d58c	-0.22640055
159	0xbddb5616	-0.10709779
160	0x3e038918	0.12845266
161	0xbeab86dc	-0.33501327
162	0xbf0f3670	-0.5594244
163	0x3ef3cdb7	0.47617885
164	0x3f0a2775	0.53966457
165	0xbe68a536	-0.22719273
166	0x3eaf5219	0.34242323
167	0x3b6bba06	0.0035969033
168	0x3ee20f98	0.44152522
169	0xbe1bf4fb	-0.15230171
170	0xbe64d6dd	-0.22347589
171	0x3ed598eb	0.4171823
172	0xbcbe374e	-0.02321973
173	0x3e9dfdf6	0.3085782
174	0x3ca3abe7	0.01997943
175	0xbe843b0f	-0.25826308
176	0xbee2ed09	-0.44321468
177	0x3e6dd576	0.2322596
178	0x3cf8829c	0.030335717
179	0xbe08f80d	-0.13375874
180	0x3f04d2b3	0.51884
181	0xbe3c65b2	-0.18398169
182	0x3e416e0e	0.18889639
183	0xbe779465	-0.24177702
184	0xbeb882e4	-0.36037362
185	0x3e737572	0.2377527
186	0x3e188a2d	0.1489646
187	0xbd9340b1	-0.07190073
188	0xbec99322	-0.39370066
189	0x3eb3f5b7	0.35148403
190	0xbd6cbf3e	-0.05779957
191	0x3e5b7d85	0.214346
192	0x3ede931b	0.43471608
193	0xbebbcb78	-0.36678672
194	0xbedb91f5	-0.42884794
195	0x3f19a8a6	0.6002296
196	0xbddfd853	-0.109299324
197	0xbed81f96	-0.42211598
198	0x3e383564	0.17989117
199	0x3f021b9e	0.5082339
200	0x3e7fccbd	0.24980445
201	0xbeaa6e50	-0.33287287
202	0x3e3bb7ba	0.18331805
203	0xbd3c32e5	-0.045946974
204	0x3ed154a1	0.4088488
205	0x3e135cf0	0.14390922
206	0xbea3824c	-0.31935346
207	0x3e4bf74f	0.1991856
208	0x3e6c32a6	0.23066196
209	0x3e5f653d	0.21815963
210	0xbe5fac2f	-0.21843027
211	0x3ed6f4a5	0.41983524
212	0xbedc153b	-0.42984948
213	0x3dbe74cd	0.09299622
214	0x3e4a6b45	0.19767483
215	0x3ef5f1da	0.4803608
216	0x3e46f148	0.19427979
217	0x3ea33461	0.318759
218	0x3dae824f	0.08520948
219	0xbe0e7a3c	-0.13913816
220	0x3f18c1d0	0.59670734
221	0x3ea9f6d7	0.33196136
222	0x3f0c3e21	0.547823
223	0xbebb5e5b	-0.36595425
224	0xbec0bc82	-0.3764382
225	0x3d9e887d	0.07740877
226	0xbea8a2b3	-0.3293663
227	0x3ef6b0bd	0.48181716
228	0x3ddf252c	0.10895762
229	0xbebf2871	-0.37335542
230	0xbf024ec3	-0.5090143
231	0xbed722c3	-0.4201871
232	0x3f0e28a1	0.55530745
233	0x3e93cbb3	0.28866348
234	0xbe36f0f3	-0.17865352
235	0x3e1e831e	0.15479705
236	0xbe9fa259	-0.3117855
237	0x3e18f449	0.14936937
238	0x3f080519	0.5313278
239	0x3e70838c	0.23487681
240	0xbe5cd23d	-0.21564575
241	0xbe608f5b	-0.21929686
242	0x3e84efeb	0.25964293
243	0x3b45f762	0.0030207266
244	0xbe5b0d95	-0.213919
245	0x3e6fbb21	0.23411228
246	0xbf163d0c	-0.586869
247	0x3ec5663a	0.38554555
248	0xbf0db2cf	-0.55350965
249	0x3f0f8a18	0.5607009

l2.weight f4 [130, 250]
0	0x3cdbd3e7	0.026834441
1	0xbd3404fc	-0.043950066
2	0x3d17545a	0.03694568
3	0x3e195e6d	0.14977427
4	0x3d8f27db	0.06990024
5	0x3e12462b	0.1428458
6	0x3e0ac144	0.13550287
7	0x3e2b8b4a	0.16752353
8	0xbac6680f	-0.0015137213
9	0xbde50679	-0.11182875
10	0xbe4a08f1	-0.19729973
11	0x3e95bc21	0.29245093
12	0x3d0feb2e	0.035136394
13	0xbd933173	-0.07187166
14	0x3e6283d2	0.22120598
15	0x3c957f22	0.018249098
16	0xbe167e13	-0.14696531
17	0xbdd73cb5	-0.10509626
18	0x3da46c18	0.0802843
19	0xbcdce35d	-0.026963884
20	0xbec75caa	-0.38937885
21	0x3e82af54	0.2552439
22	0xbe5ccedc	-0.21563286
23	0xbe2cefaa	-0.168883
24	0x3db266cf	0.087110154
25	0x3d84d325	0.06485585
26	0xbe276a1b	-0.1634907
27	0xbdd38dde	-0.103297934
28	0x3e1b6a5b	0.1517729
29	0x3dc8d048	0.098053515
30	0x3daa02f9	0.08301348
31	0xbbf956ad	-0.0076092095
32	0x3e5a4c73	0.21318226
33	0x3e5c4bf5	0.2151335
34	0xbd53f883	-0.05175067
35	0xbda96069	-0.08270342
36	0xbe24bd3d	-0.16087814
37	0x3de7b688	0.11314112
38	0xbd996606	-0.074901626
39	0x3e591ccb	0.2120239
40	0x3e44c2c6	0.19214925
41	0x3e4e1785	0.2012616
42	0x3de1b03b	0.110199414
43	0x3e7acb09	0.24491514
44	0xbe32d4c0	-0.1746397
45	0xbc67becf	-0.014144613
46	0xbce6822b	-0.02813824
47	0xbddcafea	-0.107757404
48	0xbc37841c	-0.011200931
49	0x3e26a5a4	0.16274124
50	0x3cecc8e7	0.028904391
51	0x3d676a48	0.056497842
52	0x3dbe34ec	0.09287438
53	0x3d2c4c0a	0.042064704
54	0x3c2e946b	0.010655503
55	0xbe6b7418	-0.22993505
56	0x3d0c5992	0.03426511
57	0x3d79d667	0.060995486
58	0xbe11714c	-0.14203376
59	0xbe60b612	-0.21944454
60	0xbe043d16	-0.12913927
61	0xbe870f61	-0.2637892
62	0x3e07cbb7	0.13261305
63	0x3da85ff0	0.082214236
64	0x3da4299a	0.08015747
65	0x3e68443e	0.22682282
66	0xbd166ccc	-0.03672485
67	0x3eac3f0c	0.3364185
68	0xbdbf1438	-0.09330028
69	0xbe0e86cc	-0.13918608
70	0x3c6f5f88	0.014610179
71	0x3e785563	0.24251322
72	0x3c9399df	0.018017707
73	0x3e28570b	0.16439454
74	0xbcb4337c	-0.021997206
75	0x3de66688	0.11250025
76	0x3d225ca7	0.03963914
77	0xbda56e7e	-0.08077715
78	0x3bd8a81a	0.006611836
79	0xbdf0c3d6	-0.11756103
80	0xbd849376	-0.064734384
81	0xbdd4dbf0	-0.10393512
82	0x3ce35792	0.027751718
83	0xbdb1e097	-0.08685415
84	0xbdc4c996	-0.09608762
85	0x3d618d40	0.055066347
86	0x3d110b41	0.035411123
87	0xbd4e8491	-0.050419394
88	0xbdb5992b	-0.08867105
89	0xbc9f5d37	-0.019453628
90	0xbe5ba980	-0.21451378
91	0x3e41dcd0	0.1893189
92	0x3d168f18	0.03675756
93	0xbe0cd5fa	-0.137535
94	0xbdbe0bf5	-0.092796244
95	0x3dd966be	0.106153
96	0xbe52ecaf	-0.205981
97	0xbe936e22	-0.28794962
98	0xbe50b835	-0.2038277
99	0xbd5d784d	-0.054069806
100	0xbc7c7526	-0.01540879
101	0xbe4cedb7	-0.20012556
102	0xbdd5081c	-0.10401937
103	0xbe474f67	-0.19463883
104	0xbc23b5a0	-0.009992033
105	0xbd750f7d	-0.059829224
106	0x3dae97f4	0.085250765
107	0x3e498a73	0.1968172
108	0xbe8467f7	-0.2586057
109	0x3ba30b73	0.00497573
110	0x3ca0c8c3	0.01962698
111	0x3e3a0fb2	0.1817005
112	0x3cd44fb5	0.025916914
113	0x3d854504	0.06507304
114	0xbd934f35	-0.07192842
115	0x3d437597	0.047719564
116	0xbd804d3b	-0.062647305
117	0x3e8ee54b	0.27909312
118	0x3de4cf45	0.11172346
119	0x3e8e5144	0.27796376
120	0xbd946f19	-0.07247753
121	0x3cce1ee7	0.02516122
122	0x3dd393e5	0.10330943
123	0xbc85dd21	-0.016340794
124	0x3d277f8c	0.040893123
125	0x3e348a04	0.17630774
126	0x3c17868d	0.009248388
127	0xbe66bd91	-0.22533251
128	0x3e4db8e6	0.20090064
129	0x3c656529	0.014001169
130	0xbc18cb9b	-0.009325887
131	0x3dbdfa91	0.092763074
132	0x3aafbbb7	0.0013407384
133	0xbcbe926b	-0.023263177
134	0x3e2ae581	0.16689111
135	0x3da64a1e	0.081196055
136	0xbecf529d	-0.40492716
137	0x3c83ec88	0.016103998
138	0xbc1a65f0	-0.009423718
139	0x3e5b127a	0.21393767
140	0x3d91cf4f	0.07119619
141	0xbd842be5	-0.06453685
142	0xbd36737e	-0.044543736
143	0x3d91cd12	0.07119192
144	0xbe1a06cb	-0.15041654
145	0x3dc47be5	0.095939435
146	0x3e35dd62	0.17760232
147	0xbe1f8108	-0.15576565
148	0xbde26e74	-0.110562235
149	0x3d70d19e	0.058793657
150	0xbe41f5f1	-0.18941475
151	0xbe24af9f	-0.16082619
152	0xbee5ac4c	-0.44858015
153	0x3ec9962c	0.39372385
154	0x3ddc5a22	0.10759379
155	0xbdec4936	-0.115374014
156	0x39ebcf14	0.00044976978
157	0xbd9669c4	-0.07344392
158	0x3da8c0e5	0.08239917
159	0x3e445efe	0.19176862
160	0x3e009398	0.12556303
161	0x3cf01ca8	0.02931054
162	0xbdba11e0	-0.09085441
163	0xbda10786	-0.07862763
164	0x3d8e745c	0.069557875
165	0xbdbf067d	-0.093274094
166	0xbe60b5e8	-0.21944392
167	0xbd9ea3d1	-0.07746089
168	0xbd3ca835	-0.046058852
169	0x3dad7788	0.084700644
170	0x3ca3828f	0.019959716
171	0x3e072cba	0.13200656
172	0xbbf47159	-0.007459801
173	0xbe3662c2	-0.1781111
174	0xbdd9af08	-0.10629088
175	0x3ea048e2	0.31305605
176	0xbe83495e	-0.25641912
177	0x3daa2067	0.083069615
178	0x3e496f0b	0.19671266
179	0x3d636def	0.055524763
180	0x3b378b83	0.002800674
181	0x3d268ae4	0.0406598
182	0x3db0c8ca	0.086320475
183	0xbe45cad6	-0.19315657
184	0xbbf4ca1b	-0.007470382
185	0x3e63f5fc	0.22261804
186	0xbaaea68b	-0.001332478
187	0xbc3f9bb1	-0.011694835
188	0x3d335675	0.043783624
189	0xbdb24f45	-0.08706526
190	0x3d5e58a9	0.05428377
191	0xbe229fa2	-0.15881208
192	0x3e1175ab	0.14205043
193	0x3e3fd6d3	0.18734293
194	0xbe654ed3	-0.2239335
195	0x3e6fe85e	0.23428485
196	0x3dc7578d	0.09733496
197	0xbe52e147	-0.20593749
198	0xbe720fb2	-0.236388
199	0xbdc6d4fe	-0.09708594
200	0xbdac9b6b	-0.08428081
201	0x3e8b3d91	0.2719541
202	0xbe08cb93	-0.13358907
203	0xbd814f0f	-0.06313907
204	0x3de5df2d	0.11224208
205	0xbcd8d752	-0.02646986
206	0x3da4b724	0.08042744
207	0x3e2d1f54	0.16906482
208	0x3e0db318	0.1383785
209	0xbd7e3075	-0.06205793
210	0x3e27aa5d	0.16373582
211	0x3e08feb6	0.13378415
212	0xbc4115e9	-0.011785009
213	0xbe35d136	-0.17755589
214	0xbdc95a6a	-0.09831698
215	0x3d25ebf8	0.04050824
216	0x3d5f58b9	0.054527972
217	0x3e1282c2	0.14307693
218	0xbd702c4b	-0.05863599
219	0xbcace91b	-0.021107247
220	0x3d83b125	0.06430272
221	0x3d983bd2	0.07433285
222	0x3e375e00	0.17906952
223	0x3dddb490	0.10825455
224	0x3ebb583d	0.36590758
225	0xbd4e8243	-0.050417196
226	0xbd641980	-0.05568838
227	0xbd84a871	-0.0647744
228	0xbdcafffe	-0.09912108
229	0x3e230abe	0.15922067
230	0x3f1f1092	0.6213466
231	0xba7ee43f	-0.00097233424
232	0xbb768c56	-0.0037620268
233	0xbdc2d75c	-0.09513733
234	0x399dd23e	0.00030102016
235	0xbe1c13c2	-0.15241912
236	0xbdea52a8	-0.11441547
237	0xbdf569c8	-0.11983067
238	0xbdeac2bc	-0.11462924
239	0xbe12700d	-0.14300556
240	0xbe087443	-0.133256
241	0xbe41bf5f	-0.18920659
242	0x3e4db6a2	0.200892
243	0x3e002088	0.1251241
244	0x3cf992c0	0.030465484
245	0xbe53b8f4	-0.20676023
246	0xbe0aaed6	-0.13543257
247	0xbd60395c	-0.054742202
248	0x3f2d97a9	0.6780954
249	0x3e45a9de	0.1930308
250	0xbd8e69c8	-0.0695377
251	0xbd4b2aa9	-0.04960123
252	0x3d0c1b62	0.0342058
253	0xbdec7c6f	-0.11547171
254	0x3c03996a	0.008032182
255	0x3d4e3fb9	0.05035374

l2.bias f4 [130]
0	0xbcb7a988	-0.022419706
1	0xbca718bf	-0.020397542
2	0x3d6dff9d	0.0581051
3	0xbd3907b6	-0.04517337
4	0x3d644f86	0.055739902
5	0x3cda73c7	0.026666535
6	0x3d54b9e5	0.051935095
7	0x3c5d9999	0.01352539
8	0x3d7f3376	0.062304936
9	0xbca57443	-0.02019704
10	0x3c9ebdc7	0.019377602
11	0xbc3f38a5	-0.01167122
12	0x3d3cfc2b	0.046138924
13	0xbd2407b6	-0.040046416
14	0x3df48ad3	0.11940541
15	0xbbdd6ea1	-0.0067575728
16	0x3e4e3f3a	0.20141307
17	0x3c3e3106	0.011608368
18	0x3c8da9f4	0.017292954
19	0x3d25dd77	0.04049441
20	0x3b606803	0.0034241683
21	0x3c13e89a	0.0090276245
22	0x3d3b2e9a	0.04569874
23	0x3d755598	0.05989608
24	0x3cc2fc5c	0.023801975
25	0x3cdcfde9	0.026976543
26	0x3d3cc34c	0.046084687
27	0x3d24d9b1	0.04024667
28	0x3d4346ea	0.04767505
29	0x3dc8391d	0.097765185
30	0x3dc281ae	0.09497391
31	0x3d62da64	0.055384055
32	0x3d3e2f17	0.046431627
33	0x3c408cbf	0.0117523065
34	0xbd306b94	-0.043071344
35	0xbde66c56	-0.11251132
36	0xbb5b6bac	-0.0033480925
37	0x3de702d8	0.11279839
38	0x3d9f8015	0.077881016
39	0x3d3afda3	0.045652043
40	0xbe0366a5	-0.12832125
41	0xbcd57cd8	-0.026060507
42	0xb90a741f	-0.00013203964
43	0xbd4f5352	-0.05061657
44	0xbc48e182	-0.0122607965
45	0xbc341956	-0.010992369
46	0x3d4939db	0.04912744
47	0x3d5a0f99	0.05323753
48	0x3d838a62	0.06422879
49	0xbda2c673	-0.079480074
50	0x3d6a5054	0.057205513
51	0x3d9db9a3	0.07701423
52	0xbb004a53	-0.001957555
53	0xbcac853d	-0.021059627
54	0xbb00ef0b	-0.001967373
55	0x3de84409	0.11341102
56	0x3d1ce876	0.03830763
57	0x3d257806	0.040397666
58	0x3db1be6d	0.08678899
59	0xbdad0ecb	-0.08450087
60	0x3b8ae73a	0.00423899
61	0x3d21dddd	0.039518226
62	0x3cd03571	0.025416108
63	0x38cf7730	9.8927296e-05
64	0x3cec6fbf	0.028861878
65	0x3d01f6c8	0.03172949
66	0x3d587536	0.052846156
67	0x3d7d2215	0.06180008
68	0x3cc1127e	0.023568388
69	0xbcd56950	-0.026051193
70	0xbcf8db9d	-0.030378157
71	0x3c7d76e3	0.015470239
72	0x3e11bd8c	0.14232463
73	0x3d5db25d	0.05412518
74	0xbe52b938	-0.20578468
75	0x3e3d0666	0.18459472
76	0x3deef3fc	0.1166763
77	0xbaa95337	-0.0012918477
78	0xbda3d340	-0.07999277
79	0x3d7bf977	0.061517205
80	0xbd68378a	-0.05669359
81	0x3befb940	0.0073157847
82	0xbde2fb89	-0.11083133
83	0xbcec42d9	-0.02884047
84	0x3d569120	0.052384496
85	0x3d7545d7	0.059881058
86	0x3cd6e723	0.026233261
87	0x3d79928b	0.06093077
88	0xbd550d0b	-0.052014392
89	0xbd9c7edc	-0.07641384
90	0xbcc56f26	-0.024100851
91	0xbc6a8510	-0.014313951
92	0xbc837f55	-0.016051928
93	0xbd0873ec	-0.033313677
94	0x3d91a883	0.07112219
95	0xbc882bbd	-0.016622419
96	0x3da9fb7d	0.08299921
97	0x3d37f6dd	0.04491316
98	0x3d9816e3	0.0742624
99	0x3db1e45d	0.08686135
100	0x3cdc07bf	0.026859162
101	0x3d4fde49	0.050749097
102	0xbd015051	-0.031570736
103	0x3d6d0e0d	0.057874728
104	0x3d715062	0.05891455
105	0x3d6866cd	0.056738663
106	0xbd70d517	-0.05879697
107	0x3d9aaa4c	0.07552013
108	0xbcde78cb	-0.027157208
109	0xbd5bb74e	-0.05364161
110	0x3d167bf0	0.03673929
111	0x3c8215af	0.01587948
112	0x3d99f71c	0.075178355
113	0x3dadbace	0.08482896
114	0x3d0b1b68	0.033961684
115	0xbd4c8b16	-0.04993733
116	0xbcbeb663	-0.023280328
117	0xbd9a67fb	-0.07539364
118	0x3dc6d57a	0.09708686
119	0x3df00cb8	0.11721176
120	0x3d65729a	0.056017496
121	0xbd853b32	-0.06505431
122	0x3aa9f6cc	0.0012967228
123	0x3d267a12	0.04064376
124	0x3b9f35ab	0.0048586926
125	0x3d126e9e	0.035750024
126	0x3d5e97ec	0.054344103
127	0x3d3e526e	0.04646533
128	0x3d734012	0.059387274
129	0x3d695040	0.056961298

l3.weight f4 [50, 130]
0	0xbe0ea332	-0.13929442
1	0xbd4e4047	-0.05035427
2	0x3d5d2c2b	0.0539972
3	0xbe0b8617	-0.1362537
4	0xbe72382f	-0.23654245
5	0x3e4e7383	0.20161252
6	0xbcc7c265	-0.024384687
7	0xbc9766eb	-0.018481692
8	0x3d3eb540	0.046559572
9	0x3d6d3015	0.057907183
10	0x3c2af0cb	0.010433386
11	0xbddcb4e7	-0.10776692
12	0xbd1c0cbf	-0.038098093
13	0xbdee8ff8	-0.116485536
14	0x3d13f833	0.036125373
15	0x3cfc2caf	0.030783026
16	0xbe1e6a40	-0.15470219
17	0x3e1a4727	0.15066205
18	0xbdc27901	-0.09495736
19	0x3daac4d1	0.08338321
20	0x3e2686e1	0.1626239
21	0x3ea25367	0.31704256
22	0x3e00d9d5	0.12583096
23	0x3d8be16b	0.068301044
24	0xbd8ad4e8	-0.0677889
25	0x3b2606f6	0.002533374
26	0x3c27d9d4	0.010244805
27	0x3e5f99bd	0.2183599
28	0x3d329787	0.04360154
29	0xbd0db887	-0.034599807
30	0xbc801a90	-0.015637666
31	0xbe25e680	-0.1620121
32	0xbb909110	-0.004411824
33	0xbd366930	-0.04453391
34	0xbda0d0f3	-0.07852354
35	0xbfdd67a5	-1.7297255
36	0xbe077ddf	-0.1323161
37	0xbd792271	-0.06082386
38	0xbdca8a6e	-0.098896846
39	0x3e012761	0.12612678
40	0xbda32216	-0.07965486
41	0x3e3ef5f1	0.18648507
42	0xbd267993	-0.040643286
43	0x3cb388e8	0.021915868
44	0x3c78cbb7	0.015185288
45	0x3c752658	0.014962755
46	0xbc477e14	-0.012176055
47	0xbda014ca	-0.07816465
48	0x3db040b9	0.08606095
49	0xbeaaebe0	-0.33383083
50	0xbc2fdb21	-0.010733397
51	0x3d91f47a	0.07126708
52	0x3ca6b041	0.020347716
53	0xbdd2af53	-0.10287347
54	0x3ea66377	0.3249776
55	0xbb69da27	-0.0035683007
56	0xbd6add35	-0.057339866
57	0xbdec5d32	-0.11541213
58	0x3c957e68	0.018248752
59	0xbd7655f8	-0.06014058
60	0x3d03b929	0.032159004
61	0x3d9bdc24	0.07610348
62	0x3d34d91d	0.044152368
63	0xbd35a939	-0.044350836
64	0xbd344437	-0.044010367
65	0x3c9f74bb	0.019464841
66	0xbc5e24b9	-0.01355856
67	0x3d89f133	0.06735458
68	0xbe1e142f	-0.15437387
69	0x3dd5e495	0.10443989
70	0x3d84316d	0.0645474
71	0x3db6557d	0.08903024
72	0x3d6ad540	0.057332277
73	0x3cbff44c	0.02343192
74	0xbd65a342	-0.056063898
75	0xbda3548b	-0.0797511
76	0xbd666d67	-0.056256678
77	0x3c004f69	0.007831433
78	0xbcf60204	-0.030030258
79	0xbd426684	-0.047461048
80	0x3e546733	0.20742492
81	0x3dbce215	0.09222809
82	0x3e13fdea	0.1445233
83	0xb9029476	-0.00012453072
84	0x3d7dd1e1	0.061967734
85	0xbde66ede	-0.11251615
86	0xbe4d70e9	-0.20062603
87	0xbdfb8040	-0.12280321
88	0x3dad7bc9	0.08470876
89	0x3ca9c2e5	0.020722816
90	0xbcf2682d	-0.02959069
91	0x3e0ba477	0.13636957
92	0x3d499cf6	0.049221955
93	0x3db1fac1	0.08690406
94	0x3dbef0a0	0.09323239
95	0x3d1f9569	0.038960848
96	0x3dbc25c9	0.091868944
97	0x3d4ebd07	0.05047324
98	0xbd63ad6e	-0.055585317
99	0x3ac51100	0.0015034974
100	0x3d00d055	0.03144868
101	0xbd4a5746	-0.049399637
102	0xbe38cbed	-0.18046542
103	0x3c97cadc	0.018529348
104	0xbcddb0cc	-0.027061842
105	0xbbabc329	-0.0052417708
106	0xbeca76f0	-0.39543867
107	0x3d964c31	0.07338751
108	0x3e03a039	0.12854089
109	0xbe1f3649	-0.15548052
110	0xbdadd331	-0.08487547
111	0xbda08583	-0.07837965
112	0x3ce31842	0.027721528
113	0x3c2d1657	0.010564408
114	0x3da12a8e	0.07869445
115	0x3db73bed	0.08946977
116	0x3d8ccdf0	0.06875217
117	0x3d99c9ea	0.07509215
118	0x3c9568a4	0.018238373
119	0x3d9c14ab	0.076211296
120	0x3d257c9e	0.040402047
121	0xbed63a99	-0.4184158
122	0xbd9ee7ea	-0.07759078
123	0xbd99033d	-0.07471321
124	0xbd92c554	-0.071665436
125	0xbc0f0313	-0.00872876
126	0xbe2351cc	-0.15949172
127	0x3da123dd	0.078681685
128	0xbe0dae32	-0.13835981
129	0xbd17f1d0	-0.037095845
130	0xbe9281c7	-0.28614637
131	0xbe2f6649	-0.17128862
132	0xbab8ab79	-0.0014089189
133	0xbf1560ca	-0.58350813
134	0xbf36e495	-0.7144254
135	0x3e63565c	0.22200912
136	0x3c3de2a2	0.011589678
137	0x3ddf3450	0.1089865
138	0x3e1897ea	0.149017
139	0x3dce82f9	0.10083575
140	0x3b01c16b	0.0019799124
141	0x3d80f39f	0.06296467
142	0xbcb7dce6	-0.0224442
143	0xbdaad0a1	-0.08340574
144	0xbc14d28d	-0.009083402
145	0x3de11e7c	0.109921426
146	0xbe0e2cbe	-0.13884255
147	0xbdaae6e0	-0.08344817
148	0x3c0fba77	0.008772484
149	0xbd3585fa	-0.044317223
150	0x3dc0ef94	0.09420696
151	0x3ee1b26f	0.44081447
152	0x3ce08da7	0.027411295
153	0x3dc6e0b8	0.097108305
154	0xbd3f9a5a	-0.04677806
155	0xbe721e7d	-0.23644443
156	0x3dc35257	0.095371895
157	0x3db890f4	0.090120226
158	0x3cd3f2ea	0.025872666
159	0xbcf5e8bb	-0.030018201
160	0x3dfcdb2c	0.12346491
161	0xbe52e05b	-0.20593397
162	0xbc15b047	-0.009136266
163	0xbc1e01d6	-0.009643992
164	0x3d980f09	0.07424743
165	0xbefaf035	-0.49011388
166	0xbcdddf39	-0.02708398
167	0x3ccac3c1	0.024751546
168	0xbc88e308	-0.01670982
169	0x3d9026b2	0.070386305
170	0xbe375b78	-0.17905986
171	0x3e5b2c80	0.21403694
172	0xbe645c79	-0.223009
173	0x3e0d3d61	0.13792945
174	0x3a3d0361	0.00072102813
175	0xbcfe2dd4	-0.031027712
176	0x3acf1515	0.001579913
177	0xbdaf3229	-0.08554489
178	0x3d885e2b	0.06658586
179	0x3d11f123	0.035630357
180	0xbde4ea40	-0.11177492
181	0x3ce3ba9c	0.027798943
182	0x3d0d18ca	0.03444747
183	0xbdcae73b	-0.09907385
184	0x3d10dea1	0.035368565
185	0x3ce47d62	0.027891818
186	0x3e11c8f9	0.14236821
187	0xbea293a4	-0.31753266
188	0xbd9a2de5	-0.07528285
189	0x3dac6f89	0.08419711
190	0xbd69674b	-0.056983273
191	0x3e2e8e9e	0.17046592
192	0xbd5284c9	-0.051396165
193	0x3cbc4aa8	0.022984818
194	0xbe588351	-0.21143843
195	0xbd66eb98	-0.056377023
196	0xbda020db	-0.07818767
197	0x3e0f1190	0.13971543
198	0xbe74f09e	-0.23919913
199	0x3d4fdb65	0.05074634
200	0x3e38b3bb	0.18037312
201	0x3d152653	0.036413502
202	0x3d94d889	0.07267863
203	0x3da5e677	0.08100598
204	0xbe253874	-0.16134816
205	0xbd19421d	-0.037416566
206	0x3db4fc40	0.08837175
207	0x3df03bce	0.11730157
208	0xbedfa887	-0.43683264
209	0x3e1525ab	0.1456515
210	0x3cea03f8	0.028566346
211	0x3d5d7994	0.054071024
212	0x3e32f312	0.17475536
213	0xbc15e0d7	-0.009147844
214	0x3dca8c4b	0.0989004
215	0xbd0fb7d6	-0.03508743
216	0xbe90ae40	-0.28257942
217	0xbb521a95	-0.00320593
218	0xbdf746cd	-0.12074051
219	0x3c216097	0.009849689
220	0x3d8fdf50	0.07025015
221	0x3dc56b5a	0.09639616
222	0x3d9965d3	0.074901246
223	0xbdb8ebd7	-0.09029358
224	0x3e381f1c	0.17980617
225	0x3d6d43e2	0.057926066
226	0x3de3122b	0.1108745
227	0x3e182c76	0.1486071
228	0x3d0d9c29	0.034572754
229	0xbd93c905	-0.07216076
230	0x3d49e80e	0.04929357
231	0xbe1ecb1b	-0.15507166
232	0xbdb20e9f	-0.08694195
233	0xbe0def93	-0.13860922
234	0xbe2c434b	-0.16822545
235	0xbe5c880b	-0.21536271
236	0xbf2c6bdb	-0.67352074
237	0xbd4e7355	-0.050402958
238	0xbe077267	-0.13227235
239	0xbe244ad3	-0.16044168
240	0x3d1f0a60	0.038828254
241	0xbe0386ff	-0.12844466
242	0xbd9ceb01	-0.07662011
243	0x3ce9fc39	0.028562652
244	0x3e04219a	0.12903443
245	0x3e895276	0.26820725
246	0x3d95b972	0.073107615
247	0xbe812fa8	-0.2523167
248	0xbe0cbcac	-0.13743848
249	0x3d89528d	0.067051984
250	0x3d199144	0.03749205
251	0xc02f7f95	-2.742162
252	0xbe89d0ca	-0.26917106
253	0xbe096629	-0.13417877
254	0xbd32ee4a	-0.04368428
255	0x3deb7026	0.11496

l3.bias f4 [50]
0	0x3de3a932	0.11116256
1	0x3adf4d47	0.001703658
2	0x3d59ad0b	0.053143542
3	0xbc0ce99e	-0.008600621
4	0x3d628951	0.055306736
5	0x3cc6bb29	0.024259167
6	0x3cd7e4fe	0.02635431
7	0x3d83648e	0.06415664
8	0x3d0f06ed	0.034918714
9	0xbd438f10	-0.047743857
10	0xbd024608	-0.03180507
11	0x3d23e33c	0.04001163
12	0x3d376a96	0.044779383
13	0xbd1a289b	-0.03763638
14	0x3d0199c0	0.031640768
15	0xbdba9293	-0.09109988
16	0x3d88f907	0.06688123
17	0x3d972ecf	0.07381975
18	0x3d75e964	0.06003703
19	0xbd83c8bc	-0.064347714
20	0x3d892ca1	0.066979654
21	0x3d919b5d	0.07109711
22	0xbd0ff73a	-0.035147883
23	0xbd14df46	-0.036345743
24	0x3d584f62	0.05281008
25	0x3c9499dd	0.018139774
26	0xbd48820c	-0.048952147
27	0x3d9728ff	0.07380866
28	0xbd22094f	-0.03955966
29	0x3cc7bf04	0.024383076
30	0x3d5910fa	0.052994706
31	0xbc3bf467	-0.011471844
32	0x3cdaf8fa	0.02673005
33	0x3d97e1f7	0.07416146
34	0xbe41a37b	-0.18910019
35	0x3db88e35	0.09011499
36	0x3ab4f572	0.0013806059
37	0x3d842bc9	0.06453664
38	0xbd816963	-0.06318929
39	0xbd872a59	-0.06599874
40	0x3e14bef5	0.1452597
41	0xbd8b1b66	-0.06792335
42	0x3d88bec7	0.06677013
43	0xbcd5a833	-0.02608118
44	0x3ca3dc50	0.020002514
45	0x3d0aff6d	0.033935
46	0x3d43a4e1	0.047764663
47	0xbd15ca2d	-0.036569763
48	0x3d2d27b7	0.042274203
49	0xbb8c9436	-0.004290129

l4.weight f4 [5, 50]
0	0x3cbbec85	0.02293993
1	0xba2eefd7	-0.0006673312
2	0xbb3111f3	-0.0027018755
3	0xbd8b44e6	-0.06800251
4	0x3be01520	0.006838456
5	0xb9d5beee	-0.0004076878
6	0xbd10d482	-0.035358913
7	0xbc7c6a2b	-0.015406172
8	0xbcea0228	-0.028565481
9	0x3d283669	0.041067515
10	0x39799950	0.00023803604
11	0xbc4b95ce	-0.012425853
12	0x3cb0cd0c	0.021582149
13	0xbba5f25f	-0.0050642933
14	0xbd077a51	-0.033075634
15	0xbb228df2	-0.0024803844
16	0xbbe8cce5	-0.0071045035
17	0xbbb42ebb	-0.005498735
18	0xc0780515	-3.8753102
19	0xbbb614b3	-0.0055566668
20	0xbc84196d	-0.016125405
21	0x3bed99ff	0.007251024
22	0x3b0135f1	0.001971599
23	0xbd33b5e0	-0.04387462
24	0xbc6ffbd4	-0.014647443
25	0x3ca860e6	0.020554017
26	0x3b77b8f2	0.0037799445
27	0x3c2748ce	0.010210229
28	0xbc9f3341	-0.01943362
29	0xbce10961	-0.027470293
30	0x3da6a654	0.08137193
31	0xbc8f1362	-0.017465297
32	0xbc61e9c2	-0.013788642
33	0xbd883eb6	-0.06652586
34	0x3e8d2ee5	0.2757484
35	0x3dee4e34	0.1163601
36	0xc0808b11	-4.016976
37	0x3bae0105	0.00531018
38	0xbd43fb2b	-0.047846954
39	0x3cd2214e	0.025650647
40	0xbeb01035	-0.34387365
41	0x3e06e480	0.13173103
42	0xbc507a8b	-0.012724529
43	0x3bae0acd	0.005311346
44	0x3c9cc553	0.01913706
45	0xbb056eea	-0.00203603
46	0xbc92132a	-0.017831404
47	0xc0145001	-2.317383
48	0x3bdcc23b	0.0067370213
49	0x3d5cef1a	0.053938963
50	0xbea745d4	-0.32670462
51	0x3dd60104	0.104494125
52	0xbc0ec1dd	-0.008713213
53	0x3ecf2606	0.40458697
54	0xbdc7bb43	-0.09752514
55	0xbd72bda5	-0.05926289
56	0xbafc09c7	-0.0019228988
57	0x3c88c0f9	0.016693579
58	0x3f6f26a1	0.9341832
59	0xbb2592c3	-0.0025264479
60	0x3e09b6f5	0.13448699
61	0xbc8b75aa	-0.01702388
62	0x3f8592fa	1.0435479
63	0x3c24dde0	0.010062665
64	0xbf8b9ed6	-1.0907848
65	0x3bb4b153	0.0055143028
66	0xbe492275	-0.1964205
67	0x3e5af624	0.21382958
68	0x3f85e90e	1.0461748
69	0x3e7ed388	0.2488538
70	0xbb7562a3	-0.0037442825
71	0xbb0252d0	-0.0019885786
72	0xbd0769d8	-0.033059925
73	0xbe5f1b2e	-0.21787712
74	0x3e8341d5	0.25636163
75	0x3d957cf2	0.07299222
76	0x3ce426ac	0.027850471
77	0x3cf0e395	0.029405395
78	0x4040c7d7	3.0121973
79	0x3eb253fb	0.34829697
80	0xbe82e9d6	-0.25569028
81	0x3e3f8e10	0.18706536
82	0x3e17621c	0.1478352
83	0x3e894f52	0.2681833
84	0x3f5a9804	0.8538821
85	0x3eacaafe	0.33724207
86	0xbf2a66c1	-0.6656304
87	0x3bcb4f8a	0.00620455
88	0x3e55c85e	0.20877215
89	0xbbde0cce	-0.006776429
90	0xbf7d6847	-0.9898724
91	0xbd1dbeba	-0.03851197
92	0xbd90e25c	-0.070744246
93	0x3acd1b8d	0.001564847
94	0x3b0755ed	0.002065058
95	0xbc13636c	-0.008995872
96	0xbc891501	-0.016733648
97	0x3ea41311	0.32045797
98	0xbcba2396	-0.022722047
99	0xbf82432f	-1.0176753
100	0xba12a900	-0.0005594641
101	0xbf36ea0a	-0.71450865
102	0xbe1bfbb8	-0.15232742
103	0x3da11257	0.07864826
104	0xbf9a50b4	-1.2055879
105	0xbf583166	-0.84450376
106	0xbd9e01ac	-0.07715163
107	0xbee0051c	-0.43753898
108	0xbd5d65ff	-0.05405235
109	0xbd1ad736	-0.037802897
110	0xbe9c4053	-0.30517825
111	0x3c6e54a0	0.014546543
112	0xbe0bef86	-0.1366559
113	0x3d462d12	0.048382826
114	0x3e04a267	0.12952577
115	0xbe0b100e	-0.13580343
116	0xbfbc5b70	-1.4715405
117	0x3eed5cc6	0.46359843
118	0xbc9db486	-0.01925112
119	0x3eb0cec9	0.34532765
120	0x3f715158	0.94264746
121	0xbb90b4cf	-0.0044160853
122	0x3e8a1079	0.26965693
123	0x3e5c799d	0.21530767
124	0xc0833322	-4.099992
125	0xbd885187	-0.06656175
126	0x3f352e16	0.70773447
127	0xbc8b664c	-0.017016552
128	0x3d542ea9	0.05180231
129	0x3e867ecc	0.26268613
130	0x3e1bd298	0.15217054
131	0xbefbe864	-0.49200737
132	0xc06c36e7	-3.690851
133	0xbe26897c	-0.16263384
134	0xbd8177fa	-0.06321712
135	0xbe0f1c10	-0.13975549
136	0x3d1a1a2b	0.037622612
137	0xbcda1a28	-0.0266238
138	0xbe713c65	-0.23558195
139	0xbf4aad97	-0.7917113
140	0xbcb2ff06	-0.02185012
141	0x3d93a315	0.0720884
142	0x3d8e68a8	0.06953555
143	0x3e0e73c3	0.13911347
144	0xbd7b9ce9	-0.061428938
145	0x3e9084bf	0.28226277
146	0xbea670f7	-0.3250806
147	0x3d2df04e	0.0424655
148	0xbe41e244	-0.1893397
149	0x3db8f5a8	0.0903123
150	0xbcb01f7b	-0.021499386
151	0xbf45ac6f	-0.7721624
152	0x3e421153	0.18951921
153	0x3c2b2c9f	0.01044765
154	0x3fadc324	1.3575177
155	0xbfc1303b	-1.5092844
156	0x3f39407d	0.72364026
157	0xbc07e182	-0.008293511
158	0x3d38ded7	0.04513439
159	0x3f04e17f	0.5190658
160	0xbb8f5da1	-0.004375175
161	0xbfc6bfc3	-1.5527271
162	0x3a85b858	0.0010202033
163	0xbf8aea74	-1.08528
164	0x3b6b59a4	0.0035911584
165	0x3f890d0d	1.0707108
166	0xba203266	-0.00061110256
167	0xbd1b9533	-0.037984084
168	0x3d5da52c	0.0541126
169	0x3dd2b0d9	0.10287637
170	0xc010cefd	-2.2626336
171	0x3eae14de	0.34000295
172	0x3ca79edc	0.020461492
173	0xbe030688	-0.1279546
174	0x3dfe2aa9	0.124104805
175	0xbf7cb6c5	-0.98716384
176	0x3de527db	0.111892425
177	0xbd4bd8fb	-0.049767476
178	0xbd3847b9	-0.044990275
179	0x3dc7b502	0.097513214
180	0x3abe642a	0.0014525701
181	0xbe9ce4ab	-0.3064321
182	0x3f2a51fd	0.66531354
183	0xbd49a65e	-0.049230926
184	0xbd4e13ea	-0.05031196
185	0xbc7a5387	-0.0152787035
186	0xbcc77821	-0.024349274
187	0x3fb879de	1.4412191
188	0xbce57808	-0.028011337
189	0xc04f8d42	-3.2429967
190	0x3d26c369	0.0407137
191	0xbc6b96f8	-0.0143792555
192	0x3f3ba601	0.73300177
193	0xbf3bc293	-0.7334377
194	0xbf6c4625	-0.9229453
195	0x3d692a00	0.05692482
196	0xbd4f3156	-0.05058416
197	0xbbd2f5b4	-0.0064379815
198	0x3fc0d528	1.506505
199	0xbcae7921	-0.021297993
200	0x3d92c450	0.0716635
201	0xbd95c6a4	-0.07313278
202	0x3e9f2c8f	0.31088683
203	0xbd0552e6	-0.03254976
204	0x3c06dbc9	0.008231112
205	0x3cbd67c8	0.023120776
206	0x3e2372cb	0.15961759
207	0xbaffb84c	-0.0019509881
208	0x3dafe4ce	0.08588563
209	0x3ddb4c92	0.10707964
210	0x3c501406	0.012700086
211	0xbe85f7ed	-0.26165715
212	0xbbce21a8	-0.006290633
213	0xbde599ac	-0.11210951
214	0x3c6e7552	0.0145543385
215	0xba755ef8	-0.000936016
216	0x3c4a70b3	0.012355971
217	0xbca10d59	-0.019659685
218	0xbc720676	-0.014772048
219	0x3cc10877	0.023563607
220	0xbcd69cc5	-0.0261978
221	0xbe02e4d4	-0.12782604
222	0x3ca1e4c3	0.019762402
223	0xbe2aaece	-0.16668245
224	0xbc4bc59a	-0.012437249
225	0xc0657f7b	-3.5859058
226	0x3d43cf44	0.047805086
227	0x3ea6b726	0.32561606
228	0xbce0072d	-0.027347172
229	0xbbd509c0	-0.0065014064
230	0x3e49911e	0.19684264
231	0xbdd74a44	-0.10512212
232	0x3c41e0aa	0.011833349
233	0x3be1052a	0.0068670707
234	0x3aef660e	0.0018264668
235	0xbd27e8df	-0.040993568
236	0xbba5219a	-0.005039406
237	0x3e2d2b56	0.16911063
238	0xbd06325f	-0.03276288
239	0xbd074b29	-0.033030663
240	0x3ba2afe7	0.004964817
241	0xbd3bc015	-0.04583748
242	0xc0733a39	-3.8004286
243	0x3b917138	0.0044385456
244	0xbe538980	-0.20657921
245	0x3d6e6ebc	0.058211073
246	0xbc659f1e	-0.014014987
247	0x3be50245	0.006988796
248	0x3d330516	0.043706022
249	0xbd1cfc3b	-0.038326483

l4.bias f4 [5]
0	0xbcf0a764	-0.029376693
1	0x3d1b9d1b	0.037991624
2	0xbd45c632	-0.048284717
3	0xbda3c0de	-0.07995771
4	0x3bd728fc	0.006566165

exp_avg f4 [250, 7]
0	0xb7282a24	-1.0023392e-05
1	0x37899ba3	1.6404147e-05
2	0xb79af972	-1.8474388e-05
3	0xb73957dc	-1.1047316e-05
4	0x3707db00	8.097617e-06
5	0x352bb02d	6.3958834e-07
6	0xb735b921	-1.0831544e-05
7	0x374fff9d	1.2397676e-05
8	0xb79f0096	-1.895455e-05
9	0xb307af76	-3.1591718e-08
10	0xb7e59153	-2.73666e-05
11	0x37aae594	2.0372485e-05
12	0x3735013f	1.0788731e-05
13	0x378a652b	1.6497992e-05
14	0xb83fe882	-4.575449e-05
15	0x368f0350	4.2621177e-06
16	0xb840db2c	-4.5980487e-05
17	0x370cc098	8.389492e-06
18	0xb806f706	-3.2178148e-05
19	0xb6746dbf	-3.6422714e-06
20	0xb84509f0	-4.6977715e-05
21	0xb5ae64f4	-1.2993391e-06
22	0xb5f19d68	-1.800171e-06
23	0xb60eeb91	-2.1296767e-06
24	0x370f55c7	8.543436e-06
25	0xb6b06d9d	-5.2579694e-06
26	0xb63672e7	-2.7186995e-06
27	0xb632d8e4	-2.6650314e-06
28	0x380be87b	3.3356697e-05
29	0xb7391ada	-1.1033111e-05
30	0xb7a7dace	-2.000984e-05
31	0x37f179a8	2.878609e-05
32	0xb518baca	-5.6896226e-07
33	0xb79d93cc	-1.8784682e-05
34	0xb80ee9e4	-3.4073266e-05
35	0xb6d7a0d0	-6.4262204e-06
36	0x36804b03	3.82343e-06
37	0xb68a7806	-4.126693e-06
38	0x378f4dbb	1.7083124e-05
39	0x38771eb7	5.8917994e-05
40	0x3734743d	1.07559e-05
41	0x38667a47	5.4950153e-05
42	0xb74fda72	-1.2389022e-05
43	0xb675c5a6	-3.6622891e-06
44	0x3676abf1	3.675694e-06
45	0xb67ea1bb	-3.794309e-06
46	0xb7331f32	-1.0676495e-05
47	0x35e21af3	1.6846155e-06
48	0x36144d19	2.2098595e-06
49	0x368ddaa3	4.22758e-06
50	0xb7b1cd2d	-2.1195587e-05
51	0xb826b3c3	-3.97449e-05
52	0x37fe3fd2	3.0308878e-05
53	0x3779e983	1.4895925e-05
54	0xb6904cc3	-4.3004707e-06
55	0xb59e9d15	-1.1817634e-06
56	0x371bc25d	9.283974e-06
57	0xb6c40706	-5.842073e-06
58	0x370b86f3	8.316466e-06
59	0xb76d0444	-1.4127294e-05
60	0xb68bfb6e	-4.171793e-06
61	0xb65df50f	-3.307421e-06
62	0x36259c55	2.4677913e-06
63	0x36af9087	5.2322316e-06
64	0xb795ff2c	-1.7881008e-05
65	0x37ff1b98	3.0411218e-05
66	0xb784a213	-1.5811098e-05
67	0x37b59bcb	2.1649428e-05
68	0x375d962a	1.3207589e-05
69	0x3801d34c	3.0952782e-05
70	0xb521192a	-6.001379e-07
71	0x362192f6	2.4076412e-06
72	0x37a88fbe	2.0094096e-05
73	0xb75c4e8d	-1.3131311e-05
74	0xb6cd1a44	-6.112534e-06
75	0xb6814f4e	-3.853732e-06
76	0x35f7e6b7	1.8470081e-06
77	0xb6bde0e1	-5.6588183e-06
78	0x35f4614f	1.8207737e-06
79	0xb71faedc	-9.517851e-06
80	0x37c550e9	2.3521907e-05
81	0xb62626ab	-2.4758435e-06
82	0x37026069	7.771051e-06
83	0x3506c8e4	5.0211224e-07
84	0xb5b93d00	-1.3801327e-06
85	0x3701b942	7.732133e-06
86	0xb7cb6a70	-2.424905e-05
87	0x3708107a	8.110068e-06
88	0x3747df61	1.1913334e-05
89	0xb6460100	-2.9504881e-06
90	0xb6ce7624	-6.153032e-06
91	0xb6fef629	-7.5984467e-06
92	0xb781daa8	-1.5479818e-05
93	0x37bbf3ac	2.2405606e-05
94	0xb7a812ea	-2.0035968e-05
95	0x376231d1	1.34822485e-05
96	0x3773e51d	1.4537273e-05
97	0x3800f7e0	3.074843e-05
98	0x37b63f3a	2.1725533e-05
99	0xb80dfbfa	-3.385169e-05
100	0x36bf89a7	5.7082684e-06
101	0xb730c8dc	-1.0537184e-05
102	0xb798cf55	-1.8216359e-05
103	0xb78718fd	-1.610489e-05
104	0xb5dbb6ed	-1.637001e-06
105	0xb70bcdac	-8.332932e-06
106	0xb5a5bcf3	-1.234845e-06
107	0x37a69338	1.9857296e-05
108	0xb720d6f2	-9.586789e-06
109	0x38017ad9	3.0870407e-05
110	0x37226243	9.678831e-06
111	0x384377a0	4.6603032e-05
112	0x3585704e	9.941957e-07
113	0xb638b14c	-2.7521337e-06
114	0x37a1561b	1.9232792e-05
115	0xb7715299	-1.4383951e-05
116	0xb6674c73	-3.4466182e-06
117	0xb6459b04	-2.9445519e-06
118	0x37191943	9.125392e-06
119	0xb613d2c3	-2.2027386e-06
120	0xb66354f8	-3.3875094e-06
121	0xb75e5172	-1.3251194e-05
122	0x36caeedf	6.0478774e-06
123	0x37460fc5	1.1805391e-05
124	0x36fd22a8	7.544022e-06
125	0x3682be42	3.896451e-06
126	0xb6c3e3b0	-5.837959e-06
127	0xb6f8dc34	-7.416611e-06
128	0xb7e143f8	-2.685374e-05
129	0x374099d4	1.1479908e-05
130	0xb7a080f1	-1.913353e-05
131	0xb65c9c7a	-3.2873636e-06
132	0xb8196bda	-3.6578487e-05
133	0xb81f9f1f	-3.8056747e-05
134	0xb774e46f	-1.459672e-05
135	0xb74fe13c	-1.2390603e-05
136	0xb746847b	-1.1832565e-05
137	0xb816e9ee	-3.598065e-05
138	0x35fa8616	1.8665476e-06
139	0xb815b24c	-3.569042e-05
140	0x36daf92c	6.5259137e-06
141	0x37139839	8.797325e-06
142	0xb6989d44	-4.548261e-06
143	0x3738a1ed	1.1004956e-05
144	0x361888fb	2.2729498e-06
145	0x359ead52	1.182236e-06
146	0xb7295ea1	-1.00952175e-05
147	0xb669ed9a	-3.4858008e-06
148	0xb51b0754	-5.7752663e-07
149	0x364375bd	2.9125797e-06
150	0xb69fc1ac	-4.7611156e-06
151	0x35a67890	1.2403052e-06
152	0x367e6eb9	3.7913399e-06
153	0x37529b3b	1.2553118e-05
154	0xb785dbb4	-1.5957143e-05
155	0x37a0379a	1.9099378e-05
156	0x379b184a	1.848875e-05
157	0xb6df4f42	-6.6551447e-06
158	0xb7b213ed	-2.1228532e-05
159	0x35d88c45	1.6134078e-06
160	0x36389371	2.7503959e-06
161	0x370ee6d3	8.5176025e-06
162	0xb6835e7a	-3.9151028e-06
163	0x37811376	1.538706e-05
164	0x36a65f1a	4.958257e-06
165	0xb51eede2	-5.920575e-07
166	0xb67e6f6d	-3.7913808e-06
167	0x37643d14	1.360408e-05
168	0xb77c684f	-1.5044657e-05
169	0x36fd9f44	7.5585285e-06
170	0x382495ee	3.924028e-05
171	0xb6d9b73b	-6.488435e-06
172	0xb69f1fe2	-4.742281e-06
173	0x369d6921	4.6912032e-06
174	0x37e3be72	2.7149192e-05
175	0xb8102fd4	-3.437682e-05
176	0x364ef7e1	3.0840677e-06
177	0x37854fd4	1.5892008e-05
178	0x3761e782	1.3464947e-05
179	0xb77117a9	-1.4370228e-05
180	0xb6b0a076	-5.263889e-06
181	0xb734ebcf	-1.07837395e-05
182	0xb5e104f6	-1.676525e-06
183	0x38079f6c	3.233498e-05
184	0xb793bc0e	-1.7611335e-05
185	0xb7239a76	-9.75152e-06
186	0x36d1cd86	6.2526115e-06
187	0x36d3417f	6.295915e-06
188	0xb7a4c8e4	-1.964387e-05
189	0xb5e2e736	-1.6905603e-06
190	0x3720876c	9.5682735e-06
191	0x37af5737	2.0902238e-05
192	0x37780462	1.4782972e-05
193	0xb7d91a89	-2.5880772e-05
194	0xb748cdcf	-1.19688475e-05
195	0xb8006f18	-3.0621042e-05
196	0xb67f836a	-3.8074454e-06
197	0xb6b3a2c6	-5.353565e-06
198	0xb80c1382	-3.339677e-05
199	0xb71c53b3	-9.317812e-06
200	0x37e62b38	2.7438262e-05
201	0x3711741b	8.669706e-06
202	0xb6f3f017	-7.2699145e-06
203	0xb71eaf8f	-9.458409e-06
204	0x36a5aa11	4.9371815e-06
205	0xb61b4bfe	-2.3141033e-06
206	0x3808878a	3.2551157e-05
207	0xb70d19ae	-8.410234e-06
208	0xb621fa62	-2.4136612e-06
209	0xb643f04a	-2.919713e-06
210	0x3890193f	6.8711575e-05
211	0x3694716a	4.423947e-06
212	0xb706120e	-7.991226e-06
213	0x362689fd	2.4816247e-06
214	0x38533ce1	5.0363018e-05
215	0x36dbe2f5	6.55313e-06
216	0x38343bba	4.297097e-05
217	0xb727579c	-9.974374e-06
218	0x354e4863	7.6846317e-07
219	0xb76b2ef3	-1.4018023e-05
220	0xb5be8d94	-1.4197308e-06
221	0xb4a0986b	-2.991322e-07
222	0xb54ecd10	-7.7039385e-07
223	0xb40992ec	-1.2812569e-07
224	0xb60c4b22	-2.0905359e-06
225	0x37ac32e3	2.0527694e-05
226	0x37670b7d	1.3771348e-05
227	0x36d53dfb	6.35511e-06
228	0xb527e54f	-6.2546036e-07
229	0xb6a142f6	-4.805969e-06
230	0xb7077757	-8.074413e-06
231	0xb71ff16d	-9.53335e-06
232	0xb7844810	-1.5769183e-05
233	0xb725ea1a	-9.889272e-06
234	0xb71e6f16	-9.443398e-06
235	0xb63bd30b	-2.7988015e-06
236	0x373d8cff	1.1298106e-05
237	0x36ad494e	5.1643356e-06
238	0xb69d18fd	-4.6818736e-06
239	0xb6dece02	-6.640098e-06
240	0xb7a88e3e	-2.0093397e-05
241	0x37674d72	1.3786705e-05
242	0x375d69db	1.3197273e-05
243	0x36ed2c1e	7.0682863e-06
244	0xb6dfcc6d	-6.669716e-06
245	0x360ac65f	2.067907e-06
246	0xb706ef41	-8.042728e-06
247	0x372d5695	1.03317625e-05
248	0x375dab3f	1.3212498e-05
249	0x37dcd996	2.6327365e-05
250	0xb54cd6da	-7.630857e-07
251	0x37acae66	2.0585208e-05
252	0x35f1e47d	1.8022398e-06
253	0xb664c927	-3.4091734e-06
254	0xb7c2223a	-2.314254e-05
255	0xb7c6c7a8	-2.3696412e-05
